…
2025-03-20 20:16:28,367 - speechbrain.utils.parameter_transfer - DEBUG - Redirecting (loading from local path): tokenizer -> /scratch/flatala/speechbrain/transformer/results_fold_5/conformer_small/7775/save/tokenizer.ckpt
2025-03-20 20:16:28,955 - speechbrain.utils.checkpoints - WARNING - During parameter transfer to TransformerLM(
  (positional_encoding): PositionalEncoding()
  (encoder): TransformerEncoder(
    (layers): ModuleList(
      (0-11): 12 x TransformerEncoderLayer(
        (self_att): MultiheadAttention(
          (att): MultiheadAttention(
            (out_proj): NonDynamicallyQuantizableLinear(in_features=768, out_features=768, bias=True)
          )
        )
        (pos_ffn): PositionalwiseFeedForward(
          (ffn): Sequential(
            (0): Linear(in_features=768, out_features=3072, bias=True)
            (1): GELU(approximate='none')
            (2): Dropout(p=0.0, inplace=False)
            (3): Linear(in_features=3072, out_features=768, bias=True)
          )
        )
        (norm1): LayerNorm(
          (norm): LayerNorm((768,), eps=1e-06, elementwise_affine=True)
        )
        (norm2): LayerNorm(
          (norm): LayerNorm((768,), eps=1e-06, elementwise_affine=True)
        )
        (dropout1): Dropout(p=0.0, inplace=False)
        (dropout2): Dropout(p=0.0, inplace=False)
      )
    )
    (norm): LayerNorm(
      (norm): LayerNorm((768,), eps=1e-06, elementwise_affine=True)
    )
  )
  (custom_src_module): NormalizedEmbedding(
    (emb): Embedding(
      (Embedding): Embedding(5000, 768)
    )
  )
  (output_proj): ModuleList(
    (layers): ModuleList(
      (0): Linear(
        (w): Linear(in_features=768, out_features=768, bias=True)
      )
      (1): LayerNorm(
        (norm): LayerNorm((768,), eps=1e-06, elementwise_affine=True)
      )
      (2): Linear(
        (w): Linear(in_features=768, out_features=5000, bias=True)
      )
    )
  )
) loading from /scratch/flatala/speechbrain/transformer/results_fold_5/conformer_small/7775/save/lm.ckpt, the transferred parameters did not have parameters for the key: positional_encoding.pe
2025-03-20 20:16:28,955 - speechbrain.utils.checkpoints - WARNING - During parameter transfer to TransformerLM(
  (positional_encoding): PositionalEncoding()
  (encoder): TransformerEncoder(
    (layers): ModuleList(
      (0-11): 12 x TransformerEncoderLayer(
        (self_att): MultiheadAttention(
          (att): MultiheadAttention(
            (out_proj): NonDynamicallyQuantizableLinear(in_features=768, out_features=768, bias=True)
          )
        )
        (pos_ffn): PositionalwiseFeedForward(
          (ffn): Sequential(
            (0): Linear(in_features=768, out_features=3072, bias=True)
            (1): GELU(approximate='none')
            (2): Dropout(p=0.0, inplace=False)
            (3): Linear(in_features=3072, out_features=768, bias=True)
          )
        )
        (norm1): LayerNorm(
          (norm): LayerNorm((768,), eps=1e-06, elementwise_affine=True)
        )
        (norm2): LayerNorm(
          (norm): LayerNorm((768,), eps=1e-06, elementwise_affine=True)
        )
        (dropout1): Dropout(p=0.0, inplace=False)
        (dropout2): Dropout(p=0.0, inplace=False)
      )
    )
    (norm): LayerNorm(
      (norm): LayerNorm((768,), eps=1e-06, elementwise_affine=True)
    )
  )
  (custom_src_module): NormalizedEmbedding(
    (emb): Embedding(
      (Embedding): Embedding(5000, 768)
    )
  )
  (output_proj): ModuleList(
    (layers): ModuleList(
      (0): Linear(
        (w): Linear(in_features=768, out_features=768, bias=True)
      )
      (1): LayerNorm(
        (norm): LayerNorm((768,), eps=1e-06, elementwise_affine=True)
      )
      (2): Linear(
        (w): Linear(in_features=768, out_features=5000, bias=True)
      )
    )
  )
) loading from /scratch/flatala/speechbrain/transformer/results_fold_5/conformer_small/7775/save/lm.ckpt, the transferred parameters did not have parameters for the key: encoder.layers.0.self_att.att.in_proj_weight
2025-03-20 20:16:28,956 - speechbrain.utils.checkpoints - WARNING - During parameter transfer to TransformerLM(
  (positional_encoding): PositionalEncoding()
  (encoder): TransformerEncoder(
    (layers): ModuleList(
      (0-11): 12 x TransformerEncoderLayer(
        (self_att): MultiheadAttention(
          (att): MultiheadAttention(
            (out_proj): NonDynamicallyQuantizableLinear(in_features=768, out_features=768, bias=True)
          )
        )
        (pos_ffn): PositionalwiseFeedForward(
          (ffn): Sequential(
            (0): Linear(in_features=768, out_features=3072, bias=True)
            (1): GELU(approximate='none')
            (2): Dropout(p=0.0, inplace=False)
            (3): Linear(in_features=3072, out_features=768, bias=True)
          )
        )
        (norm1): LayerNorm(
          (norm): LayerNorm((768,), eps=1e-06, elementwise_affine=True)
        )
        (norm2): LayerNorm(
          (norm): LayerNorm((768,), eps=1e-06, elementwise_affine=True)
        )
        (dropout1): Dropout(p=0.0, inplace=False)
        (dropout2): Dropout(p=0.0, inplace=False)
      )
    )
    (norm): LayerNorm(
      (norm): LayerNorm((768,), eps=1e-06, elementwise_affine=True)
    )
  )
  (custom_src_module): NormalizedEmbedding(
    (emb): Embedding(
      (Embedding): Embedding(5000, 768)
    )
  )
  (output_proj): ModuleList(
    (layers): ModuleList(
      (0): Linear(
        (w): Linear(in_features=768, out_features=768, bias=True)
      )
      (1): LayerNorm(
        (norm): LayerNorm((768,), eps=1e-06, elementwise_affine=True)
      )
      (2): Linear(
        (w): Linear(in_features=768, out_features=5000, bias=True)
      )
    )
  )
) loading from /scratch/flatala/speechbrain/transformer/results_fold_5/conformer_small/7775/save/lm.ckpt, the transferred parameters did not have parameters for the key: encoder.layers.0.self_att.att.in_proj_bias
2025-03-20 20:16:28,957 - speechbrain.utils.checkpoints - WARNING - During parameter transfer to TransformerLM(
  (positional_encoding): PositionalEncoding()
  (encoder): TransformerEncoder(
    (layers): ModuleList(
      (0-11): 12 x TransformerEncoderLayer(
        (self_att): MultiheadAttention(
          (att): MultiheadAttention(
            (out_proj): NonDynamicallyQuantizableLinear(in_features=768, out_features=768, bias=True)
          )
        )
        (pos_ffn): PositionalwiseFeedForward(
          (ffn): Sequential(
            (0): Linear(in_features=768, out_features=3072, bias=True)
            (1): GELU(approximate='none')
            (2): Dropout(p=0.0, inplace=False)
            (3): Linear(in_features=3072, out_features=768, bias=True)
          )
        )
        (norm1): LayerNorm(
          (norm): LayerNorm((768,), eps=1e-06, elementwise_affine=True)
        )
        (norm2): LayerNorm(
          (norm): LayerNorm((768,), eps=1e-06, elementwise_affine=True)
        )
        (dropout1): Dropout(p=0.0, inplace=False)
        (dropout2): Dropout(p=0.0, inplace=False)
      )
    )
    (norm): LayerNorm(
      (norm): LayerNorm((768,), eps=1e-06, elementwise_affine=True)
    )
  )
  (custom_src_module): NormalizedEmbedding(
    (emb): Embedding(
      (Embedding): Embedding(5000, 768)
    )
  )
  (output_proj): ModuleList(
    (layers): ModuleList(
      (0): Linear(
        (w): Linear(in_features=768, out_features=768, bias=True)
      )
      (1): LayerNorm(
        (norm): LayerNorm((768,), eps=1e-06, elementwise_affine=True)
      )
      (2): Linear(
        (w): Linear(in_features=768, out_features=5000, bias=True)
      )
    )
  )
) loading from /scratch/flatala/speechbrain/transformer/results_fold_5/conformer_small/7775/save/lm.ckpt, the transferred parameters did not have parameters for the key: encoder.layers.0.self_att.att.out_proj.weight
2025-03-20 20:16:28,957 - speechbrain.utils.checkpoints - WARNING - During parameter transfer to TransformerLM(
  (positional_encoding): PositionalEncoding()
  (encoder): TransformerEncoder(
    (layers): ModuleList(
      (0-11): 12 x TransformerEncoderLayer(
        (self_att): MultiheadAttention(
          (att): MultiheadAttention(
            (out_proj): NonDynamicallyQuantizableLinear(in_features=768, out_features=768, bias=True)
          )
        )
        (pos_ffn): PositionalwiseFeedForward(
          (ffn): Sequential(
            (0): Linear(in_features=768, out_features=3072, bias=True)
            (1): GELU(approximate='none')
            (2): Dropout(p=0.0, inplace=False)
            (3): Linear(in_features=3072, out_features=768, bias=True)
          )
        )
        (norm1): LayerNorm(
          (norm): LayerNorm((768,), eps=1e-06, elementwise_affine=True)
        )
        (norm2): LayerNorm(
          (norm): LayerNorm((768,), eps=1e-06, elementwise_affine=True)
        )
        (dropout1): Dropout(p=0.0, inplace=False)
        (dropout2): Dropout(p=0.0, inplace=False)
      )
    )
    (norm): LayerNorm(
      (norm): LayerNorm((768,), eps=1e-06, elementwise_affine=True)
    )
  )
  (custom_src_module): NormalizedEmbedding(
    (emb): Embedding(
      (Embedding): Embedding(5000, 768)
    )
  )
  (output_proj): ModuleList(
    (layers): ModuleList(
      (0): Linear(
        (w): Linear(in_features=768, out_features=768, bias=True)
      )
      (1): LayerNorm(
        (norm): LayerNorm((768,), eps=1e-06, elementwise_affine=True)
      )
      (2): Linear(
        (w): Linear(in_features=768, out_features=5000, bias=True)
      )
    )
  )
) loading from /scratch/flatala/speechbrain/transformer/results_fold_5/conformer_small/7775/save/lm.ckpt, the transferred parameters did not have parameters for the key: encoder.layers.0.self_att.att.out_proj.bias
2025-03-20 20:16:28,958 - speechbrain.utils.checkpoints - WARNING - During parameter transfer to TransformerLM(
  (positional_encoding): PositionalEncoding()
  (encoder): TransformerEncoder(
    (layers): ModuleList(
      (0-11): 12 x TransformerEncoderLayer(
        (self_att): MultiheadAttention(
          (att): MultiheadAttention(
            (out_proj): NonDynamicallyQuantizableLinear(in_features=768, out_features=768, bias=True)
          )
        )
        (pos_ffn): PositionalwiseFeedForward(
          (ffn): Sequential(
            (0): Linear(in_features=768, out_features=3072, bias=True)
            (1): GELU(approximate='none')
            (2): Dropout(p=0.0, inplace=False)
            (3): Linear(in_features=3072, out_features=768, bias=True)
          )
        )
        (norm1): LayerNorm(
          (norm): LayerNorm((768,), eps=1e-06, elementwise_affine=True)
        )
        (norm2): LayerNorm(
          (norm): LayerNorm((768,), eps=1e-06, elementwise_affine=True)
        )
        (dropout1): Dropout(p=0.0, inplace=False)
        (dropout2): Dropout(p=0.0, inplace=False)
      )
    )
    (norm): LayerNorm(
      (norm): LayerNorm((768,), eps=1e-06, elementwise_affine=True)
    )
  )
  (custom_src_module): NormalizedEmbedding(
    (emb): Embedding(
      (Embedding): Embedding(5000, 768)
    )
  )
  (output_proj): ModuleList(
    (layers): ModuleList(
      (0): Linear(
        (w): Linear(in_features=768, out_features=768, bias=True)
      )
      (1): LayerNorm(
        (norm): LayerNorm((768,), eps=1e-06, elementwise_affine=True)
      )
      (2): Linear(
        (w): Linear(in_features=768, out_features=5000, bias=True)
      )
    )
  )
) loading from /scratch/flatala/speechbrain/transformer/results_fold_5/conformer_small/7775/save/lm.ckpt, the transferred parameters did not have parameters for the key: encoder.layers.0.pos_ffn.ffn.0.weight
2025-03-20 20:16:28,958 - speechbrain.utils.checkpoints - WARNING - During parameter transfer to TransformerLM(
  (positional_encoding): PositionalEncoding()
  (encoder): TransformerEncoder(
    (layers): ModuleList(
      (0-11): 12 x TransformerEncoderLayer(
        (self_att): MultiheadAttention(
          (att): MultiheadAttention(
            (out_proj): NonDynamicallyQuantizableLinear(in_features=768, out_features=768, bias=True)
          )
        )
        (pos_ffn): PositionalwiseFeedForward(
          (ffn): Sequential(
            (0): Linear(in_features=768, out_features=3072, bias=True)
            (1): GELU(approximate='none')
            (2): Dropout(p=0.0, inplace=False)
            (3): Linear(in_features=3072, out_features=768, bias=True)
          )
        )
        (norm1): LayerNorm(
          (norm): LayerNorm((768,), eps=1e-06, elementwise_affine=True)
        )
        (norm2): LayerNorm(
          (norm): LayerNorm((768,), eps=1e-06, elementwise_affine=True)
        )
        (dropout1): Dropout(p=0.0, inplace=False)
        (dropout2): Dropout(p=0.0, inplace=False)
      )
    )
    (norm): LayerNorm(
      (norm): LayerNorm((768,), eps=1e-06, elementwise_affine=True)
    )
  )
  (custom_src_module): NormalizedEmbedding(
    (emb): Embedding(
      (Embedding): Embedding(5000, 768)
    )
  )
  (output_proj): ModuleList(
    (layers): ModuleList(
      (0): Linear(
        (w): Linear(in_features=768, out_features=768, bias=True)
      )
      (1): LayerNorm(
        (norm): LayerNorm((768,), eps=1e-06, elementwise_affine=True)
      )
      (2): Linear(
        (w): Linear(in_features=768, out_features=5000, bias=True)
      )
    )
  )
) loading from /scratch/flatala/speechbrain/transformer/results_fold_5/conformer_small/7775/save/lm.ckpt, the transferred parameters did not have parameters for the key: encoder.layers.0.pos_ffn.ffn.0.bias
2025-03-20 20:16:28,959 - speechbrain.utils.checkpoints - WARNING - During parameter transfer to TransformerLM(
  (positional_encoding): PositionalEncoding()
  (encoder): TransformerEncoder(
    (layers): ModuleList(
      (0-11): 12 x TransformerEncoderLayer(
        (self_att): MultiheadAttention(
          (att): MultiheadAttention(
            (out_proj): NonDynamicallyQuantizableLinear(in_features=768, out_features=768, bias=True)
          )
        )
        (pos_ffn): PositionalwiseFeedForward(
          (ffn): Sequential(
            (0): Linear(in_features=768, out_features=3072, bias=True)
            (1): GELU(approximate='none')
            (2): Dropout(p=0.0, inplace=False)
            (3): Linear(in_features=3072, out_features=768, bias=True)
          )
        )
        (norm1): LayerNorm(
          (norm): LayerNorm((768,), eps=1e-06, elementwise_affine=True)
        )
        (norm2): LayerNorm(
          (norm): LayerNorm((768,), eps=1e-06, elementwise_affine=True)
        )
        (dropout1): Dropout(p=0.0, inplace=False)
        (dropout2): Dropout(p=0.0, inplace=False)
      )
    )
    (norm): LayerNorm(
      (norm): LayerNorm((768,), eps=1e-06, elementwise_affine=True)
    )
  )
  (custom_src_module): NormalizedEmbedding(
    (emb): Embedding(
      (Embedding): Embedding(5000, 768)
    )
  )
  (output_proj): ModuleList(
    (layers): ModuleList(
      (0): Linear(
        (w): Linear(in_features=768, out_features=768, bias=True)
      )
      (1): LayerNorm(
        (norm): LayerNorm((768,), eps=1e-06, elementwise_affine=True)
      )
      (2): Linear(
        (w): Linear(in_features=768, out_features=5000, bias=True)
      )
    )
  )
) loading from /scratch/flatala/speechbrain/transformer/results_fold_5/conformer_small/7775/save/lm.ckpt, the transferred parameters did not have parameters for the key: encoder.layers.0.pos_ffn.ffn.3.weight
2025-03-20 20:16:28,959 - speechbrain.utils.checkpoints - WARNING - During parameter transfer to TransformerLM(
  (positional_encoding): PositionalEncoding()
  (encoder): TransformerEncoder(
    (layers): ModuleList(
      (0-11): 12 x TransformerEncoderLayer(
        (self_att): MultiheadAttention(
          (att): MultiheadAttention(
            (out_proj): NonDynamicallyQuantizableLinear(in_features=768, out_features=768, bias=True)
          )
        )
        (pos_ffn): PositionalwiseFeedForward(
          (ffn): Sequential(
            (0): Linear(in_features=768, out_features=3072, bias=True)
            (1): GELU(approximate='none')
            (2): Dropout(p=0.0, inplace=False)
            (3): Linear(in_features=3072, out_features=768, bias=True)
          )
        )
        (norm1): LayerNorm(
          (norm): LayerNorm((768,), eps=1e-06, elementwise_affine=True)
        )
        (norm2): LayerNorm(
          (norm): LayerNorm((768,), eps=1e-06, elementwise_affine=True)
        )
        (dropout1): Dropout(p=0.0, inplace=False)
        (dropout2): Dropout(p=0.0, inplace=False)
      )
    )
    (norm): LayerNorm(
      (norm): LayerNorm((768,), eps=1e-06, elementwise_affine=True)
    )
  )
  (custom_src_module): NormalizedEmbedding(
    (emb): Embedding(
      (Embedding): Embedding(5000, 768)
    )
  )
  (output_proj): ModuleList(
    (layers): ModuleList(
      (0): Linear(
        (w): Linear(in_features=768, out_features=768, bias=True)
      )
      (1): LayerNorm(
        (norm): LayerNorm((768,), eps=1e-06, elementwise_affine=True)
      )
      (2): Linear(
        (w): Linear(in_features=768, out_features=5000, bias=True)
      )
    )
  )
) loading from /scratch/flatala/speechbrain/transformer/results_fold_5/conformer_small/7775/save/lm.ckpt, the transferred parameters did not have parameters for the key: encoder.layers.0.pos_ffn.ffn.3.bias
2025-03-20 20:16:28,960 - speechbrain.utils.checkpoints - WARNING - During parameter transfer to TransformerLM(
  (positional_encoding): PositionalEncoding()
  (encoder): TransformerEncoder(
    (layers): ModuleList(
      (0-11): 12 x TransformerEncoderLayer(
        (self_att): MultiheadAttention(
          (att): MultiheadAttention(
            (out_proj): NonDynamicallyQuantizableLinear(in_features=768, out_features=768, bias=True)
          )
        )
        (pos_ffn): PositionalwiseFeedForward(
          (ffn): Sequential(
            (0): Linear(in_features=768, out_features=3072, bias=True)
            (1): GELU(approximate='none')
            (2): Dropout(p=0.0, inplace=False)
            (3): Linear(in_features=3072, out_features=768, bias=True)
          )
        )
        (norm1): LayerNorm(
          (norm): LayerNorm((768,), eps=1e-06, elementwise_affine=True)
        )
        (norm2): LayerNorm(
          (norm): LayerNorm((768,), eps=1e-06, elementwise_affine=True)
        )
        (dropout1): Dropout(p=0.0, inplace=False)
        (dropout2): Dropout(p=0.0, inplace=False)
      )
    )
    (norm): LayerNorm(
      (norm): LayerNorm((768,), eps=1e-06, elementwise_affine=True)
    )
  )
  (custom_src_module): NormalizedEmbedding(
    (emb): Embedding(
      (Embedding): Embedding(5000, 768)
    )
  )
  (output_proj): ModuleList(
    (layers): ModuleList(
      (0): Linear(
        (w): Linear(in_features=768, out_features=768, bias=True)
      )
      (1): LayerNorm(
        (norm): LayerNorm((768,), eps=1e-06, elementwise_affine=True)
      )
      (2): Linear(
        (w): Linear(in_features=768, out_features=5000, bias=True)
      )
    )
  )
) loading from /scratch/flatala/speechbrain/transformer/results_fold_5/conformer_small/7775/save/lm.ckpt, the transferred parameters did not have parameters for the key: encoder.layers.0.norm1.norm.weight
2025-03-20 20:16:28,960 - speechbrain.utils.checkpoints - WARNING - During parameter transfer to TransformerLM(
  (positional_encoding): PositionalEncoding()
  (encoder): TransformerEncoder(
    (layers): ModuleList(
      (0-11): 12 x TransformerEncoderLayer(
        (self_att): MultiheadAttention(
          (att): MultiheadAttention(
            (out_proj): NonDynamicallyQuantizableLinear(in_features=768, out_features=768, bias=True)
          )
        )
        (pos_ffn): PositionalwiseFeedForward(
          (ffn): Sequential(
            (0): Linear(in_features=768, out_features=3072, bias=True)
            (1): GELU(approximate='none')
            (2): Dropout(p=0.0, inplace=False)
            (3): Linear(in_features=3072, out_features=768, bias=True)
          )
        )
        (norm1): LayerNorm(
          (norm): LayerNorm((768,), eps=1e-06, elementwise_affine=True)
        )
        (norm2): LayerNorm(
          (norm): LayerNorm((768,), eps=1e-06, elementwise_affine=True)
        )
        (dropout1): Dropout(p=0.0, inplace=False)
        (dropout2): Dropout(p=0.0, inplace=False)
      )
    )
    (norm): LayerNorm(
      (norm): LayerNorm((768,), eps=1e-06, elementwise_affine=True)
    )
  )
  (custom_src_module): NormalizedEmbedding(
    (emb): Embedding(
      (Embedding): Embedding(5000, 768)
    )
  )
  (output_proj): ModuleList(
    (layers): ModuleList(
      (0): Linear(
        (w): Linear(in_features=768, out_features=768, bias=True)
      )
      (1): LayerNorm(
        (norm): LayerNorm((768,), eps=1e-06, elementwise_affine=True)
      )
      (2): Linear(
        (w): Linear(in_features=768, out_features=5000, bias=True)
      )
    )
  )
) loading from /scratch/flatala/speechbrain/transformer/results_fold_5/conformer_small/7775/save/lm.ckpt, the transferred parameters did not have parameters for the key: encoder.layers.0.norm1.norm.bias
2025-03-20 20:16:28,961 - speechbrain.utils.checkpoints - WARNING - During parameter transfer to TransformerLM(
  (positional_encoding): PositionalEncoding()
  (encoder): TransformerEncoder(
    (layers): ModuleList(
      (0-11): 12 x TransformerEncoderLayer(
        (self_att): MultiheadAttention(
          (att): MultiheadAttention(
            (out_proj): NonDynamicallyQuantizableLinear(in_features=768, out_features=768, bias=True)
          )
        )
        (pos_ffn): PositionalwiseFeedForward(
          (ffn): Sequential(
            (0): Linear(in_features=768, out_features=3072, bias=True)
            (1): GELU(approximate='none')
            (2): Dropout(p=0.0, inplace=False)
            (3): Linear(in_features=3072, out_features=768, bias=True)
          )
        )
        (norm1): LayerNorm(
          (norm): LayerNorm((768,), eps=1e-06, elementwise_affine=True)
        )
        (norm2): LayerNorm(
          (norm): LayerNorm((768,), eps=1e-06, elementwise_affine=True)
        )
        (dropout1): Dropout(p=0.0, inplace=False)
        (dropout2): Dropout(p=0.0, inplace=False)
      )
    )
    (norm): LayerNorm(
      (norm): LayerNorm((768,), eps=1e-06, elementwise_affine=True)
    )
  )
  (custom_src_module): NormalizedEmbedding(
    (emb): Embedding(
      (Embedding): Embedding(5000, 768)
    )
  )
  (output_proj): ModuleList(
    (layers): ModuleList(
      (0): Linear(
        (w): Linear(in_features=768, out_features=768, bias=True)
      )
      (1): LayerNorm(
        (norm): LayerNorm((768,), eps=1e-06, elementwise_affine=True)
      )
      (2): Linear(
        (w): Linear(in_features=768, out_features=5000, bias=True)
      )
    )
  )
) loading from /scratch/flatala/speechbrain/transformer/results_fold_5/conformer_small/7775/save/lm.ckpt, the transferred parameters did not have parameters for the key: encoder.layers.0.norm2.norm.weight
2025-03-20 20:16:28,962 - speechbrain.utils.checkpoints - WARNING - During parameter transfer to TransformerLM(
  (positional_encoding): PositionalEncoding()
  (encoder): TransformerEncoder(
    (layers): ModuleList(
      (0-11): 12 x TransformerEncoderLayer(
        (self_att): MultiheadAttention(
          (att): MultiheadAttention(
            (out_proj): NonDynamicallyQuantizableLinear(in_features=768, out_features=768, bias=True)
          )
        )
        (pos_ffn): PositionalwiseFeedForward(
          (ffn): Sequential(
            (0): Linear(in_features=768, out_features=3072, bias=True)
            (1): GELU(approximate='none')
            (2): Dropout(p=0.0, inplace=False)
            (3): Linear(in_features=3072, out_features=768, bias=True)
          )
        )
        (norm1): LayerNorm(
          (norm): LayerNorm((768,), eps=1e-06, elementwise_affine=True)
        )
        (norm2): LayerNorm(
          (norm): LayerNorm((768,), eps=1e-06, elementwise_affine=True)
        )
        (dropout1): Dropout(p=0.0, inplace=False)
        (dropout2): Dropout(p=0.0, inplace=False)
      )
    )
    (norm): LayerNorm(
      (norm): LayerNorm((768,), eps=1e-06, elementwise_affine=True)
    )
  )
  (custom_src_module): NormalizedEmbedding(
    (emb): Embedding(
      (Embedding): Embedding(5000, 768)
    )
  )
  (output_proj): ModuleList(
    (layers): ModuleList(
      (0): Linear(
        (w): Linear(in_features=768, out_features=768, bias=True)
      )
      (1): LayerNorm(
        (norm): LayerNorm((768,), eps=1e-06, elementwise_affine=True)
      )
      (2): Linear(
        (w): Linear(in_features=768, out_features=5000, bias=True)
      )
    )
  )
) loading from /scratch/flatala/speechbrain/transformer/results_fold_5/conformer_small/7775/save/lm.ckpt, the transferred parameters did not have parameters for the key: encoder.layers.0.norm2.norm.bias
2025-03-20 20:16:28,962 - speechbrain.utils.checkpoints - WARNING - During parameter transfer to TransformerLM(
  (positional_encoding): PositionalEncoding()
  (encoder): TransformerEncoder(
    (layers): ModuleList(
      (0-11): 12 x TransformerEncoderLayer(
        (self_att): MultiheadAttention(
          (att): MultiheadAttention(
            (out_proj): NonDynamicallyQuantizableLinear(in_features=768, out_features=768, bias=True)
          )
        )
        (pos_ffn): PositionalwiseFeedForward(
          (ffn): Sequential(
            (0): Linear(in_features=768, out_features=3072, bias=True)
            (1): GELU(approximate='none')
            (2): Dropout(p=0.0, inplace=False)
            (3): Linear(in_features=3072, out_features=768, bias=True)
          )
        )
        (norm1): LayerNorm(
          (norm): LayerNorm((768,), eps=1e-06, elementwise_affine=True)
        )
        (norm2): LayerNorm(
          (norm): LayerNorm((768,), eps=1e-06, elementwise_affine=True)
        )
        (dropout1): Dropout(p=0.0, inplace=False)
        (dropout2): Dropout(p=0.0, inplace=False)
      )
    )
    (norm): LayerNorm(
      (norm): LayerNorm((768,), eps=1e-06, elementwise_affine=True)
    )
  )
  (custom_src_module): NormalizedEmbedding(
    (emb): Embedding(
      (Embedding): Embedding(5000, 768)
    )
  )
  (output_proj): ModuleList(
    (layers): ModuleList(
      (0): Linear(
        (w): Linear(in_features=768, out_features=768, bias=True)
      )
      (1): LayerNorm(
        (norm): LayerNorm((768,), eps=1e-06, elementwise_affine=True)
      )
      (2): Linear(
        (w): Linear(in_features=768, out_features=5000, bias=True)
      )
    )
  )
) loading from /scratch/flatala/speechbrain/transformer/results_fold_5/conformer_small/7775/save/lm.ckpt, the transferred parameters did not have parameters for the key: encoder.layers.1.self_att.att.in_proj_weight
2025-03-20 20:16:28,963 - speechbrain.utils.checkpoints - WARNING - During parameter transfer to TransformerLM(
  (positional_encoding): PositionalEncoding()
  (encoder): TransformerEncoder(
    (layers): ModuleList(
      (0-11): 12 x TransformerEncoderLayer(
        (self_att): MultiheadAttention(
          (att): MultiheadAttention(
            (out_proj): NonDynamicallyQuantizableLinear(in_features=768, out_features=768, bias=True)
          )
        )
        (pos_ffn): PositionalwiseFeedForward(
          (ffn): Sequential(
            (0): Linear(in_features=768, out_features=3072, bias=True)
            (1): GELU(approximate='none')
            (2): Dropout(p=0.0, inplace=False)
            (3): Linear(in_features=3072, out_features=768, bias=True)
          )
        )
        (norm1): LayerNorm(
          (norm): LayerNorm((768,), eps=1e-06, elementwise_affine=True)
        )
        (norm2): LayerNorm(
          (norm): LayerNorm((768,), eps=1e-06, elementwise_affine=True)
        )
        (dropout1): Dropout(p=0.0, inplace=False)
        (dropout2): Dropout(p=0.0, inplace=False)
      )
    )
    (norm): LayerNorm(
      (norm): LayerNorm((768,), eps=1e-06, elementwise_affine=True)
    )
  )
  (custom_src_module): NormalizedEmbedding(
    (emb): Embedding(
      (Embedding): Embedding(5000, 768)
    )
  )
  (output_proj): ModuleList(
    (layers): ModuleList(
      (0): Linear(
        (w): Linear(in_features=768, out_features=768, bias=True)
      )
      (1): LayerNorm(
        (norm): LayerNorm((768,), eps=1e-06, elementwise_affine=True)
      )
      (2): Linear(
        (w): Linear(in_features=768, out_features=5000, bias=True)
      )
    )
  )
) loading from /scratch/flatala/speechbrain/transformer/results_fold_5/conformer_small/7775/save/lm.ckpt, the transferred parameters did not have parameters for the key: encoder.layers.1.self_att.att.in_proj_bias
2025-03-20 20:16:28,963 - speechbrain.utils.checkpoints - WARNING - During parameter transfer to TransformerLM(
  (positional_encoding): PositionalEncoding()
  (encoder): TransformerEncoder(
    (layers): ModuleList(
      (0-11): 12 x TransformerEncoderLayer(
        (self_att): MultiheadAttention(
          (att): MultiheadAttention(
            (out_proj): NonDynamicallyQuantizableLinear(in_features=768, out_features=768, bias=True)
          )
        )
        (pos_ffn): PositionalwiseFeedForward(
          (ffn): Sequential(
            (0): Linear(in_features=768, out_features=3072, bias=True)
            (1): GELU(approximate='none')
            (2): Dropout(p=0.0, inplace=False)
            (3): Linear(in_features=3072, out_features=768, bias=True)
          )
        )
        (norm1): LayerNorm(
          (norm): LayerNorm((768,), eps=1e-06, elementwise_affine=True)
        )
        (norm2): LayerNorm(
          (norm): LayerNorm((768,), eps=1e-06, elementwise_affine=True)
        )
        (dropout1): Dropout(p=0.0, inplace=False)
        (dropout2): Dropout(p=0.0, inplace=False)
      )
    )
    (norm): LayerNorm(
      (norm): LayerNorm((768,), eps=1e-06, elementwise_affine=True)
    )
  )
  (custom_src_module): NormalizedEmbedding(
    (emb): Embedding(
      (Embedding): Embedding(5000, 768)
    )
  )
  (output_proj): ModuleList(
    (layers): ModuleList(
      (0): Linear(
        (w): Linear(in_features=768, out_features=768, bias=True)
      )
      (1): LayerNorm(
        (norm): LayerNorm((768,), eps=1e-06, elementwise_affine=True)
      )
      (2): Linear(
        (w): Linear(in_features=768, out_features=5000, bias=True)
      )
    )
  )
) loading from /scratch/flatala/speechbrain/transformer/results_fold_5/conformer_small/7775/save/lm.ckpt, the transferred parameters did not have parameters for the key: encoder.layers.1.self_att.att.out_proj.weight
2025-03-20 20:16:28,964 - speechbrain.utils.checkpoints - WARNING - During parameter transfer to TransformerLM(
  (positional_encoding): PositionalEncoding()
  (encoder): TransformerEncoder(
    (layers): ModuleList(
      (0-11): 12 x TransformerEncoderLayer(
        (self_att): MultiheadAttention(
          (att): MultiheadAttention(
            (out_proj): NonDynamicallyQuantizableLinear(in_features=768, out_features=768, bias=True)
          )
        )
        (pos_ffn): PositionalwiseFeedForward(
          (ffn): Sequential(
            (0): Linear(in_features=768, out_features=3072, bias=True)
            (1): GELU(approximate='none')
            (2): Dropout(p=0.0, inplace=False)
            (3): Linear(in_features=3072, out_features=768, bias=True)
          )
        )
        (norm1): LayerNorm(
          (norm): LayerNorm((768,), eps=1e-06, elementwise_affine=True)
        )
        (norm2): LayerNorm(
          (norm): LayerNorm((768,), eps=1e-06, elementwise_affine=True)
        )
        (dropout1): Dropout(p=0.0, inplace=False)
        (dropout2): Dropout(p=0.0, inplace=False)
      )
    )
    (norm): LayerNorm(
      (norm): LayerNorm((768,), eps=1e-06, elementwise_affine=True)
    )
  )
  (custom_src_module): NormalizedEmbedding(
    (emb): Embedding(
      (Embedding): Embedding(5000, 768)
    )
  )
  (output_proj): ModuleList(
    (layers): ModuleList(
      (0): Linear(
        (w): Linear(in_features=768, out_features=768, bias=True)
      )
      (1): LayerNorm(
        (norm): LayerNorm((768,), eps=1e-06, elementwise_affine=True)
      )
      (2): Linear(
        (w): Linear(in_features=768, out_features=5000, bias=True)
      )
    )
  )
) loading from /scratch/flatala/speechbrain/transformer/results_fold_5/conformer_small/7775/save/lm.ckpt, the transferred parameters did not have parameters for the key: encoder.layers.1.self_att.att.out_proj.bias
2025-03-20 20:16:28,964 - speechbrain.utils.checkpoints - WARNING - During parameter transfer to TransformerLM(
  (positional_encoding): PositionalEncoding()
  (encoder): TransformerEncoder(
    (layers): ModuleList(
      (0-11): 12 x TransformerEncoderLayer(
        (self_att): MultiheadAttention(
          (att): MultiheadAttention(
            (out_proj): NonDynamicallyQuantizableLinear(in_features=768, out_features=768, bias=True)
          )
        )
        (pos_ffn): PositionalwiseFeedForward(
          (ffn): Sequential(
            (0): Linear(in_features=768, out_features=3072, bias=True)
            (1): GELU(approximate='none')
            (2): Dropout(p=0.0, inplace=False)
            (3): Linear(in_features=3072, out_features=768, bias=True)
          )
        )
        (norm1): LayerNorm(
          (norm): LayerNorm((768,), eps=1e-06, elementwise_affine=True)
        )
        (norm2): LayerNorm(
          (norm): LayerNorm((768,), eps=1e-06, elementwise_affine=True)
        )
        (dropout1): Dropout(p=0.0, inplace=False)
        (dropout2): Dropout(p=0.0, inplace=False)
      )
    )
    (norm): LayerNorm(
      (norm): LayerNorm((768,), eps=1e-06, elementwise_affine=True)
    )
  )
  (custom_src_module): NormalizedEmbedding(
    (emb): Embedding(
      (Embedding): Embedding(5000, 768)
    )
  )
  (output_proj): ModuleList(
    (layers): ModuleList(
      (0): Linear(
        (w): Linear(in_features=768, out_features=768, bias=True)
      )
      (1): LayerNorm(
        (norm): LayerNorm((768,), eps=1e-06, elementwise_affine=True)
      )
      (2): Linear(
        (w): Linear(in_features=768, out_features=5000, bias=True)
      )
    )
  )
) loading from /scratch/flatala/speechbrain/transformer/results_fold_5/conformer_small/7775/save/lm.ckpt, the transferred parameters did not have parameters for the key: encoder.layers.1.pos_ffn.ffn.0.weight
2025-03-20 20:16:28,965 - speechbrain.utils.checkpoints - WARNING - During parameter transfer to TransformerLM(
  (positional_encoding): PositionalEncoding()
  (encoder): TransformerEncoder(
    (layers): ModuleList(
      (0-11): 12 x TransformerEncoderLayer(
        (self_att): MultiheadAttention(
          (att): MultiheadAttention(
            (out_proj): NonDynamicallyQuantizableLinear(in_features=768, out_features=768, bias=True)
          )
        )
        (pos_ffn): PositionalwiseFeedForward(
          (ffn): Sequential(
            (0): Linear(in_features=768, out_features=3072, bias=True)
            (1): GELU(approximate='none')
            (2): Dropout(p=0.0, inplace=False)
            (3): Linear(in_features=3072, out_features=768, bias=True)
          )
        )
        (norm1): LayerNorm(
          (norm): LayerNorm((768,), eps=1e-06, elementwise_affine=True)
        )
        (norm2): LayerNorm(
          (norm): LayerNorm((768,), eps=1e-06, elementwise_affine=True)
        )
        (dropout1): Dropout(p=0.0, inplace=False)
        (dropout2): Dropout(p=0.0, inplace=False)
      )
    )
    (norm): LayerNorm(
      (norm): LayerNorm((768,), eps=1e-06, elementwise_affine=True)
    )
  )
  (custom_src_module): NormalizedEmbedding(
    (emb): Embedding(
      (Embedding): Embedding(5000, 768)
    )
  )
  (output_proj): ModuleList(
    (layers): ModuleList(
      (0): Linear(
        (w): Linear(in_features=768, out_features=768, bias=True)
      )
      (1): LayerNorm(
        (norm): LayerNorm((768,), eps=1e-06, elementwise_affine=True)
      )
      (2): Linear(
        (w): Linear(in_features=768, out_features=5000, bias=True)
      )
    )
  )
) loading from /scratch/flatala/speechbrain/transformer/results_fold_5/conformer_small/7775/save/lm.ckpt, the transferred parameters did not have parameters for the key: encoder.layers.1.pos_ffn.ffn.0.bias
2025-03-20 20:16:28,965 - speechbrain.utils.checkpoints - WARNING - During parameter transfer to TransformerLM(
  (positional_encoding): PositionalEncoding()
  (encoder): TransformerEncoder(
    (layers): ModuleList(
      (0-11): 12 x TransformerEncoderLayer(
        (self_att): MultiheadAttention(
          (att): MultiheadAttention(
            (out_proj): NonDynamicallyQuantizableLinear(in_features=768, out_features=768, bias=True)
          )
        )
        (pos_ffn): PositionalwiseFeedForward(
          (ffn): Sequential(
            (0): Linear(in_features=768, out_features=3072, bias=True)
            (1): GELU(approximate='none')
            (2): Dropout(p=0.0, inplace=False)
            (3): Linear(in_features=3072, out_features=768, bias=True)
          )
        )
        (norm1): LayerNorm(
          (norm): LayerNorm((768,), eps=1e-06, elementwise_affine=True)
        )
        (norm2): LayerNorm(
          (norm): LayerNorm((768,), eps=1e-06, elementwise_affine=True)
        )
        (dropout1): Dropout(p=0.0, inplace=False)
        (dropout2): Dropout(p=0.0, inplace=False)
      )
    )
    (norm): LayerNorm(
      (norm): LayerNorm((768,), eps=1e-06, elementwise_affine=True)
    )
  )
  (custom_src_module): NormalizedEmbedding(
    (emb): Embedding(
      (Embedding): Embedding(5000, 768)
    )
  )
  (output_proj): ModuleList(
    (layers): ModuleList(
      (0): Linear(
        (w): Linear(in_features=768, out_features=768, bias=True)
      )
      (1): LayerNorm(
        (norm): LayerNorm((768,), eps=1e-06, elementwise_affine=True)
      )
      (2): Linear(
        (w): Linear(in_features=768, out_features=5000, bias=True)
      )
    )
  )
) loading from /scratch/flatala/speechbrain/transformer/results_fold_5/conformer_small/7775/save/lm.ckpt, the transferred parameters did not have parameters for the key: encoder.layers.1.pos_ffn.ffn.3.weight
2025-03-20 20:16:28,966 - speechbrain.utils.checkpoints - WARNING - During parameter transfer to TransformerLM(
  (positional_encoding): PositionalEncoding()
  (encoder): TransformerEncoder(
    (layers): ModuleList(
      (0-11): 12 x TransformerEncoderLayer(
        (self_att): MultiheadAttention(
          (att): MultiheadAttention(
            (out_proj): NonDynamicallyQuantizableLinear(in_features=768, out_features=768, bias=True)
          )
        )
        (pos_ffn): PositionalwiseFeedForward(
          (ffn): Sequential(
            (0): Linear(in_features=768, out_features=3072, bias=True)
            (1): GELU(approximate='none')
            (2): Dropout(p=0.0, inplace=False)
            (3): Linear(in_features=3072, out_features=768, bias=True)
          )
        )
        (norm1): LayerNorm(
          (norm): LayerNorm((768,), eps=1e-06, elementwise_affine=True)
        )
        (norm2): LayerNorm(
          (norm): LayerNorm((768,), eps=1e-06, elementwise_affine=True)
        )
        (dropout1): Dropout(p=0.0, inplace=False)
        (dropout2): Dropout(p=0.0, inplace=False)
      )
    )
    (norm): LayerNorm(
      (norm): LayerNorm((768,), eps=1e-06, elementwise_affine=True)
    )
  )
  (custom_src_module): NormalizedEmbedding(
    (emb): Embedding(
      (Embedding): Embedding(5000, 768)
    )
  )
  (output_proj): ModuleList(
    (layers): ModuleList(
      (0): Linear(
        (w): Linear(in_features=768, out_features=768, bias=True)
      )
      (1): LayerNorm(
        (norm): LayerNorm((768,), eps=1e-06, elementwise_affine=True)
      )
      (2): Linear(
        (w): Linear(in_features=768, out_features=5000, bias=True)
      )
    )
  )
) loading from /scratch/flatala/speechbrain/transformer/results_fold_5/conformer_small/7775/save/lm.ckpt, the transferred parameters did not have parameters for the key: encoder.layers.1.pos_ffn.ffn.3.bias
2025-03-20 20:16:28,966 - speechbrain.utils.checkpoints - WARNING - During parameter transfer to TransformerLM(
  (positional_encoding): PositionalEncoding()
  (encoder): TransformerEncoder(
    (layers): ModuleList(
      (0-11): 12 x TransformerEncoderLayer(
        (self_att): MultiheadAttention(
          (att): MultiheadAttention(
            (out_proj): NonDynamicallyQuantizableLinear(in_features=768, out_features=768, bias=True)
          )
        )
        (pos_ffn): PositionalwiseFeedForward(
          (ffn): Sequential(
            (0): Linear(in_features=768, out_features=3072, bias=True)
            (1): GELU(approximate='none')
            (2): Dropout(p=0.0, inplace=False)
            (3): Linear(in_features=3072, out_features=768, bias=True)
          )
        )
        (norm1): LayerNorm(
          (norm): LayerNorm((768,), eps=1e-06, elementwise_affine=True)
        )
        (norm2): LayerNorm(
          (norm): LayerNorm((768,), eps=1e-06, elementwise_affine=True)
        )
        (dropout1): Dropout(p=0.0, inplace=False)
        (dropout2): Dropout(p=0.0, inplace=False)
      )
    )
    (norm): LayerNorm(
      (norm): LayerNorm((768,), eps=1e-06, elementwise_affine=True)
    )
  )
  (custom_src_module): NormalizedEmbedding(
    (emb): Embedding(
      (Embedding): Embedding(5000, 768)
    )
  )
  (output_proj): ModuleList(
    (layers): ModuleList(
      (0): Linear(
        (w): Linear(in_features=768, out_features=768, bias=True)
      )
      (1): LayerNorm(
        (norm): LayerNorm((768,), eps=1e-06, elementwise_affine=True)
      )
      (2): Linear(
        (w): Linear(in_features=768, out_features=5000, bias=True)
      )
    )
  )
) loading from /scratch/flatala/speechbrain/transformer/results_fold_5/conformer_small/7775/save/lm.ckpt, the transferred parameters did not have parameters for the key: encoder.layers.1.norm1.norm.weight
2025-03-20 20:16:28,967 - speechbrain.utils.checkpoints - WARNING - During parameter transfer to TransformerLM(
  (positional_encoding): PositionalEncoding()
  (encoder): TransformerEncoder(
    (layers): ModuleList(
      (0-11): 12 x TransformerEncoderLayer(
        (self_att): MultiheadAttention(
          (att): MultiheadAttention(
            (out_proj): NonDynamicallyQuantizableLinear(in_features=768, out_features=768, bias=True)
          )
        )
        (pos_ffn): PositionalwiseFeedForward(
          (ffn): Sequential(
            (0): Linear(in_features=768, out_features=3072, bias=True)
            (1): GELU(approximate='none')
            (2): Dropout(p=0.0, inplace=False)
            (3): Linear(in_features=3072, out_features=768, bias=True)
          )
        )
        (norm1): LayerNorm(
          (norm): LayerNorm((768,), eps=1e-06, elementwise_affine=True)
        )
        (norm2): LayerNorm(
          (norm): LayerNorm((768,), eps=1e-06, elementwise_affine=True)
        )
        (dropout1): Dropout(p=0.0, inplace=False)
        (dropout2): Dropout(p=0.0, inplace=False)
      )
    )
    (norm): LayerNorm(
      (norm): LayerNorm((768,), eps=1e-06, elementwise_affine=True)
    )
  )
  (custom_src_module): NormalizedEmbedding(
    (emb): Embedding(
      (Embedding): Embedding(5000, 768)
    )
  )
  (output_proj): ModuleList(
    (layers): ModuleList(
      (0): Linear(
        (w): Linear(in_features=768, out_features=768, bias=True)
      )
      (1): LayerNorm(
        (norm): LayerNorm((768,), eps=1e-06, elementwise_affine=True)
      )
      (2): Linear(
        (w): Linear(in_features=768, out_features=5000, bias=True)
      )
    )
  )
) loading from /scratch/flatala/speechbrain/transformer/results_fold_5/conformer_small/7775/save/lm.ckpt, the transferred parameters did not have parameters for the key: encoder.layers.1.norm1.norm.bias
2025-03-20 20:16:28,968 - speechbrain.utils.checkpoints - WARNING - During parameter transfer to TransformerLM(
  (positional_encoding): PositionalEncoding()
  (encoder): TransformerEncoder(
    (layers): ModuleList(
      (0-11): 12 x TransformerEncoderLayer(
        (self_att): MultiheadAttention(
          (att): MultiheadAttention(
            (out_proj): NonDynamicallyQuantizableLinear(in_features=768, out_features=768, bias=True)
          )
        )
        (pos_ffn): PositionalwiseFeedForward(
          (ffn): Sequential(
            (0): Linear(in_features=768, out_features=3072, bias=True)
            (1): GELU(approximate='none')
            (2): Dropout(p=0.0, inplace=False)
            (3): Linear(in_features=3072, out_features=768, bias=True)
          )
        )
        (norm1): LayerNorm(
          (norm): LayerNorm((768,), eps=1e-06, elementwise_affine=True)
        )
        (norm2): LayerNorm(
          (norm): LayerNorm((768,), eps=1e-06, elementwise_affine=True)
        )
        (dropout1): Dropout(p=0.0, inplace=False)
        (dropout2): Dropout(p=0.0, inplace=False)
      )
    )
    (norm): LayerNorm(
      (norm): LayerNorm((768,), eps=1e-06, elementwise_affine=True)
    )
  )
  (custom_src_module): NormalizedEmbedding(
    (emb): Embedding(
      (Embedding): Embedding(5000, 768)
    )
  )
  (output_proj): ModuleList(
    (layers): ModuleList(
      (0): Linear(
        (w): Linear(in_features=768, out_features=768, bias=True)
      )
      (1): LayerNorm(
        (norm): LayerNorm((768,), eps=1e-06, elementwise_affine=True)
      )
      (2): Linear(
        (w): Linear(in_features=768, out_features=5000, bias=True)
      )
    )
  )
) loading from /scratch/flatala/speechbrain/transformer/results_fold_5/conformer_small/7775/save/lm.ckpt, the transferred parameters did not have parameters for the key: encoder.layers.1.norm2.norm.weight
2025-03-20 20:16:28,968 - speechbrain.utils.checkpoints - WARNING - During parameter transfer to TransformerLM(
  (positional_encoding): PositionalEncoding()
  (encoder): TransformerEncoder(
    (layers): ModuleList(
      (0-11): 12 x TransformerEncoderLayer(
        (self_att): MultiheadAttention(
          (att): MultiheadAttention(
            (out_proj): NonDynamicallyQuantizableLinear(in_features=768, out_features=768, bias=True)
          )
        )
        (pos_ffn): PositionalwiseFeedForward(
          (ffn): Sequential(
            (0): Linear(in_features=768, out_features=3072, bias=True)
            (1): GELU(approximate='none')
            (2): Dropout(p=0.0, inplace=False)
            (3): Linear(in_features=3072, out_features=768, bias=True)
          )
        )
        (norm1): LayerNorm(
          (norm): LayerNorm((768,), eps=1e-06, elementwise_affine=True)
        )
        (norm2): LayerNorm(
          (norm): LayerNorm((768,), eps=1e-06, elementwise_affine=True)
        )
        (dropout1): Dropout(p=0.0, inplace=False)
        (dropout2): Dropout(p=0.0, inplace=False)
      )
    )
    (norm): LayerNorm(
      (norm): LayerNorm((768,), eps=1e-06, elementwise_affine=True)
    )
  )
  (custom_src_module): NormalizedEmbedding(
    (emb): Embedding(
      (Embedding): Embedding(5000, 768)
    )
  )
  (output_proj): ModuleList(
    (layers): ModuleList(
      (0): Linear(
        (w): Linear(in_features=768, out_features=768, bias=True)
      )
      (1): LayerNorm(
        (norm): LayerNorm((768,), eps=1e-06, elementwise_affine=True)
      )
      (2): Linear(
        (w): Linear(in_features=768, out_features=5000, bias=True)
      )
    )
  )
) loading from /scratch/flatala/speechbrain/transformer/results_fold_5/conformer_small/7775/save/lm.ckpt, the transferred parameters did not have parameters for the key: encoder.layers.1.norm2.norm.bias
2025-03-20 20:16:28,969 - speechbrain.utils.checkpoints - WARNING - During parameter transfer to TransformerLM(
  (positional_encoding): PositionalEncoding()
  (encoder): TransformerEncoder(
    (layers): ModuleList(
      (0-11): 12 x TransformerEncoderLayer(
        (self_att): MultiheadAttention(
          (att): MultiheadAttention(
            (out_proj): NonDynamicallyQuantizableLinear(in_features=768, out_features=768, bias=True)
          )
        )
        (pos_ffn): PositionalwiseFeedForward(
          (ffn): Sequential(
            (0): Linear(in_features=768, out_features=3072, bias=True)
            (1): GELU(approximate='none')
            (2): Dropout(p=0.0, inplace=False)
            (3): Linear(in_features=3072, out_features=768, bias=True)
          )
        )
        (norm1): LayerNorm(
          (norm): LayerNorm((768,), eps=1e-06, elementwise_affine=True)
        )
        (norm2): LayerNorm(
          (norm): LayerNorm((768,), eps=1e-06, elementwise_affine=True)
        )
        (dropout1): Dropout(p=0.0, inplace=False)
        (dropout2): Dropout(p=0.0, inplace=False)
      )
    )
    (norm): LayerNorm(
      (norm): LayerNorm((768,), eps=1e-06, elementwise_affine=True)
    )
  )
  (custom_src_module): NormalizedEmbedding(
    (emb): Embedding(
      (Embedding): Embedding(5000, 768)
    )
  )
  (output_proj): ModuleList(
    (layers): ModuleList(
      (0): Linear(
        (w): Linear(in_features=768, out_features=768, bias=True)
      )
      (1): LayerNorm(
        (norm): LayerNorm((768,), eps=1e-06, elementwise_affine=True)
      )
      (2): Linear(
        (w): Linear(in_features=768, out_features=5000, bias=True)
      )
    )
  )
) loading from /scratch/flatala/speechbrain/transformer/results_fold_5/conformer_small/7775/save/lm.ckpt, the transferred parameters did not have parameters for the key: encoder.layers.2.self_att.att.in_proj_weight
2025-03-20 20:16:28,969 - speechbrain.utils.checkpoints - WARNING - During parameter transfer to TransformerLM(
  (positional_encoding): PositionalEncoding()
  (encoder): TransformerEncoder(
    (layers): ModuleList(
      (0-11): 12 x TransformerEncoderLayer(
        (self_att): MultiheadAttention(
          (att): MultiheadAttention(
            (out_proj): NonDynamicallyQuantizableLinear(in_features=768, out_features=768, bias=True)
          )
        )
        (pos_ffn): PositionalwiseFeedForward(
          (ffn): Sequential(
            (0): Linear(in_features=768, out_features=3072, bias=True)
            (1): GELU(approximate='none')
            (2): Dropout(p=0.0, inplace=False)
            (3): Linear(in_features=3072, out_features=768, bias=True)
          )
        )
        (norm1): LayerNorm(
          (norm): LayerNorm((768,), eps=1e-06, elementwise_affine=True)
        )
        (norm2): LayerNorm(
          (norm): LayerNorm((768,), eps=1e-06, elementwise_affine=True)
        )
        (dropout1): Dropout(p=0.0, inplace=False)
        (dropout2): Dropout(p=0.0, inplace=False)
      )
    )
    (norm): LayerNorm(
      (norm): LayerNorm((768,), eps=1e-06, elementwise_affine=True)
    )
  )
  (custom_src_module): NormalizedEmbedding(
    (emb): Embedding(
      (Embedding): Embedding(5000, 768)
    )
  )
  (output_proj): ModuleList(
    (layers): ModuleList(
      (0): Linear(
        (w): Linear(in_features=768, out_features=768, bias=True)
      )
      (1): LayerNorm(
        (norm): LayerNorm((768,), eps=1e-06, elementwise_affine=True)
      )
      (2): Linear(
        (w): Linear(in_features=768, out_features=5000, bias=True)
      )
    )
  )
) loading from /scratch/flatala/speechbrain/transformer/results_fold_5/conformer_small/7775/save/lm.ckpt, the transferred parameters did not have parameters for the key: encoder.layers.2.self_att.att.in_proj_bias
2025-03-20 20:16:28,970 - speechbrain.utils.checkpoints - WARNING - During parameter transfer to TransformerLM(
  (positional_encoding): PositionalEncoding()
  (encoder): TransformerEncoder(
    (layers): ModuleList(
      (0-11): 12 x TransformerEncoderLayer(
        (self_att): MultiheadAttention(
          (att): MultiheadAttention(
            (out_proj): NonDynamicallyQuantizableLinear(in_features=768, out_features=768, bias=True)
          )
        )
        (pos_ffn): PositionalwiseFeedForward(
          (ffn): Sequential(
            (0): Linear(in_features=768, out_features=3072, bias=True)
            (1): GELU(approximate='none')
            (2): Dropout(p=0.0, inplace=False)
            (3): Linear(in_features=3072, out_features=768, bias=True)
          )
        )
        (norm1): LayerNorm(
          (norm): LayerNorm((768,), eps=1e-06, elementwise_affine=True)
        )
        (norm2): LayerNorm(
          (norm): LayerNorm((768,), eps=1e-06, elementwise_affine=True)
        )
        (dropout1): Dropout(p=0.0, inplace=False)
        (dropout2): Dropout(p=0.0, inplace=False)
      )
    )
    (norm): LayerNorm(
      (norm): LayerNorm((768,), eps=1e-06, elementwise_affine=True)
    )
  )
  (custom_src_module): NormalizedEmbedding(
    (emb): Embedding(
      (Embedding): Embedding(5000, 768)
    )
  )
  (output_proj): ModuleList(
    (layers): ModuleList(
      (0): Linear(
        (w): Linear(in_features=768, out_features=768, bias=True)
      )
      (1): LayerNorm(
        (norm): LayerNorm((768,), eps=1e-06, elementwise_affine=True)
      )
      (2): Linear(
        (w): Linear(in_features=768, out_features=5000, bias=True)
      )
    )
  )
) loading from /scratch/flatala/speechbrain/transformer/results_fold_5/conformer_small/7775/save/lm.ckpt, the transferred parameters did not have parameters for the key: encoder.layers.2.self_att.att.out_proj.weight
2025-03-20 20:16:28,970 - speechbrain.utils.checkpoints - WARNING - During parameter transfer to TransformerLM(
  (positional_encoding): PositionalEncoding()
  (encoder): TransformerEncoder(
    (layers): ModuleList(
      (0-11): 12 x TransformerEncoderLayer(
        (self_att): MultiheadAttention(
          (att): MultiheadAttention(
            (out_proj): NonDynamicallyQuantizableLinear(in_features=768, out_features=768, bias=True)
          )
        )
        (pos_ffn): PositionalwiseFeedForward(
          (ffn): Sequential(
            (0): Linear(in_features=768, out_features=3072, bias=True)
            (1): GELU(approximate='none')
            (2): Dropout(p=0.0, inplace=False)
            (3): Linear(in_features=3072, out_features=768, bias=True)
          )
        )
        (norm1): LayerNorm(
          (norm): LayerNorm((768,), eps=1e-06, elementwise_affine=True)
        )
        (norm2): LayerNorm(
          (norm): LayerNorm((768,), eps=1e-06, elementwise_affine=True)
        )
        (dropout1): Dropout(p=0.0, inplace=False)
        (dropout2): Dropout(p=0.0, inplace=False)
      )
    )
    (norm): LayerNorm(
      (norm): LayerNorm((768,), eps=1e-06, elementwise_affine=True)
    )
  )
  (custom_src_module): NormalizedEmbedding(
    (emb): Embedding(
      (Embedding): Embedding(5000, 768)
    )
  )
  (output_proj): ModuleList(
    (layers): ModuleList(
      (0): Linear(
        (w): Linear(in_features=768, out_features=768, bias=True)
      )
      (1): LayerNorm(
        (norm): LayerNorm((768,), eps=1e-06, elementwise_affine=True)
      )
      (2): Linear(
        (w): Linear(in_features=768, out_features=5000, bias=True)
      )
    )
  )
) loading from /scratch/flatala/speechbrain/transformer/results_fold_5/conformer_small/7775/save/lm.ckpt, the transferred parameters did not have parameters for the key: encoder.layers.2.self_att.att.out_proj.bias
2025-03-20 20:16:28,971 - speechbrain.utils.checkpoints - WARNING - During parameter transfer to TransformerLM(
  (positional_encoding): PositionalEncoding()
  (encoder): TransformerEncoder(
    (layers): ModuleList(
      (0-11): 12 x TransformerEncoderLayer(
        (self_att): MultiheadAttention(
          (att): MultiheadAttention(
            (out_proj): NonDynamicallyQuantizableLinear(in_features=768, out_features=768, bias=True)
          )
        )
        (pos_ffn): PositionalwiseFeedForward(
          (ffn): Sequential(
            (0): Linear(in_features=768, out_features=3072, bias=True)
            (1): GELU(approximate='none')
            (2): Dropout(p=0.0, inplace=False)
            (3): Linear(in_features=3072, out_features=768, bias=True)
          )
        )
        (norm1): LayerNorm(
          (norm): LayerNorm((768,), eps=1e-06, elementwise_affine=True)
        )
        (norm2): LayerNorm(
          (norm): LayerNorm((768,), eps=1e-06, elementwise_affine=True)
        )
        (dropout1): Dropout(p=0.0, inplace=False)
        (dropout2): Dropout(p=0.0, inplace=False)
      )
    )
    (norm): LayerNorm(
      (norm): LayerNorm((768,), eps=1e-06, elementwise_affine=True)
    )
  )
  (custom_src_module): NormalizedEmbedding(
    (emb): Embedding(
      (Embedding): Embedding(5000, 768)
    )
  )
  (output_proj): ModuleList(
    (layers): ModuleList(
      (0): Linear(
        (w): Linear(in_features=768, out_features=768, bias=True)
      )
      (1): LayerNorm(
        (norm): LayerNorm((768,), eps=1e-06, elementwise_affine=True)
      )
      (2): Linear(
        (w): Linear(in_features=768, out_features=5000, bias=True)
      )
    )
  )
) loading from /scratch/flatala/speechbrain/transformer/results_fold_5/conformer_small/7775/save/lm.ckpt, the transferred parameters did not have parameters for the key: encoder.layers.2.pos_ffn.ffn.0.weight
2025-03-20 20:16:28,971 - speechbrain.utils.checkpoints - WARNING - During parameter transfer to TransformerLM(
  (positional_encoding): PositionalEncoding()
  (encoder): TransformerEncoder(
    (layers): ModuleList(
      (0-11): 12 x TransformerEncoderLayer(
        (self_att): MultiheadAttention(
          (att): MultiheadAttention(
            (out_proj): NonDynamicallyQuantizableLinear(in_features=768, out_features=768, bias=True)
          )
        )
        (pos_ffn): PositionalwiseFeedForward(
          (ffn): Sequential(
            (0): Linear(in_features=768, out_features=3072, bias=True)
            (1): GELU(approximate='none')
            (2): Dropout(p=0.0, inplace=False)
            (3): Linear(in_features=3072, out_features=768, bias=True)
          )
        )
        (norm1): LayerNorm(
          (norm): LayerNorm((768,), eps=1e-06, elementwise_affine=True)
        )
        (norm2): LayerNorm(
          (norm): LayerNorm((768,), eps=1e-06, elementwise_affine=True)
        )
        (dropout1): Dropout(p=0.0, inplace=False)
        (dropout2): Dropout(p=0.0, inplace=False)
      )
    )
    (norm): LayerNorm(
      (norm): LayerNorm((768,), eps=1e-06, elementwise_affine=True)
    )
  )
  (custom_src_module): NormalizedEmbedding(
    (emb): Embedding(
      (Embedding): Embedding(5000, 768)
    )
  )
  (output_proj): ModuleList(
    (layers): ModuleList(
      (0): Linear(
        (w): Linear(in_features=768, out_features=768, bias=True)
      )
      (1): LayerNorm(
        (norm): LayerNorm((768,), eps=1e-06, elementwise_affine=True)
      )
      (2): Linear(
        (w): Linear(in_features=768, out_features=5000, bias=True)
      )
    )
  )
) loading from /scratch/flatala/speechbrain/transformer/results_fold_5/conformer_small/7775/save/lm.ckpt, the transferred parameters did not have parameters for the key: encoder.layers.2.pos_ffn.ffn.0.bias
2025-03-20 20:16:28,972 - speechbrain.utils.checkpoints - WARNING - During parameter transfer to TransformerLM(
  (positional_encoding): PositionalEncoding()
  (encoder): TransformerEncoder(
    (layers): ModuleList(
      (0-11): 12 x TransformerEncoderLayer(
        (self_att): MultiheadAttention(
          (att): MultiheadAttention(
            (out_proj): NonDynamicallyQuantizableLinear(in_features=768, out_features=768, bias=True)
          )
        )
        (pos_ffn): PositionalwiseFeedForward(
          (ffn): Sequential(
            (0): Linear(in_features=768, out_features=3072, bias=True)
            (1): GELU(approximate='none')
            (2): Dropout(p=0.0, inplace=False)
            (3): Linear(in_features=3072, out_features=768, bias=True)
          )
        )
        (norm1): LayerNorm(
          (norm): LayerNorm((768,), eps=1e-06, elementwise_affine=True)
        )
        (norm2): LayerNorm(
          (norm): LayerNorm((768,), eps=1e-06, elementwise_affine=True)
        )
        (dropout1): Dropout(p=0.0, inplace=False)
        (dropout2): Dropout(p=0.0, inplace=False)
      )
    )
    (norm): LayerNorm(
      (norm): LayerNorm((768,), eps=1e-06, elementwise_affine=True)
    )
  )
  (custom_src_module): NormalizedEmbedding(
    (emb): Embedding(
      (Embedding): Embedding(5000, 768)
    )
  )
  (output_proj): ModuleList(
    (layers): ModuleList(
      (0): Linear(
        (w): Linear(in_features=768, out_features=768, bias=True)
      )
      (1): LayerNorm(
        (norm): LayerNorm((768,), eps=1e-06, elementwise_affine=True)
      )
      (2): Linear(
        (w): Linear(in_features=768, out_features=5000, bias=True)
      )
    )
  )
) loading from /scratch/flatala/speechbrain/transformer/results_fold_5/conformer_small/7775/save/lm.ckpt, the transferred parameters did not have parameters for the key: encoder.layers.2.pos_ffn.ffn.3.weight
2025-03-20 20:16:28,972 - speechbrain.utils.checkpoints - WARNING - During parameter transfer to TransformerLM(
  (positional_encoding): PositionalEncoding()
  (encoder): TransformerEncoder(
    (layers): ModuleList(
      (0-11): 12 x TransformerEncoderLayer(
        (self_att): MultiheadAttention(
          (att): MultiheadAttention(
            (out_proj): NonDynamicallyQuantizableLinear(in_features=768, out_features=768, bias=True)
          )
        )
        (pos_ffn): PositionalwiseFeedForward(
          (ffn): Sequential(
            (0): Linear(in_features=768, out_features=3072, bias=True)
            (1): GELU(approximate='none')
            (2): Dropout(p=0.0, inplace=False)
            (3): Linear(in_features=3072, out_features=768, bias=True)
          )
        )
        (norm1): LayerNorm(
          (norm): LayerNorm((768,), eps=1e-06, elementwise_affine=True)
        )
        (norm2): LayerNorm(
          (norm): LayerNorm((768,), eps=1e-06, elementwise_affine=True)
        )
        (dropout1): Dropout(p=0.0, inplace=False)
        (dropout2): Dropout(p=0.0, inplace=False)
      )
    )
    (norm): LayerNorm(
      (norm): LayerNorm((768,), eps=1e-06, elementwise_affine=True)
    )
  )
  (custom_src_module): NormalizedEmbedding(
    (emb): Embedding(
      (Embedding): Embedding(5000, 768)
    )
  )
  (output_proj): ModuleList(
    (layers): ModuleList(
      (0): Linear(
        (w): Linear(in_features=768, out_features=768, bias=True)
      )
      (1): LayerNorm(
        (norm): LayerNorm((768,), eps=1e-06, elementwise_affine=True)
      )
      (2): Linear(
        (w): Linear(in_features=768, out_features=5000, bias=True)
      )
    )
  )
) loading from /scratch/flatala/speechbrain/transformer/results_fold_5/conformer_small/7775/save/lm.ckpt, the transferred parameters did not have parameters for the key: encoder.layers.2.pos_ffn.ffn.3.bias
2025-03-20 20:16:28,973 - speechbrain.utils.checkpoints - WARNING - During parameter transfer to TransformerLM(
  (positional_encoding): PositionalEncoding()
  (encoder): TransformerEncoder(
    (layers): ModuleList(
      (0-11): 12 x TransformerEncoderLayer(
        (self_att): MultiheadAttention(
          (att): MultiheadAttention(
            (out_proj): NonDynamicallyQuantizableLinear(in_features=768, out_features=768, bias=True)
          )
        )
        (pos_ffn): PositionalwiseFeedForward(
          (ffn): Sequential(
            (0): Linear(in_features=768, out_features=3072, bias=True)
            (1): GELU(approximate='none')
            (2): Dropout(p=0.0, inplace=False)
            (3): Linear(in_features=3072, out_features=768, bias=True)
          )
        )
        (norm1): LayerNorm(
          (norm): LayerNorm((768,), eps=1e-06, elementwise_affine=True)
        )
        (norm2): LayerNorm(
          (norm): LayerNorm((768,), eps=1e-06, elementwise_affine=True)
        )
        (dropout1): Dropout(p=0.0, inplace=False)
        (dropout2): Dropout(p=0.0, inplace=False)
      )
    )
    (norm): LayerNorm(
      (norm): LayerNorm((768,), eps=1e-06, elementwise_affine=True)
    )
  )
  (custom_src_module): NormalizedEmbedding(
    (emb): Embedding(
      (Embedding): Embedding(5000, 768)
    )
  )
  (output_proj): ModuleList(
    (layers): ModuleList(
      (0): Linear(
        (w): Linear(in_features=768, out_features=768, bias=True)
      )
      (1): LayerNorm(
        (norm): LayerNorm((768,), eps=1e-06, elementwise_affine=True)
      )
      (2): Linear(
        (w): Linear(in_features=768, out_features=5000, bias=True)
      )
    )
  )
) loading from /scratch/flatala/speechbrain/transformer/results_fold_5/conformer_small/7775/save/lm.ckpt, the transferred parameters did not have parameters for the key: encoder.layers.2.norm1.norm.weight
2025-03-20 20:16:28,973 - speechbrain.utils.checkpoints - WARNING - During parameter transfer to TransformerLM(
  (positional_encoding): PositionalEncoding()
  (encoder): TransformerEncoder(
    (layers): ModuleList(
      (0-11): 12 x TransformerEncoderLayer(
        (self_att): MultiheadAttention(
          (att): MultiheadAttention(
            (out_proj): NonDynamicallyQuantizableLinear(in_features=768, out_features=768, bias=True)
          )
        )
        (pos_ffn): PositionalwiseFeedForward(
          (ffn): Sequential(
            (0): Linear(in_features=768, out_features=3072, bias=True)
            (1): GELU(approximate='none')
            (2): Dropout(p=0.0, inplace=False)
            (3): Linear(in_features=3072, out_features=768, bias=True)
          )
        )
        (norm1): LayerNorm(
          (norm): LayerNorm((768,), eps=1e-06, elementwise_affine=True)
        )
        (norm2): LayerNorm(
          (norm): LayerNorm((768,), eps=1e-06, elementwise_affine=True)
        )
        (dropout1): Dropout(p=0.0, inplace=False)
        (dropout2): Dropout(p=0.0, inplace=False)
      )
    )
    (norm): LayerNorm(
      (norm): LayerNorm((768,), eps=1e-06, elementwise_affine=True)
    )
  )
  (custom_src_module): NormalizedEmbedding(
    (emb): Embedding(
      (Embedding): Embedding(5000, 768)
    )
  )
  (output_proj): ModuleList(
    (layers): ModuleList(
      (0): Linear(
        (w): Linear(in_features=768, out_features=768, bias=True)
      )
      (1): LayerNorm(
        (norm): LayerNorm((768,), eps=1e-06, elementwise_affine=True)
      )
      (2): Linear(
        (w): Linear(in_features=768, out_features=5000, bias=True)
      )
    )
  )
) loading from /scratch/flatala/speechbrain/transformer/results_fold_5/conformer_small/7775/save/lm.ckpt, the transferred parameters did not have parameters for the key: encoder.layers.2.norm1.norm.bias
2025-03-20 20:16:28,974 - speechbrain.utils.checkpoints - WARNING - During parameter transfer to TransformerLM(
  (positional_encoding): PositionalEncoding()
  (encoder): TransformerEncoder(
    (layers): ModuleList(
      (0-11): 12 x TransformerEncoderLayer(
        (self_att): MultiheadAttention(
          (att): MultiheadAttention(
            (out_proj): NonDynamicallyQuantizableLinear(in_features=768, out_features=768, bias=True)
          )
        )
        (pos_ffn): PositionalwiseFeedForward(
          (ffn): Sequential(
            (0): Linear(in_features=768, out_features=3072, bias=True)
            (1): GELU(approximate='none')
            (2): Dropout(p=0.0, inplace=False)
            (3): Linear(in_features=3072, out_features=768, bias=True)
          )
        )
        (norm1): LayerNorm(
          (norm): LayerNorm((768,), eps=1e-06, elementwise_affine=True)
        )
        (norm2): LayerNorm(
          (norm): LayerNorm((768,), eps=1e-06, elementwise_affine=True)
        )
        (dropout1): Dropout(p=0.0, inplace=False)
        (dropout2): Dropout(p=0.0, inplace=False)
      )
    )
    (norm): LayerNorm(
      (norm): LayerNorm((768,), eps=1e-06, elementwise_affine=True)
    )
  )
  (custom_src_module): NormalizedEmbedding(
    (emb): Embedding(
      (Embedding): Embedding(5000, 768)
    )
  )
  (output_proj): ModuleList(
    (layers): ModuleList(
      (0): Linear(
        (w): Linear(in_features=768, out_features=768, bias=True)
      )
      (1): LayerNorm(
        (norm): LayerNorm((768,), eps=1e-06, elementwise_affine=True)
      )
      (2): Linear(
        (w): Linear(in_features=768, out_features=5000, bias=True)
      )
    )
  )
) loading from /scratch/flatala/speechbrain/transformer/results_fold_5/conformer_small/7775/save/lm.ckpt, the transferred parameters did not have parameters for the key: encoder.layers.2.norm2.norm.weight
2025-03-20 20:16:28,975 - speechbrain.utils.checkpoints - WARNING - During parameter transfer to TransformerLM(
  (positional_encoding): PositionalEncoding()
  (encoder): TransformerEncoder(
    (layers): ModuleList(
      (0-11): 12 x TransformerEncoderLayer(
        (self_att): MultiheadAttention(
          (att): MultiheadAttention(
            (out_proj): NonDynamicallyQuantizableLinear(in_features=768, out_features=768, bias=True)
          )
        )
        (pos_ffn): PositionalwiseFeedForward(
          (ffn): Sequential(
            (0): Linear(in_features=768, out_features=3072, bias=True)
            (1): GELU(approximate='none')
            (2): Dropout(p=0.0, inplace=False)
            (3): Linear(in_features=3072, out_features=768, bias=True)
          )
        )
        (norm1): LayerNorm(
          (norm): LayerNorm((768,), eps=1e-06, elementwise_affine=True)
        )
        (norm2): LayerNorm(
          (norm): LayerNorm((768,), eps=1e-06, elementwise_affine=True)
        )
        (dropout1): Dropout(p=0.0, inplace=False)
        (dropout2): Dropout(p=0.0, inplace=False)
      )
    )
    (norm): LayerNorm(
      (norm): LayerNorm((768,), eps=1e-06, elementwise_affine=True)
    )
  )
  (custom_src_module): NormalizedEmbedding(
    (emb): Embedding(
      (Embedding): Embedding(5000, 768)
    )
  )
  (output_proj): ModuleList(
    (layers): ModuleList(
      (0): Linear(
        (w): Linear(in_features=768, out_features=768, bias=True)
      )
      (1): LayerNorm(
        (norm): LayerNorm((768,), eps=1e-06, elementwise_affine=True)
      )
      (2): Linear(
        (w): Linear(in_features=768, out_features=5000, bias=True)
      )
    )
  )
) loading from /scratch/flatala/speechbrain/transformer/results_fold_5/conformer_small/7775/save/lm.ckpt, the transferred parameters did not have parameters for the key: encoder.layers.2.norm2.norm.bias
2025-03-20 20:16:28,975 - speechbrain.utils.checkpoints - WARNING - During parameter transfer to TransformerLM(
  (positional_encoding): PositionalEncoding()
  (encoder): TransformerEncoder(
    (layers): ModuleList(
      (0-11): 12 x TransformerEncoderLayer(
        (self_att): MultiheadAttention(
          (att): MultiheadAttention(
            (out_proj): NonDynamicallyQuantizableLinear(in_features=768, out_features=768, bias=True)
          )
        )
        (pos_ffn): PositionalwiseFeedForward(
          (ffn): Sequential(
            (0): Linear(in_features=768, out_features=3072, bias=True)
            (1): GELU(approximate='none')
            (2): Dropout(p=0.0, inplace=False)
            (3): Linear(in_features=3072, out_features=768, bias=True)
          )
        )
        (norm1): LayerNorm(
          (norm): LayerNorm((768,), eps=1e-06, elementwise_affine=True)
        )
        (norm2): LayerNorm(
          (norm): LayerNorm((768,), eps=1e-06, elementwise_affine=True)
        )
        (dropout1): Dropout(p=0.0, inplace=False)
        (dropout2): Dropout(p=0.0, inplace=False)
      )
    )
    (norm): LayerNorm(
      (norm): LayerNorm((768,), eps=1e-06, elementwise_affine=True)
    )
  )
  (custom_src_module): NormalizedEmbedding(
    (emb): Embedding(
      (Embedding): Embedding(5000, 768)
    )
  )
  (output_proj): ModuleList(
    (layers): ModuleList(
      (0): Linear(
        (w): Linear(in_features=768, out_features=768, bias=True)
      )
      (1): LayerNorm(
        (norm): LayerNorm((768,), eps=1e-06, elementwise_affine=True)
      )
      (2): Linear(
        (w): Linear(in_features=768, out_features=5000, bias=True)
      )
    )
  )
) loading from /scratch/flatala/speechbrain/transformer/results_fold_5/conformer_small/7775/save/lm.ckpt, the transferred parameters did not have parameters for the key: encoder.layers.3.self_att.att.in_proj_weight
2025-03-20 20:16:28,976 - speechbrain.utils.checkpoints - WARNING - During parameter transfer to TransformerLM(
  (positional_encoding): PositionalEncoding()
  (encoder): TransformerEncoder(
    (layers): ModuleList(
      (0-11): 12 x TransformerEncoderLayer(
        (self_att): MultiheadAttention(
          (att): MultiheadAttention(
            (out_proj): NonDynamicallyQuantizableLinear(in_features=768, out_features=768, bias=True)
          )
        )
        (pos_ffn): PositionalwiseFeedForward(
          (ffn): Sequential(
            (0): Linear(in_features=768, out_features=3072, bias=True)
            (1): GELU(approximate='none')
            (2): Dropout(p=0.0, inplace=False)
            (3): Linear(in_features=3072, out_features=768, bias=True)
          )
        )
        (norm1): LayerNorm(
          (norm): LayerNorm((768,), eps=1e-06, elementwise_affine=True)
        )
        (norm2): LayerNorm(
          (norm): LayerNorm((768,), eps=1e-06, elementwise_affine=True)
        )
        (dropout1): Dropout(p=0.0, inplace=False)
        (dropout2): Dropout(p=0.0, inplace=False)
      )
    )
    (norm): LayerNorm(
      (norm): LayerNorm((768,), eps=1e-06, elementwise_affine=True)
    )
  )
  (custom_src_module): NormalizedEmbedding(
    (emb): Embedding(
      (Embedding): Embedding(5000, 768)
    )
  )
  (output_proj): ModuleList(
    (layers): ModuleList(
      (0): Linear(
        (w): Linear(in_features=768, out_features=768, bias=True)
      )
      (1): LayerNorm(
        (norm): LayerNorm((768,), eps=1e-06, elementwise_affine=True)
      )
      (2): Linear(
        (w): Linear(in_features=768, out_features=5000, bias=True)
      )
    )
  )
) loading from /scratch/flatala/speechbrain/transformer/results_fold_5/conformer_small/7775/save/lm.ckpt, the transferred parameters did not have parameters for the key: encoder.layers.3.self_att.att.in_proj_bias
2025-03-20 20:16:28,976 - speechbrain.utils.checkpoints - WARNING - During parameter transfer to TransformerLM(
  (positional_encoding): PositionalEncoding()
  (encoder): TransformerEncoder(
    (layers): ModuleList(
      (0-11): 12 x TransformerEncoderLayer(
        (self_att): MultiheadAttention(
          (att): MultiheadAttention(
            (out_proj): NonDynamicallyQuantizableLinear(in_features=768, out_features=768, bias=True)
          )
        )
        (pos_ffn): PositionalwiseFeedForward(
          (ffn): Sequential(
            (0): Linear(in_features=768, out_features=3072, bias=True)
            (1): GELU(approximate='none')
            (2): Dropout(p=0.0, inplace=False)
            (3): Linear(in_features=3072, out_features=768, bias=True)
          )
        )
        (norm1): LayerNorm(
          (norm): LayerNorm((768,), eps=1e-06, elementwise_affine=True)
        )
        (norm2): LayerNorm(
          (norm): LayerNorm((768,), eps=1e-06, elementwise_affine=True)
        )
        (dropout1): Dropout(p=0.0, inplace=False)
        (dropout2): Dropout(p=0.0, inplace=False)
      )
    )
    (norm): LayerNorm(
      (norm): LayerNorm((768,), eps=1e-06, elementwise_affine=True)
    )
  )
  (custom_src_module): NormalizedEmbedding(
    (emb): Embedding(
      (Embedding): Embedding(5000, 768)
    )
  )
  (output_proj): ModuleList(
    (layers): ModuleList(
      (0): Linear(
        (w): Linear(in_features=768, out_features=768, bias=True)
      )
      (1): LayerNorm(
        (norm): LayerNorm((768,), eps=1e-06, elementwise_affine=True)
      )
      (2): Linear(
        (w): Linear(in_features=768, out_features=5000, bias=True)
      )
    )
  )
) loading from /scratch/flatala/speechbrain/transformer/results_fold_5/conformer_small/7775/save/lm.ckpt, the transferred parameters did not have parameters for the key: encoder.layers.3.self_att.att.out_proj.weight
2025-03-20 20:16:28,977 - speechbrain.utils.checkpoints - WARNING - During parameter transfer to TransformerLM(
  (positional_encoding): PositionalEncoding()
  (encoder): TransformerEncoder(
    (layers): ModuleList(
      (0-11): 12 x TransformerEncoderLayer(
        (self_att): MultiheadAttention(
          (att): MultiheadAttention(
            (out_proj): NonDynamicallyQuantizableLinear(in_features=768, out_features=768, bias=True)
          )
        )
        (pos_ffn): PositionalwiseFeedForward(
          (ffn): Sequential(
            (0): Linear(in_features=768, out_features=3072, bias=True)
            (1): GELU(approximate='none')
            (2): Dropout(p=0.0, inplace=False)
            (3): Linear(in_features=3072, out_features=768, bias=True)
          )
        )
        (norm1): LayerNorm(
          (norm): LayerNorm((768,), eps=1e-06, elementwise_affine=True)
        )
        (norm2): LayerNorm(
          (norm): LayerNorm((768,), eps=1e-06, elementwise_affine=True)
        )
        (dropout1): Dropout(p=0.0, inplace=False)
        (dropout2): Dropout(p=0.0, inplace=False)
      )
    )
    (norm): LayerNorm(
      (norm): LayerNorm((768,), eps=1e-06, elementwise_affine=True)
    )
  )
  (custom_src_module): NormalizedEmbedding(
    (emb): Embedding(
      (Embedding): Embedding(5000, 768)
    )
  )
  (output_proj): ModuleList(
    (layers): ModuleList(
      (0): Linear(
        (w): Linear(in_features=768, out_features=768, bias=True)
      )
      (1): LayerNorm(
        (norm): LayerNorm((768,), eps=1e-06, elementwise_affine=True)
      )
      (2): Linear(
        (w): Linear(in_features=768, out_features=5000, bias=True)
      )
    )
  )
) loading from /scratch/flatala/speechbrain/transformer/results_fold_5/conformer_small/7775/save/lm.ckpt, the transferred parameters did not have parameters for the key: encoder.layers.3.self_att.att.out_proj.bias
2025-03-20 20:16:28,978 - speechbrain.utils.checkpoints - WARNING - During parameter transfer to TransformerLM(
  (positional_encoding): PositionalEncoding()
  (encoder): TransformerEncoder(
    (layers): ModuleList(
      (0-11): 12 x TransformerEncoderLayer(
        (self_att): MultiheadAttention(
          (att): MultiheadAttention(
            (out_proj): NonDynamicallyQuantizableLinear(in_features=768, out_features=768, bias=True)
          )
        )
        (pos_ffn): PositionalwiseFeedForward(
          (ffn): Sequential(
            (0): Linear(in_features=768, out_features=3072, bias=True)
            (1): GELU(approximate='none')
            (2): Dropout(p=0.0, inplace=False)
            (3): Linear(in_features=3072, out_features=768, bias=True)
          )
        )
        (norm1): LayerNorm(
          (norm): LayerNorm((768,), eps=1e-06, elementwise_affine=True)
        )
        (norm2): LayerNorm(
          (norm): LayerNorm((768,), eps=1e-06, elementwise_affine=True)
        )
        (dropout1): Dropout(p=0.0, inplace=False)
        (dropout2): Dropout(p=0.0, inplace=False)
      )
    )
    (norm): LayerNorm(
      (norm): LayerNorm((768,), eps=1e-06, elementwise_affine=True)
    )
  )
  (custom_src_module): NormalizedEmbedding(
    (emb): Embedding(
      (Embedding): Embedding(5000, 768)
    )
  )
  (output_proj): ModuleList(
    (layers): ModuleList(
      (0): Linear(
        (w): Linear(in_features=768, out_features=768, bias=True)
      )
      (1): LayerNorm(
        (norm): LayerNorm((768,), eps=1e-06, elementwise_affine=True)
      )
      (2): Linear(
        (w): Linear(in_features=768, out_features=5000, bias=True)
      )
    )
  )
) loading from /scratch/flatala/speechbrain/transformer/results_fold_5/conformer_small/7775/save/lm.ckpt, the transferred parameters did not have parameters for the key: encoder.layers.3.pos_ffn.ffn.0.weight
2025-03-20 20:16:28,978 - speechbrain.utils.checkpoints - WARNING - During parameter transfer to TransformerLM(
  (positional_encoding): PositionalEncoding()
  (encoder): TransformerEncoder(
    (layers): ModuleList(
      (0-11): 12 x TransformerEncoderLayer(
        (self_att): MultiheadAttention(
          (att): MultiheadAttention(
            (out_proj): NonDynamicallyQuantizableLinear(in_features=768, out_features=768, bias=True)
          )
        )
        (pos_ffn): PositionalwiseFeedForward(
          (ffn): Sequential(
            (0): Linear(in_features=768, out_features=3072, bias=True)
            (1): GELU(approximate='none')
            (2): Dropout(p=0.0, inplace=False)
            (3): Linear(in_features=3072, out_features=768, bias=True)
          )
        )
        (norm1): LayerNorm(
          (norm): LayerNorm((768,), eps=1e-06, elementwise_affine=True)
        )
        (norm2): LayerNorm(
          (norm): LayerNorm((768,), eps=1e-06, elementwise_affine=True)
        )
        (dropout1): Dropout(p=0.0, inplace=False)
        (dropout2): Dropout(p=0.0, inplace=False)
      )
    )
    (norm): LayerNorm(
      (norm): LayerNorm((768,), eps=1e-06, elementwise_affine=True)
    )
  )
  (custom_src_module): NormalizedEmbedding(
    (emb): Embedding(
      (Embedding): Embedding(5000, 768)
    )
  )
  (output_proj): ModuleList(
    (layers): ModuleList(
      (0): Linear(
        (w): Linear(in_features=768, out_features=768, bias=True)
      )
      (1): LayerNorm(
        (norm): LayerNorm((768,), eps=1e-06, elementwise_affine=True)
      )
      (2): Linear(
        (w): Linear(in_features=768, out_features=5000, bias=True)
      )
    )
  )
) loading from /scratch/flatala/speechbrain/transformer/results_fold_5/conformer_small/7775/save/lm.ckpt, the transferred parameters did not have parameters for the key: encoder.layers.3.pos_ffn.ffn.0.bias
2025-03-20 20:16:28,979 - speechbrain.utils.checkpoints - WARNING - During parameter transfer to TransformerLM(
  (positional_encoding): PositionalEncoding()
  (encoder): TransformerEncoder(
    (layers): ModuleList(
      (0-11): 12 x TransformerEncoderLayer(
        (self_att): MultiheadAttention(
          (att): MultiheadAttention(
            (out_proj): NonDynamicallyQuantizableLinear(in_features=768, out_features=768, bias=True)
          )
        )
        (pos_ffn): PositionalwiseFeedForward(
          (ffn): Sequential(
            (0): Linear(in_features=768, out_features=3072, bias=True)
            (1): GELU(approximate='none')
            (2): Dropout(p=0.0, inplace=False)
            (3): Linear(in_features=3072, out_features=768, bias=True)
          )
        )
        (norm1): LayerNorm(
          (norm): LayerNorm((768,), eps=1e-06, elementwise_affine=True)
        )
        (norm2): LayerNorm(
          (norm): LayerNorm((768,), eps=1e-06, elementwise_affine=True)
        )
        (dropout1): Dropout(p=0.0, inplace=False)
        (dropout2): Dropout(p=0.0, inplace=False)
      )
    )
    (norm): LayerNorm(
      (norm): LayerNorm((768,), eps=1e-06, elementwise_affine=True)
    )
  )
  (custom_src_module): NormalizedEmbedding(
    (emb): Embedding(
      (Embedding): Embedding(5000, 768)
    )
  )
  (output_proj): ModuleList(
    (layers): ModuleList(
      (0): Linear(
        (w): Linear(in_features=768, out_features=768, bias=True)
      )
      (1): LayerNorm(
        (norm): LayerNorm((768,), eps=1e-06, elementwise_affine=True)
      )
      (2): Linear(
        (w): Linear(in_features=768, out_features=5000, bias=True)
      )
    )
  )
) loading from /scratch/flatala/speechbrain/transformer/results_fold_5/conformer_small/7775/save/lm.ckpt, the transferred parameters did not have parameters for the key: encoder.layers.3.pos_ffn.ffn.3.weight
2025-03-20 20:16:28,979 - speechbrain.utils.checkpoints - WARNING - During parameter transfer to TransformerLM(
  (positional_encoding): PositionalEncoding()
  (encoder): TransformerEncoder(
    (layers): ModuleList(
      (0-11): 12 x TransformerEncoderLayer(
        (self_att): MultiheadAttention(
          (att): MultiheadAttention(
            (out_proj): NonDynamicallyQuantizableLinear(in_features=768, out_features=768, bias=True)
          )
        )
        (pos_ffn): PositionalwiseFeedForward(
          (ffn): Sequential(
            (0): Linear(in_features=768, out_features=3072, bias=True)
            (1): GELU(approximate='none')
            (2): Dropout(p=0.0, inplace=False)
            (3): Linear(in_features=3072, out_features=768, bias=True)
          )
        )
        (norm1): LayerNorm(
          (norm): LayerNorm((768,), eps=1e-06, elementwise_affine=True)
        )
        (norm2): LayerNorm(
          (norm): LayerNorm((768,), eps=1e-06, elementwise_affine=True)
        )
        (dropout1): Dropout(p=0.0, inplace=False)
        (dropout2): Dropout(p=0.0, inplace=False)
      )
    )
    (norm): LayerNorm(
      (norm): LayerNorm((768,), eps=1e-06, elementwise_affine=True)
    )
  )
  (custom_src_module): NormalizedEmbedding(
    (emb): Embedding(
      (Embedding): Embedding(5000, 768)
    )
  )
  (output_proj): ModuleList(
    (layers): ModuleList(
      (0): Linear(
        (w): Linear(in_features=768, out_features=768, bias=True)
      )
      (1): LayerNorm(
        (norm): LayerNorm((768,), eps=1e-06, elementwise_affine=True)
      )
      (2): Linear(
        (w): Linear(in_features=768, out_features=5000, bias=True)
      )
    )
  )
) loading from /scratch/flatala/speechbrain/transformer/results_fold_5/conformer_small/7775/save/lm.ckpt, the transferred parameters did not have parameters for the key: encoder.layers.3.pos_ffn.ffn.3.bias
2025-03-20 20:16:28,980 - speechbrain.utils.checkpoints - WARNING - During parameter transfer to TransformerLM(
  (positional_encoding): PositionalEncoding()
  (encoder): TransformerEncoder(
    (layers): ModuleList(
      (0-11): 12 x TransformerEncoderLayer(
        (self_att): MultiheadAttention(
          (att): MultiheadAttention(
            (out_proj): NonDynamicallyQuantizableLinear(in_features=768, out_features=768, bias=True)
          )
        )
        (pos_ffn): PositionalwiseFeedForward(
          (ffn): Sequential(
            (0): Linear(in_features=768, out_features=3072, bias=True)
            (1): GELU(approximate='none')
            (2): Dropout(p=0.0, inplace=False)
            (3): Linear(in_features=3072, out_features=768, bias=True)
          )
        )
        (norm1): LayerNorm(
          (norm): LayerNorm((768,), eps=1e-06, elementwise_affine=True)
        )
        (norm2): LayerNorm(
          (norm): LayerNorm((768,), eps=1e-06, elementwise_affine=True)
        )
        (dropout1): Dropout(p=0.0, inplace=False)
        (dropout2): Dropout(p=0.0, inplace=False)
      )
    )
    (norm): LayerNorm(
      (norm): LayerNorm((768,), eps=1e-06, elementwise_affine=True)
    )
  )
  (custom_src_module): NormalizedEmbedding(
    (emb): Embedding(
      (Embedding): Embedding(5000, 768)
    )
  )
  (output_proj): ModuleList(
    (layers): ModuleList(
      (0): Linear(
        (w): Linear(in_features=768, out_features=768, bias=True)
      )
      (1): LayerNorm(
        (norm): LayerNorm((768,), eps=1e-06, elementwise_affine=True)
      )
      (2): Linear(
        (w): Linear(in_features=768, out_features=5000, bias=True)
      )
    )
  )
) loading from /scratch/flatala/speechbrain/transformer/results_fold_5/conformer_small/7775/save/lm.ckpt, the transferred parameters did not have parameters for the key: encoder.layers.3.norm1.norm.weight
2025-03-20 20:16:28,980 - speechbrain.utils.checkpoints - WARNING - During parameter transfer to TransformerLM(
  (positional_encoding): PositionalEncoding()
  (encoder): TransformerEncoder(
    (layers): ModuleList(
      (0-11): 12 x TransformerEncoderLayer(
        (self_att): MultiheadAttention(
          (att): MultiheadAttention(
            (out_proj): NonDynamicallyQuantizableLinear(in_features=768, out_features=768, bias=True)
          )
        )
        (pos_ffn): PositionalwiseFeedForward(
          (ffn): Sequential(
            (0): Linear(in_features=768, out_features=3072, bias=True)
            (1): GELU(approximate='none')
            (2): Dropout(p=0.0, inplace=False)
            (3): Linear(in_features=3072, out_features=768, bias=True)
          )
        )
        (norm1): LayerNorm(
          (norm): LayerNorm((768,), eps=1e-06, elementwise_affine=True)
        )
        (norm2): LayerNorm(
          (norm): LayerNorm((768,), eps=1e-06, elementwise_affine=True)
        )
        (dropout1): Dropout(p=0.0, inplace=False)
        (dropout2): Dropout(p=0.0, inplace=False)
      )
    )
    (norm): LayerNorm(
      (norm): LayerNorm((768,), eps=1e-06, elementwise_affine=True)
    )
  )
  (custom_src_module): NormalizedEmbedding(
    (emb): Embedding(
      (Embedding): Embedding(5000, 768)
    )
  )
  (output_proj): ModuleList(
    (layers): ModuleList(
      (0): Linear(
        (w): Linear(in_features=768, out_features=768, bias=True)
      )
      (1): LayerNorm(
        (norm): LayerNorm((768,), eps=1e-06, elementwise_affine=True)
      )
      (2): Linear(
        (w): Linear(in_features=768, out_features=5000, bias=True)
      )
    )
  )
) loading from /scratch/flatala/speechbrain/transformer/results_fold_5/conformer_small/7775/save/lm.ckpt, the transferred parameters did not have parameters for the key: encoder.layers.3.norm1.norm.bias
2025-03-20 20:16:28,981 - speechbrain.utils.checkpoints - WARNING - During parameter transfer to TransformerLM(
  (positional_encoding): PositionalEncoding()
  (encoder): TransformerEncoder(
    (layers): ModuleList(
      (0-11): 12 x TransformerEncoderLayer(
        (self_att): MultiheadAttention(
          (att): MultiheadAttention(
            (out_proj): NonDynamicallyQuantizableLinear(in_features=768, out_features=768, bias=True)
          )
        )
        (pos_ffn): PositionalwiseFeedForward(
          (ffn): Sequential(
            (0): Linear(in_features=768, out_features=3072, bias=True)
            (1): GELU(approximate='none')
            (2): Dropout(p=0.0, inplace=False)
            (3): Linear(in_features=3072, out_features=768, bias=True)
          )
        )
        (norm1): LayerNorm(
          (norm): LayerNorm((768,), eps=1e-06, elementwise_affine=True)
        )
        (norm2): LayerNorm(
          (norm): LayerNorm((768,), eps=1e-06, elementwise_affine=True)
        )
        (dropout1): Dropout(p=0.0, inplace=False)
        (dropout2): Dropout(p=0.0, inplace=False)
      )
    )
    (norm): LayerNorm(
      (norm): LayerNorm((768,), eps=1e-06, elementwise_affine=True)
    )
  )
  (custom_src_module): NormalizedEmbedding(
    (emb): Embedding(
      (Embedding): Embedding(5000, 768)
    )
  )
  (output_proj): ModuleList(
    (layers): ModuleList(
      (0): Linear(
        (w): Linear(in_features=768, out_features=768, bias=True)
      )
      (1): LayerNorm(
        (norm): LayerNorm((768,), eps=1e-06, elementwise_affine=True)
      )
      (2): Linear(
        (w): Linear(in_features=768, out_features=5000, bias=True)
      )
    )
  )
) loading from /scratch/flatala/speechbrain/transformer/results_fold_5/conformer_small/7775/save/lm.ckpt, the transferred parameters did not have parameters for the key: encoder.layers.3.norm2.norm.weight
2025-03-20 20:16:28,982 - speechbrain.utils.checkpoints - WARNING - During parameter transfer to TransformerLM(
  (positional_encoding): PositionalEncoding()
  (encoder): TransformerEncoder(
    (layers): ModuleList(
      (0-11): 12 x TransformerEncoderLayer(
        (self_att): MultiheadAttention(
          (att): MultiheadAttention(
            (out_proj): NonDynamicallyQuantizableLinear(in_features=768, out_features=768, bias=True)
          )
        )
        (pos_ffn): PositionalwiseFeedForward(
          (ffn): Sequential(
            (0): Linear(in_features=768, out_features=3072, bias=True)
            (1): GELU(approximate='none')
            (2): Dropout(p=0.0, inplace=False)
            (3): Linear(in_features=3072, out_features=768, bias=True)
          )
        )
        (norm1): LayerNorm(
          (norm): LayerNorm((768,), eps=1e-06, elementwise_affine=True)
        )
        (norm2): LayerNorm(
          (norm): LayerNorm((768,), eps=1e-06, elementwise_affine=True)
        )
        (dropout1): Dropout(p=0.0, inplace=False)
        (dropout2): Dropout(p=0.0, inplace=False)
      )
    )
    (norm): LayerNorm(
      (norm): LayerNorm((768,), eps=1e-06, elementwise_affine=True)
    )
  )
  (custom_src_module): NormalizedEmbedding(
    (emb): Embedding(
      (Embedding): Embedding(5000, 768)
    )
  )
  (output_proj): ModuleList(
    (layers): ModuleList(
      (0): Linear(
        (w): Linear(in_features=768, out_features=768, bias=True)
      )
      (1): LayerNorm(
        (norm): LayerNorm((768,), eps=1e-06, elementwise_affine=True)
      )
      (2): Linear(
        (w): Linear(in_features=768, out_features=5000, bias=True)
      )
    )
  )
) loading from /scratch/flatala/speechbrain/transformer/results_fold_5/conformer_small/7775/save/lm.ckpt, the transferred parameters did not have parameters for the key: encoder.layers.3.norm2.norm.bias
2025-03-20 20:16:28,982 - speechbrain.utils.checkpoints - WARNING - During parameter transfer to TransformerLM(
  (positional_encoding): PositionalEncoding()
  (encoder): TransformerEncoder(
    (layers): ModuleList(
      (0-11): 12 x TransformerEncoderLayer(
        (self_att): MultiheadAttention(
          (att): MultiheadAttention(
            (out_proj): NonDynamicallyQuantizableLinear(in_features=768, out_features=768, bias=True)
          )
        )
        (pos_ffn): PositionalwiseFeedForward(
          (ffn): Sequential(
            (0): Linear(in_features=768, out_features=3072, bias=True)
            (1): GELU(approximate='none')
            (2): Dropout(p=0.0, inplace=False)
            (3): Linear(in_features=3072, out_features=768, bias=True)
          )
        )
        (norm1): LayerNorm(
          (norm): LayerNorm((768,), eps=1e-06, elementwise_affine=True)
        )
        (norm2): LayerNorm(
          (norm): LayerNorm((768,), eps=1e-06, elementwise_affine=True)
        )
        (dropout1): Dropout(p=0.0, inplace=False)
        (dropout2): Dropout(p=0.0, inplace=False)
      )
    )
    (norm): LayerNorm(
      (norm): LayerNorm((768,), eps=1e-06, elementwise_affine=True)
    )
  )
  (custom_src_module): NormalizedEmbedding(
    (emb): Embedding(
      (Embedding): Embedding(5000, 768)
    )
  )
  (output_proj): ModuleList(
    (layers): ModuleList(
      (0): Linear(
        (w): Linear(in_features=768, out_features=768, bias=True)
      )
      (1): LayerNorm(
        (norm): LayerNorm((768,), eps=1e-06, elementwise_affine=True)
      )
      (2): Linear(
        (w): Linear(in_features=768, out_features=5000, bias=True)
      )
    )
  )
) loading from /scratch/flatala/speechbrain/transformer/results_fold_5/conformer_small/7775/save/lm.ckpt, the transferred parameters did not have parameters for the key: encoder.layers.4.self_att.att.in_proj_weight
2025-03-20 20:16:28,983 - speechbrain.utils.checkpoints - WARNING - During parameter transfer to TransformerLM(
  (positional_encoding): PositionalEncoding()
  (encoder): TransformerEncoder(
    (layers): ModuleList(
      (0-11): 12 x TransformerEncoderLayer(
        (self_att): MultiheadAttention(
          (att): MultiheadAttention(
            (out_proj): NonDynamicallyQuantizableLinear(in_features=768, out_features=768, bias=True)
          )
        )
        (pos_ffn): PositionalwiseFeedForward(
          (ffn): Sequential(
            (0): Linear(in_features=768, out_features=3072, bias=True)
            (1): GELU(approximate='none')
            (2): Dropout(p=0.0, inplace=False)
            (3): Linear(in_features=3072, out_features=768, bias=True)
          )
        )
        (norm1): LayerNorm(
          (norm): LayerNorm((768,), eps=1e-06, elementwise_affine=True)
        )
        (norm2): LayerNorm(
          (norm): LayerNorm((768,), eps=1e-06, elementwise_affine=True)
        )
        (dropout1): Dropout(p=0.0, inplace=False)
        (dropout2): Dropout(p=0.0, inplace=False)
      )
    )
    (norm): LayerNorm(
      (norm): LayerNorm((768,), eps=1e-06, elementwise_affine=True)
    )
  )
  (custom_src_module): NormalizedEmbedding(
    (emb): Embedding(
      (Embedding): Embedding(5000, 768)
    )
  )
  (output_proj): ModuleList(
    (layers): ModuleList(
      (0): Linear(
        (w): Linear(in_features=768, out_features=768, bias=True)
      )
      (1): LayerNorm(
        (norm): LayerNorm((768,), eps=1e-06, elementwise_affine=True)
      )
      (2): Linear(
        (w): Linear(in_features=768, out_features=5000, bias=True)
      )
    )
  )
) loading from /scratch/flatala/speechbrain/transformer/results_fold_5/conformer_small/7775/save/lm.ckpt, the transferred parameters did not have parameters for the key: encoder.layers.4.self_att.att.in_proj_bias
2025-03-20 20:16:28,983 - speechbrain.utils.checkpoints - WARNING - During parameter transfer to TransformerLM(
  (positional_encoding): PositionalEncoding()
  (encoder): TransformerEncoder(
    (layers): ModuleList(
      (0-11): 12 x TransformerEncoderLayer(
        (self_att): MultiheadAttention(
          (att): MultiheadAttention(
            (out_proj): NonDynamicallyQuantizableLinear(in_features=768, out_features=768, bias=True)
          )
        )
        (pos_ffn): PositionalwiseFeedForward(
          (ffn): Sequential(
            (0): Linear(in_features=768, out_features=3072, bias=True)
            (1): GELU(approximate='none')
            (2): Dropout(p=0.0, inplace=False)
            (3): Linear(in_features=3072, out_features=768, bias=True)
          )
        )
        (norm1): LayerNorm(
          (norm): LayerNorm((768,), eps=1e-06, elementwise_affine=True)
        )
        (norm2): LayerNorm(
          (norm): LayerNorm((768,), eps=1e-06, elementwise_affine=True)
        )
        (dropout1): Dropout(p=0.0, inplace=False)
        (dropout2): Dropout(p=0.0, inplace=False)
      )
    )
    (norm): LayerNorm(
      (norm): LayerNorm((768,), eps=1e-06, elementwise_affine=True)
    )
  )
  (custom_src_module): NormalizedEmbedding(
    (emb): Embedding(
      (Embedding): Embedding(5000, 768)
    )
  )
  (output_proj): ModuleList(
    (layers): ModuleList(
      (0): Linear(
        (w): Linear(in_features=768, out_features=768, bias=True)
      )
      (1): LayerNorm(
        (norm): LayerNorm((768,), eps=1e-06, elementwise_affine=True)
      )
      (2): Linear(
        (w): Linear(in_features=768, out_features=5000, bias=True)
      )
    )
  )
) loading from /scratch/flatala/speechbrain/transformer/results_fold_5/conformer_small/7775/save/lm.ckpt, the transferred parameters did not have parameters for the key: encoder.layers.4.self_att.att.out_proj.weight
2025-03-20 20:16:28,984 - speechbrain.utils.checkpoints - WARNING - During parameter transfer to TransformerLM(
  (positional_encoding): PositionalEncoding()
  (encoder): TransformerEncoder(
    (layers): ModuleList(
      (0-11): 12 x TransformerEncoderLayer(
        (self_att): MultiheadAttention(
          (att): MultiheadAttention(
            (out_proj): NonDynamicallyQuantizableLinear(in_features=768, out_features=768, bias=True)
          )
        )
        (pos_ffn): PositionalwiseFeedForward(
          (ffn): Sequential(
            (0): Linear(in_features=768, out_features=3072, bias=True)
            (1): GELU(approximate='none')
            (2): Dropout(p=0.0, inplace=False)
            (3): Linear(in_features=3072, out_features=768, bias=True)
          )
        )
        (norm1): LayerNorm(
          (norm): LayerNorm((768,), eps=1e-06, elementwise_affine=True)
        )
        (norm2): LayerNorm(
          (norm): LayerNorm((768,), eps=1e-06, elementwise_affine=True)
        )
        (dropout1): Dropout(p=0.0, inplace=False)
        (dropout2): Dropout(p=0.0, inplace=False)
      )
    )
    (norm): LayerNorm(
      (norm): LayerNorm((768,), eps=1e-06, elementwise_affine=True)
    )
  )
  (custom_src_module): NormalizedEmbedding(
    (emb): Embedding(
      (Embedding): Embedding(5000, 768)
    )
  )
  (output_proj): ModuleList(
    (layers): ModuleList(
      (0): Linear(
        (w): Linear(in_features=768, out_features=768, bias=True)
      )
      (1): LayerNorm(
        (norm): LayerNorm((768,), eps=1e-06, elementwise_affine=True)
      )
      (2): Linear(
        (w): Linear(in_features=768, out_features=5000, bias=True)
      )
    )
  )
) loading from /scratch/flatala/speechbrain/transformer/results_fold_5/conformer_small/7775/save/lm.ckpt, the transferred parameters did not have parameters for the key: encoder.layers.4.self_att.att.out_proj.bias
2025-03-20 20:16:28,984 - speechbrain.utils.checkpoints - WARNING - During parameter transfer to TransformerLM(
  (positional_encoding): PositionalEncoding()
  (encoder): TransformerEncoder(
    (layers): ModuleList(
      (0-11): 12 x TransformerEncoderLayer(
        (self_att): MultiheadAttention(
          (att): MultiheadAttention(
            (out_proj): NonDynamicallyQuantizableLinear(in_features=768, out_features=768, bias=True)
          )
        )
        (pos_ffn): PositionalwiseFeedForward(
          (ffn): Sequential(
            (0): Linear(in_features=768, out_features=3072, bias=True)
            (1): GELU(approximate='none')
            (2): Dropout(p=0.0, inplace=False)
            (3): Linear(in_features=3072, out_features=768, bias=True)
          )
        )
        (norm1): LayerNorm(
          (norm): LayerNorm((768,), eps=1e-06, elementwise_affine=True)
        )
        (norm2): LayerNorm(
          (norm): LayerNorm((768,), eps=1e-06, elementwise_affine=True)
        )
        (dropout1): Dropout(p=0.0, inplace=False)
        (dropout2): Dropout(p=0.0, inplace=False)
      )
    )
    (norm): LayerNorm(
      (norm): LayerNorm((768,), eps=1e-06, elementwise_affine=True)
    )
  )
  (custom_src_module): NormalizedEmbedding(
    (emb): Embedding(
      (Embedding): Embedding(5000, 768)
    )
  )
  (output_proj): ModuleList(
    (layers): ModuleList(
      (0): Linear(
        (w): Linear(in_features=768, out_features=768, bias=True)
      )
      (1): LayerNorm(
        (norm): LayerNorm((768,), eps=1e-06, elementwise_affine=True)
      )
      (2): Linear(
        (w): Linear(in_features=768, out_features=5000, bias=True)
      )
    )
  )
) loading from /scratch/flatala/speechbrain/transformer/results_fold_5/conformer_small/7775/save/lm.ckpt, the transferred parameters did not have parameters for the key: encoder.layers.4.pos_ffn.ffn.0.weight
2025-03-20 20:16:28,985 - speechbrain.utils.checkpoints - WARNING - During parameter transfer to TransformerLM(
  (positional_encoding): PositionalEncoding()
  (encoder): TransformerEncoder(
    (layers): ModuleList(
      (0-11): 12 x TransformerEncoderLayer(
        (self_att): MultiheadAttention(
          (att): MultiheadAttention(
            (out_proj): NonDynamicallyQuantizableLinear(in_features=768, out_features=768, bias=True)
          )
        )
        (pos_ffn): PositionalwiseFeedForward(
          (ffn): Sequential(
            (0): Linear(in_features=768, out_features=3072, bias=True)
            (1): GELU(approximate='none')
            (2): Dropout(p=0.0, inplace=False)
            (3): Linear(in_features=3072, out_features=768, bias=True)
          )
        )
        (norm1): LayerNorm(
          (norm): LayerNorm((768,), eps=1e-06, elementwise_affine=True)
        )
        (norm2): LayerNorm(
          (norm): LayerNorm((768,), eps=1e-06, elementwise_affine=True)
        )
        (dropout1): Dropout(p=0.0, inplace=False)
        (dropout2): Dropout(p=0.0, inplace=False)
      )
    )
    (norm): LayerNorm(
      (norm): LayerNorm((768,), eps=1e-06, elementwise_affine=True)
    )
  )
  (custom_src_module): NormalizedEmbedding(
    (emb): Embedding(
      (Embedding): Embedding(5000, 768)
    )
  )
  (output_proj): ModuleList(
    (layers): ModuleList(
      (0): Linear(
        (w): Linear(in_features=768, out_features=768, bias=True)
      )
      (1): LayerNorm(
        (norm): LayerNorm((768,), eps=1e-06, elementwise_affine=True)
      )
      (2): Linear(
        (w): Linear(in_features=768, out_features=5000, bias=True)
      )
    )
  )
) loading from /scratch/flatala/speechbrain/transformer/results_fold_5/conformer_small/7775/save/lm.ckpt, the transferred parameters did not have parameters for the key: encoder.layers.4.pos_ffn.ffn.0.bias
2025-03-20 20:16:28,985 - speechbrain.utils.checkpoints - WARNING - During parameter transfer to TransformerLM(
  (positional_encoding): PositionalEncoding()
  (encoder): TransformerEncoder(
    (layers): ModuleList(
      (0-11): 12 x TransformerEncoderLayer(
        (self_att): MultiheadAttention(
          (att): MultiheadAttention(
            (out_proj): NonDynamicallyQuantizableLinear(in_features=768, out_features=768, bias=True)
          )
        )
        (pos_ffn): PositionalwiseFeedForward(
          (ffn): Sequential(
            (0): Linear(in_features=768, out_features=3072, bias=True)
            (1): GELU(approximate='none')
            (2): Dropout(p=0.0, inplace=False)
            (3): Linear(in_features=3072, out_features=768, bias=True)
          )
        )
        (norm1): LayerNorm(
          (norm): LayerNorm((768,), eps=1e-06, elementwise_affine=True)
        )
        (norm2): LayerNorm(
          (norm): LayerNorm((768,), eps=1e-06, elementwise_affine=True)
        )
        (dropout1): Dropout(p=0.0, inplace=False)
        (dropout2): Dropout(p=0.0, inplace=False)
      )
    )
    (norm): LayerNorm(
      (norm): LayerNorm((768,), eps=1e-06, elementwise_affine=True)
    )
  )
  (custom_src_module): NormalizedEmbedding(
    (emb): Embedding(
      (Embedding): Embedding(5000, 768)
    )
  )
  (output_proj): ModuleList(
    (layers): ModuleList(
      (0): Linear(
        (w): Linear(in_features=768, out_features=768, bias=True)
      )
      (1): LayerNorm(
        (norm): LayerNorm((768,), eps=1e-06, elementwise_affine=True)
      )
      (2): Linear(
        (w): Linear(in_features=768, out_features=5000, bias=True)
      )
    )
  )
) loading from /scratch/flatala/speechbrain/transformer/results_fold_5/conformer_small/7775/save/lm.ckpt, the transferred parameters did not have parameters for the key: encoder.layers.4.pos_ffn.ffn.3.weight
2025-03-20 20:16:28,986 - speechbrain.utils.checkpoints - WARNING - During parameter transfer to TransformerLM(
  (positional_encoding): PositionalEncoding()
  (encoder): TransformerEncoder(
    (layers): ModuleList(
      (0-11): 12 x TransformerEncoderLayer(
        (self_att): MultiheadAttention(
          (att): MultiheadAttention(
            (out_proj): NonDynamicallyQuantizableLinear(in_features=768, out_features=768, bias=True)
          )
        )
        (pos_ffn): PositionalwiseFeedForward(
          (ffn): Sequential(
            (0): Linear(in_features=768, out_features=3072, bias=True)
            (1): GELU(approximate='none')
            (2): Dropout(p=0.0, inplace=False)
            (3): Linear(in_features=3072, out_features=768, bias=True)
          )
        )
        (norm1): LayerNorm(
          (norm): LayerNorm((768,), eps=1e-06, elementwise_affine=True)
        )
        (norm2): LayerNorm(
          (norm): LayerNorm((768,), eps=1e-06, elementwise_affine=True)
        )
        (dropout1): Dropout(p=0.0, inplace=False)
        (dropout2): Dropout(p=0.0, inplace=False)
      )
    )
    (norm): LayerNorm(
      (norm): LayerNorm((768,), eps=1e-06, elementwise_affine=True)
    )
  )
  (custom_src_module): NormalizedEmbedding(
    (emb): Embedding(
      (Embedding): Embedding(5000, 768)
    )
  )
  (output_proj): ModuleList(
    (layers): ModuleList(
      (0): Linear(
        (w): Linear(in_features=768, out_features=768, bias=True)
      )
      (1): LayerNorm(
        (norm): LayerNorm((768,), eps=1e-06, elementwise_affine=True)
      )
      (2): Linear(
        (w): Linear(in_features=768, out_features=5000, bias=True)
      )
    )
  )
) loading from /scratch/flatala/speechbrain/transformer/results_fold_5/conformer_small/7775/save/lm.ckpt, the transferred parameters did not have parameters for the key: encoder.layers.4.pos_ffn.ffn.3.bias
2025-03-20 20:16:28,986 - speechbrain.utils.checkpoints - WARNING - During parameter transfer to TransformerLM(
  (positional_encoding): PositionalEncoding()
  (encoder): TransformerEncoder(
    (layers): ModuleList(
      (0-11): 12 x TransformerEncoderLayer(
        (self_att): MultiheadAttention(
          (att): MultiheadAttention(
            (out_proj): NonDynamicallyQuantizableLinear(in_features=768, out_features=768, bias=True)
          )
        )
        (pos_ffn): PositionalwiseFeedForward(
          (ffn): Sequential(
            (0): Linear(in_features=768, out_features=3072, bias=True)
            (1): GELU(approximate='none')
            (2): Dropout(p=0.0, inplace=False)
            (3): Linear(in_features=3072, out_features=768, bias=True)
          )
        )
        (norm1): LayerNorm(
          (norm): LayerNorm((768,), eps=1e-06, elementwise_affine=True)
        )
        (norm2): LayerNorm(
          (norm): LayerNorm((768,), eps=1e-06, elementwise_affine=True)
        )
        (dropout1): Dropout(p=0.0, inplace=False)
        (dropout2): Dropout(p=0.0, inplace=False)
      )
    )
    (norm): LayerNorm(
      (norm): LayerNorm((768,), eps=1e-06, elementwise_affine=True)
    )
  )
  (custom_src_module): NormalizedEmbedding(
    (emb): Embedding(
      (Embedding): Embedding(5000, 768)
    )
  )
  (output_proj): ModuleList(
    (layers): ModuleList(
      (0): Linear(
        (w): Linear(in_features=768, out_features=768, bias=True)
      )
      (1): LayerNorm(
        (norm): LayerNorm((768,), eps=1e-06, elementwise_affine=True)
      )
      (2): Linear(
        (w): Linear(in_features=768, out_features=5000, bias=True)
      )
    )
  )
) loading from /scratch/flatala/speechbrain/transformer/results_fold_5/conformer_small/7775/save/lm.ckpt, the transferred parameters did not have parameters for the key: encoder.layers.4.norm1.norm.weight
2025-03-20 20:16:28,987 - speechbrain.utils.checkpoints - WARNING - During parameter transfer to TransformerLM(
  (positional_encoding): PositionalEncoding()
  (encoder): TransformerEncoder(
    (layers): ModuleList(
      (0-11): 12 x TransformerEncoderLayer(
        (self_att): MultiheadAttention(
          (att): MultiheadAttention(
            (out_proj): NonDynamicallyQuantizableLinear(in_features=768, out_features=768, bias=True)
          )
        )
        (pos_ffn): PositionalwiseFeedForward(
          (ffn): Sequential(
            (0): Linear(in_features=768, out_features=3072, bias=True)
            (1): GELU(approximate='none')
            (2): Dropout(p=0.0, inplace=False)
            (3): Linear(in_features=3072, out_features=768, bias=True)
          )
        )
        (norm1): LayerNorm(
          (norm): LayerNorm((768,), eps=1e-06, elementwise_affine=True)
        )
        (norm2): LayerNorm(
          (norm): LayerNorm((768,), eps=1e-06, elementwise_affine=True)
        )
        (dropout1): Dropout(p=0.0, inplace=False)
        (dropout2): Dropout(p=0.0, inplace=False)
      )
    )
    (norm): LayerNorm(
      (norm): LayerNorm((768,), eps=1e-06, elementwise_affine=True)
    )
  )
  (custom_src_module): NormalizedEmbedding(
    (emb): Embedding(
      (Embedding): Embedding(5000, 768)
    )
  )
  (output_proj): ModuleList(
    (layers): ModuleList(
      (0): Linear(
        (w): Linear(in_features=768, out_features=768, bias=True)
      )
      (1): LayerNorm(
        (norm): LayerNorm((768,), eps=1e-06, elementwise_affine=True)
      )
      (2): Linear(
        (w): Linear(in_features=768, out_features=5000, bias=True)
      )
    )
  )
) loading from /scratch/flatala/speechbrain/transformer/results_fold_5/conformer_small/7775/save/lm.ckpt, the transferred parameters did not have parameters for the key: encoder.layers.4.norm1.norm.bias
2025-03-20 20:16:28,988 - speechbrain.utils.checkpoints - WARNING - During parameter transfer to TransformerLM(
  (positional_encoding): PositionalEncoding()
  (encoder): TransformerEncoder(
    (layers): ModuleList(
      (0-11): 12 x TransformerEncoderLayer(
        (self_att): MultiheadAttention(
          (att): MultiheadAttention(
            (out_proj): NonDynamicallyQuantizableLinear(in_features=768, out_features=768, bias=True)
          )
        )
        (pos_ffn): PositionalwiseFeedForward(
          (ffn): Sequential(
            (0): Linear(in_features=768, out_features=3072, bias=True)
            (1): GELU(approximate='none')
            (2): Dropout(p=0.0, inplace=False)
            (3): Linear(in_features=3072, out_features=768, bias=True)
          )
        )
        (norm1): LayerNorm(
          (norm): LayerNorm((768,), eps=1e-06, elementwise_affine=True)
        )
        (norm2): LayerNorm(
          (norm): LayerNorm((768,), eps=1e-06, elementwise_affine=True)
        )
        (dropout1): Dropout(p=0.0, inplace=False)
        (dropout2): Dropout(p=0.0, inplace=False)
      )
    )
    (norm): LayerNorm(
      (norm): LayerNorm((768,), eps=1e-06, elementwise_affine=True)
    )
  )
  (custom_src_module): NormalizedEmbedding(
    (emb): Embedding(
      (Embedding): Embedding(5000, 768)
    )
  )
  (output_proj): ModuleList(
    (layers): ModuleList(
      (0): Linear(
        (w): Linear(in_features=768, out_features=768, bias=True)
      )
      (1): LayerNorm(
        (norm): LayerNorm((768,), eps=1e-06, elementwise_affine=True)
      )
      (2): Linear(
        (w): Linear(in_features=768, out_features=5000, bias=True)
      )
    )
  )
) loading from /scratch/flatala/speechbrain/transformer/results_fold_5/conformer_small/7775/save/lm.ckpt, the transferred parameters did not have parameters for the key: encoder.layers.4.norm2.norm.weight
2025-03-20 20:16:28,988 - speechbrain.utils.checkpoints - WARNING - During parameter transfer to TransformerLM(
  (positional_encoding): PositionalEncoding()
  (encoder): TransformerEncoder(
    (layers): ModuleList(
      (0-11): 12 x TransformerEncoderLayer(
        (self_att): MultiheadAttention(
          (att): MultiheadAttention(
            (out_proj): NonDynamicallyQuantizableLinear(in_features=768, out_features=768, bias=True)
          )
        )
        (pos_ffn): PositionalwiseFeedForward(
          (ffn): Sequential(
            (0): Linear(in_features=768, out_features=3072, bias=True)
            (1): GELU(approximate='none')
            (2): Dropout(p=0.0, inplace=False)
            (3): Linear(in_features=3072, out_features=768, bias=True)
          )
        )
        (norm1): LayerNorm(
          (norm): LayerNorm((768,), eps=1e-06, elementwise_affine=True)
        )
        (norm2): LayerNorm(
          (norm): LayerNorm((768,), eps=1e-06, elementwise_affine=True)
        )
        (dropout1): Dropout(p=0.0, inplace=False)
        (dropout2): Dropout(p=0.0, inplace=False)
      )
    )
    (norm): LayerNorm(
      (norm): LayerNorm((768,), eps=1e-06, elementwise_affine=True)
    )
  )
  (custom_src_module): NormalizedEmbedding(
    (emb): Embedding(
      (Embedding): Embedding(5000, 768)
    )
  )
  (output_proj): ModuleList(
    (layers): ModuleList(
      (0): Linear(
        (w): Linear(in_features=768, out_features=768, bias=True)
      )
      (1): LayerNorm(
        (norm): LayerNorm((768,), eps=1e-06, elementwise_affine=True)
      )
      (2): Linear(
        (w): Linear(in_features=768, out_features=5000, bias=True)
      )
    )
  )
) loading from /scratch/flatala/speechbrain/transformer/results_fold_5/conformer_small/7775/save/lm.ckpt, the transferred parameters did not have parameters for the key: encoder.layers.4.norm2.norm.bias
2025-03-20 20:16:28,989 - speechbrain.utils.checkpoints - WARNING - During parameter transfer to TransformerLM(
  (positional_encoding): PositionalEncoding()
  (encoder): TransformerEncoder(
    (layers): ModuleList(
      (0-11): 12 x TransformerEncoderLayer(
        (self_att): MultiheadAttention(
          (att): MultiheadAttention(
            (out_proj): NonDynamicallyQuantizableLinear(in_features=768, out_features=768, bias=True)
          )
        )
        (pos_ffn): PositionalwiseFeedForward(
          (ffn): Sequential(
            (0): Linear(in_features=768, out_features=3072, bias=True)
            (1): GELU(approximate='none')
            (2): Dropout(p=0.0, inplace=False)
            (3): Linear(in_features=3072, out_features=768, bias=True)
          )
        )
        (norm1): LayerNorm(
          (norm): LayerNorm((768,), eps=1e-06, elementwise_affine=True)
        )
        (norm2): LayerNorm(
          (norm): LayerNorm((768,), eps=1e-06, elementwise_affine=True)
        )
        (dropout1): Dropout(p=0.0, inplace=False)
        (dropout2): Dropout(p=0.0, inplace=False)
      )
    )
    (norm): LayerNorm(
      (norm): LayerNorm((768,), eps=1e-06, elementwise_affine=True)
    )
  )
  (custom_src_module): NormalizedEmbedding(
    (emb): Embedding(
      (Embedding): Embedding(5000, 768)
    )
  )
  (output_proj): ModuleList(
    (layers): ModuleList(
      (0): Linear(
        (w): Linear(in_features=768, out_features=768, bias=True)
      )
      (1): LayerNorm(
        (norm): LayerNorm((768,), eps=1e-06, elementwise_affine=True)
      )
      (2): Linear(
        (w): Linear(in_features=768, out_features=5000, bias=True)
      )
    )
  )
) loading from /scratch/flatala/speechbrain/transformer/results_fold_5/conformer_small/7775/save/lm.ckpt, the transferred parameters did not have parameters for the key: encoder.layers.5.self_att.att.in_proj_weight
2025-03-20 20:16:28,989 - speechbrain.utils.checkpoints - WARNING - During parameter transfer to TransformerLM(
  (positional_encoding): PositionalEncoding()
  (encoder): TransformerEncoder(
    (layers): ModuleList(
      (0-11): 12 x TransformerEncoderLayer(
        (self_att): MultiheadAttention(
          (att): MultiheadAttention(
            (out_proj): NonDynamicallyQuantizableLinear(in_features=768, out_features=768, bias=True)
          )
        )
        (pos_ffn): PositionalwiseFeedForward(
          (ffn): Sequential(
            (0): Linear(in_features=768, out_features=3072, bias=True)
            (1): GELU(approximate='none')
            (2): Dropout(p=0.0, inplace=False)
            (3): Linear(in_features=3072, out_features=768, bias=True)
          )
        )
        (norm1): LayerNorm(
          (norm): LayerNorm((768,), eps=1e-06, elementwise_affine=True)
        )
        (norm2): LayerNorm(
          (norm): LayerNorm((768,), eps=1e-06, elementwise_affine=True)
        )
        (dropout1): Dropout(p=0.0, inplace=False)
        (dropout2): Dropout(p=0.0, inplace=False)
      )
    )
    (norm): LayerNorm(
      (norm): LayerNorm((768,), eps=1e-06, elementwise_affine=True)
    )
  )
  (custom_src_module): NormalizedEmbedding(
    (emb): Embedding(
      (Embedding): Embedding(5000, 768)
    )
  )
  (output_proj): ModuleList(
    (layers): ModuleList(
      (0): Linear(
        (w): Linear(in_features=768, out_features=768, bias=True)
      )
      (1): LayerNorm(
        (norm): LayerNorm((768,), eps=1e-06, elementwise_affine=True)
      )
      (2): Linear(
        (w): Linear(in_features=768, out_features=5000, bias=True)
      )
    )
  )
) loading from /scratch/flatala/speechbrain/transformer/results_fold_5/conformer_small/7775/save/lm.ckpt, the transferred parameters did not have parameters for the key: encoder.layers.5.self_att.att.in_proj_bias
2025-03-20 20:16:28,990 - speechbrain.utils.checkpoints - WARNING - During parameter transfer to TransformerLM(
  (positional_encoding): PositionalEncoding()
  (encoder): TransformerEncoder(
    (layers): ModuleList(
      (0-11): 12 x TransformerEncoderLayer(
        (self_att): MultiheadAttention(
          (att): MultiheadAttention(
            (out_proj): NonDynamicallyQuantizableLinear(in_features=768, out_features=768, bias=True)
          )
        )
        (pos_ffn): PositionalwiseFeedForward(
          (ffn): Sequential(
            (0): Linear(in_features=768, out_features=3072, bias=True)
            (1): GELU(approximate='none')
            (2): Dropout(p=0.0, inplace=False)
            (3): Linear(in_features=3072, out_features=768, bias=True)
          )
        )
        (norm1): LayerNorm(
          (norm): LayerNorm((768,), eps=1e-06, elementwise_affine=True)
        )
        (norm2): LayerNorm(
          (norm): LayerNorm((768,), eps=1e-06, elementwise_affine=True)
        )
        (dropout1): Dropout(p=0.0, inplace=False)
        (dropout2): Dropout(p=0.0, inplace=False)
      )
    )
    (norm): LayerNorm(
      (norm): LayerNorm((768,), eps=1e-06, elementwise_affine=True)
    )
  )
  (custom_src_module): NormalizedEmbedding(
    (emb): Embedding(
      (Embedding): Embedding(5000, 768)
    )
  )
  (output_proj): ModuleList(
    (layers): ModuleList(
      (0): Linear(
        (w): Linear(in_features=768, out_features=768, bias=True)
      )
      (1): LayerNorm(
        (norm): LayerNorm((768,), eps=1e-06, elementwise_affine=True)
      )
      (2): Linear(
        (w): Linear(in_features=768, out_features=5000, bias=True)
      )
    )
  )
) loading from /scratch/flatala/speechbrain/transformer/results_fold_5/conformer_small/7775/save/lm.ckpt, the transferred parameters did not have parameters for the key: encoder.layers.5.self_att.att.out_proj.weight
2025-03-20 20:16:28,990 - speechbrain.utils.checkpoints - WARNING - During parameter transfer to TransformerLM(
  (positional_encoding): PositionalEncoding()
  (encoder): TransformerEncoder(
    (layers): ModuleList(
      (0-11): 12 x TransformerEncoderLayer(
        (self_att): MultiheadAttention(
          (att): MultiheadAttention(
            (out_proj): NonDynamicallyQuantizableLinear(in_features=768, out_features=768, bias=True)
          )
        )
        (pos_ffn): PositionalwiseFeedForward(
          (ffn): Sequential(
            (0): Linear(in_features=768, out_features=3072, bias=True)
            (1): GELU(approximate='none')
            (2): Dropout(p=0.0, inplace=False)
            (3): Linear(in_features=3072, out_features=768, bias=True)
          )
        )
        (norm1): LayerNorm(
          (norm): LayerNorm((768,), eps=1e-06, elementwise_affine=True)
        )
        (norm2): LayerNorm(
          (norm): LayerNorm((768,), eps=1e-06, elementwise_affine=True)
        )
        (dropout1): Dropout(p=0.0, inplace=False)
        (dropout2): Dropout(p=0.0, inplace=False)
      )
    )
    (norm): LayerNorm(
      (norm): LayerNorm((768,), eps=1e-06, elementwise_affine=True)
    )
  )
  (custom_src_module): NormalizedEmbedding(
    (emb): Embedding(
      (Embedding): Embedding(5000, 768)
    )
  )
  (output_proj): ModuleList(
    (layers): ModuleList(
      (0): Linear(
        (w): Linear(in_features=768, out_features=768, bias=True)
      )
      (1): LayerNorm(
        (norm): LayerNorm((768,), eps=1e-06, elementwise_affine=True)
      )
      (2): Linear(
        (w): Linear(in_features=768, out_features=5000, bias=True)
      )
    )
  )
) loading from /scratch/flatala/speechbrain/transformer/results_fold_5/conformer_small/7775/save/lm.ckpt, the transferred parameters did not have parameters for the key: encoder.layers.5.self_att.att.out_proj.bias
2025-03-20 20:16:28,991 - speechbrain.utils.checkpoints - WARNING - During parameter transfer to TransformerLM(
  (positional_encoding): PositionalEncoding()
  (encoder): TransformerEncoder(
    (layers): ModuleList(
      (0-11): 12 x TransformerEncoderLayer(
        (self_att): MultiheadAttention(
          (att): MultiheadAttention(
            (out_proj): NonDynamicallyQuantizableLinear(in_features=768, out_features=768, bias=True)
          )
        )
        (pos_ffn): PositionalwiseFeedForward(
          (ffn): Sequential(
            (0): Linear(in_features=768, out_features=3072, bias=True)
            (1): GELU(approximate='none')
            (2): Dropout(p=0.0, inplace=False)
            (3): Linear(in_features=3072, out_features=768, bias=True)
          )
        )
        (norm1): LayerNorm(
          (norm): LayerNorm((768,), eps=1e-06, elementwise_affine=True)
        )
        (norm2): LayerNorm(
          (norm): LayerNorm((768,), eps=1e-06, elementwise_affine=True)
        )
        (dropout1): Dropout(p=0.0, inplace=False)
        (dropout2): Dropout(p=0.0, inplace=False)
      )
    )
    (norm): LayerNorm(
      (norm): LayerNorm((768,), eps=1e-06, elementwise_affine=True)
    )
  )
  (custom_src_module): NormalizedEmbedding(
    (emb): Embedding(
      (Embedding): Embedding(5000, 768)
    )
  )
  (output_proj): ModuleList(
    (layers): ModuleList(
      (0): Linear(
        (w): Linear(in_features=768, out_features=768, bias=True)
      )
      (1): LayerNorm(
        (norm): LayerNorm((768,), eps=1e-06, elementwise_affine=True)
      )
      (2): Linear(
        (w): Linear(in_features=768, out_features=5000, bias=True)
      )
    )
  )
) loading from /scratch/flatala/speechbrain/transformer/results_fold_5/conformer_small/7775/save/lm.ckpt, the transferred parameters did not have parameters for the key: encoder.layers.5.pos_ffn.ffn.0.weight
2025-03-20 20:16:28,991 - speechbrain.utils.checkpoints - WARNING - During parameter transfer to TransformerLM(
  (positional_encoding): PositionalEncoding()
  (encoder): TransformerEncoder(
    (layers): ModuleList(
      (0-11): 12 x TransformerEncoderLayer(
        (self_att): MultiheadAttention(
          (att): MultiheadAttention(
            (out_proj): NonDynamicallyQuantizableLinear(in_features=768, out_features=768, bias=True)
          )
        )
        (pos_ffn): PositionalwiseFeedForward(
          (ffn): Sequential(
            (0): Linear(in_features=768, out_features=3072, bias=True)
            (1): GELU(approximate='none')
            (2): Dropout(p=0.0, inplace=False)
            (3): Linear(in_features=3072, out_features=768, bias=True)
          )
        )
        (norm1): LayerNorm(
          (norm): LayerNorm((768,), eps=1e-06, elementwise_affine=True)
        )
        (norm2): LayerNorm(
          (norm): LayerNorm((768,), eps=1e-06, elementwise_affine=True)
        )
        (dropout1): Dropout(p=0.0, inplace=False)
        (dropout2): Dropout(p=0.0, inplace=False)
      )
    )
    (norm): LayerNorm(
      (norm): LayerNorm((768,), eps=1e-06, elementwise_affine=True)
    )
  )
  (custom_src_module): NormalizedEmbedding(
    (emb): Embedding(
      (Embedding): Embedding(5000, 768)
    )
  )
  (output_proj): ModuleList(
    (layers): ModuleList(
      (0): Linear(
        (w): Linear(in_features=768, out_features=768, bias=True)
      )
      (1): LayerNorm(
        (norm): LayerNorm((768,), eps=1e-06, elementwise_affine=True)
      )
      (2): Linear(
        (w): Linear(in_features=768, out_features=5000, bias=True)
      )
    )
  )
) loading from /scratch/flatala/speechbrain/transformer/results_fold_5/conformer_small/7775/save/lm.ckpt, the transferred parameters did not have parameters for the key: encoder.layers.5.pos_ffn.ffn.0.bias
2025-03-20 20:16:28,992 - speechbrain.utils.checkpoints - WARNING - During parameter transfer to TransformerLM(
  (positional_encoding): PositionalEncoding()
  (encoder): TransformerEncoder(
    (layers): ModuleList(
      (0-11): 12 x TransformerEncoderLayer(
        (self_att): MultiheadAttention(
          (att): MultiheadAttention(
            (out_proj): NonDynamicallyQuantizableLinear(in_features=768, out_features=768, bias=True)
          )
        )
        (pos_ffn): PositionalwiseFeedForward(
          (ffn): Sequential(
            (0): Linear(in_features=768, out_features=3072, bias=True)
            (1): GELU(approximate='none')
            (2): Dropout(p=0.0, inplace=False)
            (3): Linear(in_features=3072, out_features=768, bias=True)
          )
        )
        (norm1): LayerNorm(
          (norm): LayerNorm((768,), eps=1e-06, elementwise_affine=True)
        )
        (norm2): LayerNorm(
          (norm): LayerNorm((768,), eps=1e-06, elementwise_affine=True)
        )
        (dropout1): Dropout(p=0.0, inplace=False)
        (dropout2): Dropout(p=0.0, inplace=False)
      )
    )
    (norm): LayerNorm(
      (norm): LayerNorm((768,), eps=1e-06, elementwise_affine=True)
    )
  )
  (custom_src_module): NormalizedEmbedding(
    (emb): Embedding(
      (Embedding): Embedding(5000, 768)
    )
  )
  (output_proj): ModuleList(
    (layers): ModuleList(
      (0): Linear(
        (w): Linear(in_features=768, out_features=768, bias=True)
      )
      (1): LayerNorm(
        (norm): LayerNorm((768,), eps=1e-06, elementwise_affine=True)
      )
      (2): Linear(
        (w): Linear(in_features=768, out_features=5000, bias=True)
      )
    )
  )
) loading from /scratch/flatala/speechbrain/transformer/results_fold_5/conformer_small/7775/save/lm.ckpt, the transferred parameters did not have parameters for the key: encoder.layers.5.pos_ffn.ffn.3.weight
2025-03-20 20:16:28,992 - speechbrain.utils.checkpoints - WARNING - During parameter transfer to TransformerLM(
  (positional_encoding): PositionalEncoding()
  (encoder): TransformerEncoder(
    (layers): ModuleList(
      (0-11): 12 x TransformerEncoderLayer(
        (self_att): MultiheadAttention(
          (att): MultiheadAttention(
            (out_proj): NonDynamicallyQuantizableLinear(in_features=768, out_features=768, bias=True)
          )
        )
        (pos_ffn): PositionalwiseFeedForward(
          (ffn): Sequential(
            (0): Linear(in_features=768, out_features=3072, bias=True)
            (1): GELU(approximate='none')
            (2): Dropout(p=0.0, inplace=False)
            (3): Linear(in_features=3072, out_features=768, bias=True)
          )
        )
        (norm1): LayerNorm(
          (norm): LayerNorm((768,), eps=1e-06, elementwise_affine=True)
        )
        (norm2): LayerNorm(
          (norm): LayerNorm((768,), eps=1e-06, elementwise_affine=True)
        )
        (dropout1): Dropout(p=0.0, inplace=False)
        (dropout2): Dropout(p=0.0, inplace=False)
      )
    )
    (norm): LayerNorm(
      (norm): LayerNorm((768,), eps=1e-06, elementwise_affine=True)
    )
  )
  (custom_src_module): NormalizedEmbedding(
    (emb): Embedding(
      (Embedding): Embedding(5000, 768)
    )
  )
  (output_proj): ModuleList(
    (layers): ModuleList(
      (0): Linear(
        (w): Linear(in_features=768, out_features=768, bias=True)
      )
      (1): LayerNorm(
        (norm): LayerNorm((768,), eps=1e-06, elementwise_affine=True)
      )
      (2): Linear(
        (w): Linear(in_features=768, out_features=5000, bias=True)
      )
    )
  )
) loading from /scratch/flatala/speechbrain/transformer/results_fold_5/conformer_small/7775/save/lm.ckpt, the transferred parameters did not have parameters for the key: encoder.layers.5.pos_ffn.ffn.3.bias
2025-03-20 20:16:28,993 - speechbrain.utils.checkpoints - WARNING - During parameter transfer to TransformerLM(
  (positional_encoding): PositionalEncoding()
  (encoder): TransformerEncoder(
    (layers): ModuleList(
      (0-11): 12 x TransformerEncoderLayer(
        (self_att): MultiheadAttention(
          (att): MultiheadAttention(
            (out_proj): NonDynamicallyQuantizableLinear(in_features=768, out_features=768, bias=True)
          )
        )
        (pos_ffn): PositionalwiseFeedForward(
          (ffn): Sequential(
            (0): Linear(in_features=768, out_features=3072, bias=True)
            (1): GELU(approximate='none')
            (2): Dropout(p=0.0, inplace=False)
            (3): Linear(in_features=3072, out_features=768, bias=True)
          )
        )
        (norm1): LayerNorm(
          (norm): LayerNorm((768,), eps=1e-06, elementwise_affine=True)
        )
        (norm2): LayerNorm(
          (norm): LayerNorm((768,), eps=1e-06, elementwise_affine=True)
        )
        (dropout1): Dropout(p=0.0, inplace=False)
        (dropout2): Dropout(p=0.0, inplace=False)
      )
    )
    (norm): LayerNorm(
      (norm): LayerNorm((768,), eps=1e-06, elementwise_affine=True)
    )
  )
  (custom_src_module): NormalizedEmbedding(
    (emb): Embedding(
      (Embedding): Embedding(5000, 768)
    )
  )
  (output_proj): ModuleList(
    (layers): ModuleList(
      (0): Linear(
        (w): Linear(in_features=768, out_features=768, bias=True)
      )
      (1): LayerNorm(
        (norm): LayerNorm((768,), eps=1e-06, elementwise_affine=True)
      )
      (2): Linear(
        (w): Linear(in_features=768, out_features=5000, bias=True)
      )
    )
  )
) loading from /scratch/flatala/speechbrain/transformer/results_fold_5/conformer_small/7775/save/lm.ckpt, the transferred parameters did not have parameters for the key: encoder.layers.5.norm1.norm.weight
2025-03-20 20:16:28,994 - speechbrain.utils.checkpoints - WARNING - During parameter transfer to TransformerLM(
  (positional_encoding): PositionalEncoding()
  (encoder): TransformerEncoder(
    (layers): ModuleList(
      (0-11): 12 x TransformerEncoderLayer(
        (self_att): MultiheadAttention(
          (att): MultiheadAttention(
            (out_proj): NonDynamicallyQuantizableLinear(in_features=768, out_features=768, bias=True)
          )
        )
        (pos_ffn): PositionalwiseFeedForward(
          (ffn): Sequential(
            (0): Linear(in_features=768, out_features=3072, bias=True)
            (1): GELU(approximate='none')
            (2): Dropout(p=0.0, inplace=False)
            (3): Linear(in_features=3072, out_features=768, bias=True)
          )
        )
        (norm1): LayerNorm(
          (norm): LayerNorm((768,), eps=1e-06, elementwise_affine=True)
        )
        (norm2): LayerNorm(
          (norm): LayerNorm((768,), eps=1e-06, elementwise_affine=True)
        )
        (dropout1): Dropout(p=0.0, inplace=False)
        (dropout2): Dropout(p=0.0, inplace=False)
      )
    )
    (norm): LayerNorm(
      (norm): LayerNorm((768,), eps=1e-06, elementwise_affine=True)
    )
  )
  (custom_src_module): NormalizedEmbedding(
    (emb): Embedding(
      (Embedding): Embedding(5000, 768)
    )
  )
  (output_proj): ModuleList(
    (layers): ModuleList(
      (0): Linear(
        (w): Linear(in_features=768, out_features=768, bias=True)
      )
      (1): LayerNorm(
        (norm): LayerNorm((768,), eps=1e-06, elementwise_affine=True)
      )
      (2): Linear(
        (w): Linear(in_features=768, out_features=5000, bias=True)
      )
    )
  )
) loading from /scratch/flatala/speechbrain/transformer/results_fold_5/conformer_small/7775/save/lm.ckpt, the transferred parameters did not have parameters for the key: encoder.layers.5.norm1.norm.bias
2025-03-20 20:16:28,994 - speechbrain.utils.checkpoints - WARNING - During parameter transfer to TransformerLM(
  (positional_encoding): PositionalEncoding()
  (encoder): TransformerEncoder(
    (layers): ModuleList(
      (0-11): 12 x TransformerEncoderLayer(
        (self_att): MultiheadAttention(
          (att): MultiheadAttention(
            (out_proj): NonDynamicallyQuantizableLinear(in_features=768, out_features=768, bias=True)
          )
        )
        (pos_ffn): PositionalwiseFeedForward(
          (ffn): Sequential(
            (0): Linear(in_features=768, out_features=3072, bias=True)
            (1): GELU(approximate='none')
            (2): Dropout(p=0.0, inplace=False)
            (3): Linear(in_features=3072, out_features=768, bias=True)
          )
        )
        (norm1): LayerNorm(
          (norm): LayerNorm((768,), eps=1e-06, elementwise_affine=True)
        )
        (norm2): LayerNorm(
          (norm): LayerNorm((768,), eps=1e-06, elementwise_affine=True)
        )
        (dropout1): Dropout(p=0.0, inplace=False)
        (dropout2): Dropout(p=0.0, inplace=False)
      )
    )
    (norm): LayerNorm(
      (norm): LayerNorm((768,), eps=1e-06, elementwise_affine=True)
    )
  )
  (custom_src_module): NormalizedEmbedding(
    (emb): Embedding(
      (Embedding): Embedding(5000, 768)
    )
  )
  (output_proj): ModuleList(
    (layers): ModuleList(
      (0): Linear(
        (w): Linear(in_features=768, out_features=768, bias=True)
      )
      (1): LayerNorm(
        (norm): LayerNorm((768,), eps=1e-06, elementwise_affine=True)
      )
      (2): Linear(
        (w): Linear(in_features=768, out_features=5000, bias=True)
      )
    )
  )
) loading from /scratch/flatala/speechbrain/transformer/results_fold_5/conformer_small/7775/save/lm.ckpt, the transferred parameters did not have parameters for the key: encoder.layers.5.norm2.norm.weight
2025-03-20 20:16:28,995 - speechbrain.utils.checkpoints - WARNING - During parameter transfer to TransformerLM(
  (positional_encoding): PositionalEncoding()
  (encoder): TransformerEncoder(
    (layers): ModuleList(
      (0-11): 12 x TransformerEncoderLayer(
        (self_att): MultiheadAttention(
          (att): MultiheadAttention(
            (out_proj): NonDynamicallyQuantizableLinear(in_features=768, out_features=768, bias=True)
          )
        )
        (pos_ffn): PositionalwiseFeedForward(
          (ffn): Sequential(
            (0): Linear(in_features=768, out_features=3072, bias=True)
            (1): GELU(approximate='none')
            (2): Dropout(p=0.0, inplace=False)
            (3): Linear(in_features=3072, out_features=768, bias=True)
          )
        )
        (norm1): LayerNorm(
          (norm): LayerNorm((768,), eps=1e-06, elementwise_affine=True)
        )
        (norm2): LayerNorm(
          (norm): LayerNorm((768,), eps=1e-06, elementwise_affine=True)
        )
        (dropout1): Dropout(p=0.0, inplace=False)
        (dropout2): Dropout(p=0.0, inplace=False)
      )
    )
    (norm): LayerNorm(
      (norm): LayerNorm((768,), eps=1e-06, elementwise_affine=True)
    )
  )
  (custom_src_module): NormalizedEmbedding(
    (emb): Embedding(
      (Embedding): Embedding(5000, 768)
    )
  )
  (output_proj): ModuleList(
    (layers): ModuleList(
      (0): Linear(
        (w): Linear(in_features=768, out_features=768, bias=True)
      )
      (1): LayerNorm(
        (norm): LayerNorm((768,), eps=1e-06, elementwise_affine=True)
      )
      (2): Linear(
        (w): Linear(in_features=768, out_features=5000, bias=True)
      )
    )
  )
) loading from /scratch/flatala/speechbrain/transformer/results_fold_5/conformer_small/7775/save/lm.ckpt, the transferred parameters did not have parameters for the key: encoder.layers.5.norm2.norm.bias
2025-03-20 20:16:28,995 - speechbrain.utils.checkpoints - WARNING - During parameter transfer to TransformerLM(
  (positional_encoding): PositionalEncoding()
  (encoder): TransformerEncoder(
    (layers): ModuleList(
      (0-11): 12 x TransformerEncoderLayer(
        (self_att): MultiheadAttention(
          (att): MultiheadAttention(
            (out_proj): NonDynamicallyQuantizableLinear(in_features=768, out_features=768, bias=True)
          )
        )
        (pos_ffn): PositionalwiseFeedForward(
          (ffn): Sequential(
            (0): Linear(in_features=768, out_features=3072, bias=True)
            (1): GELU(approximate='none')
            (2): Dropout(p=0.0, inplace=False)
            (3): Linear(in_features=3072, out_features=768, bias=True)
          )
        )
        (norm1): LayerNorm(
          (norm): LayerNorm((768,), eps=1e-06, elementwise_affine=True)
        )
        (norm2): LayerNorm(
          (norm): LayerNorm((768,), eps=1e-06, elementwise_affine=True)
        )
        (dropout1): Dropout(p=0.0, inplace=False)
        (dropout2): Dropout(p=0.0, inplace=False)
      )
    )
    (norm): LayerNorm(
      (norm): LayerNorm((768,), eps=1e-06, elementwise_affine=True)
    )
  )
  (custom_src_module): NormalizedEmbedding(
    (emb): Embedding(
      (Embedding): Embedding(5000, 768)
    )
  )
  (output_proj): ModuleList(
    (layers): ModuleList(
      (0): Linear(
        (w): Linear(in_features=768, out_features=768, bias=True)
      )
      (1): LayerNorm(
        (norm): LayerNorm((768,), eps=1e-06, elementwise_affine=True)
      )
      (2): Linear(
        (w): Linear(in_features=768, out_features=5000, bias=True)
      )
    )
  )
) loading from /scratch/flatala/speechbrain/transformer/results_fold_5/conformer_small/7775/save/lm.ckpt, the transferred parameters did not have parameters for the key: encoder.layers.6.self_att.att.in_proj_weight
2025-03-20 20:16:28,996 - speechbrain.utils.checkpoints - WARNING - During parameter transfer to TransformerLM(
  (positional_encoding): PositionalEncoding()
  (encoder): TransformerEncoder(
    (layers): ModuleList(
      (0-11): 12 x TransformerEncoderLayer(
        (self_att): MultiheadAttention(
          (att): MultiheadAttention(
            (out_proj): NonDynamicallyQuantizableLinear(in_features=768, out_features=768, bias=True)
          )
        )
        (pos_ffn): PositionalwiseFeedForward(
          (ffn): Sequential(
            (0): Linear(in_features=768, out_features=3072, bias=True)
            (1): GELU(approximate='none')
            (2): Dropout(p=0.0, inplace=False)
            (3): Linear(in_features=3072, out_features=768, bias=True)
          )
        )
        (norm1): LayerNorm(
          (norm): LayerNorm((768,), eps=1e-06, elementwise_affine=True)
        )
        (norm2): LayerNorm(
          (norm): LayerNorm((768,), eps=1e-06, elementwise_affine=True)
        )
        (dropout1): Dropout(p=0.0, inplace=False)
        (dropout2): Dropout(p=0.0, inplace=False)
      )
    )
    (norm): LayerNorm(
      (norm): LayerNorm((768,), eps=1e-06, elementwise_affine=True)
    )
  )
  (custom_src_module): NormalizedEmbedding(
    (emb): Embedding(
      (Embedding): Embedding(5000, 768)
    )
  )
  (output_proj): ModuleList(
    (layers): ModuleList(
      (0): Linear(
        (w): Linear(in_features=768, out_features=768, bias=True)
      )
      (1): LayerNorm(
        (norm): LayerNorm((768,), eps=1e-06, elementwise_affine=True)
      )
      (2): Linear(
        (w): Linear(in_features=768, out_features=5000, bias=True)
      )
    )
  )
) loading from /scratch/flatala/speechbrain/transformer/results_fold_5/conformer_small/7775/save/lm.ckpt, the transferred parameters did not have parameters for the key: encoder.layers.6.self_att.att.in_proj_bias
2025-03-20 20:16:28,996 - speechbrain.utils.checkpoints - WARNING - During parameter transfer to TransformerLM(
  (positional_encoding): PositionalEncoding()
  (encoder): TransformerEncoder(
    (layers): ModuleList(
      (0-11): 12 x TransformerEncoderLayer(
        (self_att): MultiheadAttention(
          (att): MultiheadAttention(
            (out_proj): NonDynamicallyQuantizableLinear(in_features=768, out_features=768, bias=True)
          )
        )
        (pos_ffn): PositionalwiseFeedForward(
          (ffn): Sequential(
            (0): Linear(in_features=768, out_features=3072, bias=True)
            (1): GELU(approximate='none')
            (2): Dropout(p=0.0, inplace=False)
            (3): Linear(in_features=3072, out_features=768, bias=True)
          )
        )
        (norm1): LayerNorm(
          (norm): LayerNorm((768,), eps=1e-06, elementwise_affine=True)
        )
        (norm2): LayerNorm(
          (norm): LayerNorm((768,), eps=1e-06, elementwise_affine=True)
        )
        (dropout1): Dropout(p=0.0, inplace=False)
        (dropout2): Dropout(p=0.0, inplace=False)
      )
    )
    (norm): LayerNorm(
      (norm): LayerNorm((768,), eps=1e-06, elementwise_affine=True)
    )
  )
  (custom_src_module): NormalizedEmbedding(
    (emb): Embedding(
      (Embedding): Embedding(5000, 768)
    )
  )
  (output_proj): ModuleList(
    (layers): ModuleList(
      (0): Linear(
        (w): Linear(in_features=768, out_features=768, bias=True)
      )
      (1): LayerNorm(
        (norm): LayerNorm((768,), eps=1e-06, elementwise_affine=True)
      )
      (2): Linear(
        (w): Linear(in_features=768, out_features=5000, bias=True)
      )
    )
  )
) loading from /scratch/flatala/speechbrain/transformer/results_fold_5/conformer_small/7775/save/lm.ckpt, the transferred parameters did not have parameters for the key: encoder.layers.6.self_att.att.out_proj.weight
2025-03-20 20:16:28,997 - speechbrain.utils.checkpoints - WARNING - During parameter transfer to TransformerLM(
  (positional_encoding): PositionalEncoding()
  (encoder): TransformerEncoder(
    (layers): ModuleList(
      (0-11): 12 x TransformerEncoderLayer(
        (self_att): MultiheadAttention(
          (att): MultiheadAttention(
            (out_proj): NonDynamicallyQuantizableLinear(in_features=768, out_features=768, bias=True)
          )
        )
        (pos_ffn): PositionalwiseFeedForward(
          (ffn): Sequential(
            (0): Linear(in_features=768, out_features=3072, bias=True)
            (1): GELU(approximate='none')
            (2): Dropout(p=0.0, inplace=False)
            (3): Linear(in_features=3072, out_features=768, bias=True)
          )
        )
        (norm1): LayerNorm(
          (norm): LayerNorm((768,), eps=1e-06, elementwise_affine=True)
        )
        (norm2): LayerNorm(
          (norm): LayerNorm((768,), eps=1e-06, elementwise_affine=True)
        )
        (dropout1): Dropout(p=0.0, inplace=False)
        (dropout2): Dropout(p=0.0, inplace=False)
      )
    )
    (norm): LayerNorm(
      (norm): LayerNorm((768,), eps=1e-06, elementwise_affine=True)
    )
  )
  (custom_src_module): NormalizedEmbedding(
    (emb): Embedding(
      (Embedding): Embedding(5000, 768)
    )
  )
  (output_proj): ModuleList(
    (layers): ModuleList(
      (0): Linear(
        (w): Linear(in_features=768, out_features=768, bias=True)
      )
      (1): LayerNorm(
        (norm): LayerNorm((768,), eps=1e-06, elementwise_affine=True)
      )
      (2): Linear(
        (w): Linear(in_features=768, out_features=5000, bias=True)
      )
    )
  )
) loading from /scratch/flatala/speechbrain/transformer/results_fold_5/conformer_small/7775/save/lm.ckpt, the transferred parameters did not have parameters for the key: encoder.layers.6.self_att.att.out_proj.bias
2025-03-20 20:16:28,997 - speechbrain.utils.checkpoints - WARNING - During parameter transfer to TransformerLM(
  (positional_encoding): PositionalEncoding()
  (encoder): TransformerEncoder(
    (layers): ModuleList(
      (0-11): 12 x TransformerEncoderLayer(
        (self_att): MultiheadAttention(
          (att): MultiheadAttention(
            (out_proj): NonDynamicallyQuantizableLinear(in_features=768, out_features=768, bias=True)
          )
        )
        (pos_ffn): PositionalwiseFeedForward(
          (ffn): Sequential(
            (0): Linear(in_features=768, out_features=3072, bias=True)
            (1): GELU(approximate='none')
            (2): Dropout(p=0.0, inplace=False)
            (3): Linear(in_features=3072, out_features=768, bias=True)
          )
        )
        (norm1): LayerNorm(
          (norm): LayerNorm((768,), eps=1e-06, elementwise_affine=True)
        )
        (norm2): LayerNorm(
          (norm): LayerNorm((768,), eps=1e-06, elementwise_affine=True)
        )
        (dropout1): Dropout(p=0.0, inplace=False)
        (dropout2): Dropout(p=0.0, inplace=False)
      )
    )
    (norm): LayerNorm(
      (norm): LayerNorm((768,), eps=1e-06, elementwise_affine=True)
    )
  )
  (custom_src_module): NormalizedEmbedding(
    (emb): Embedding(
      (Embedding): Embedding(5000, 768)
    )
  )
  (output_proj): ModuleList(
    (layers): ModuleList(
      (0): Linear(
        (w): Linear(in_features=768, out_features=768, bias=True)
      )
      (1): LayerNorm(
        (norm): LayerNorm((768,), eps=1e-06, elementwise_affine=True)
      )
      (2): Linear(
        (w): Linear(in_features=768, out_features=5000, bias=True)
      )
    )
  )
) loading from /scratch/flatala/speechbrain/transformer/results_fold_5/conformer_small/7775/save/lm.ckpt, the transferred parameters did not have parameters for the key: encoder.layers.6.pos_ffn.ffn.0.weight
2025-03-20 20:16:28,998 - speechbrain.utils.checkpoints - WARNING - During parameter transfer to TransformerLM(
  (positional_encoding): PositionalEncoding()
  (encoder): TransformerEncoder(
    (layers): ModuleList(
      (0-11): 12 x TransformerEncoderLayer(
        (self_att): MultiheadAttention(
          (att): MultiheadAttention(
            (out_proj): NonDynamicallyQuantizableLinear(in_features=768, out_features=768, bias=True)
          )
        )
        (pos_ffn): PositionalwiseFeedForward(
          (ffn): Sequential(
            (0): Linear(in_features=768, out_features=3072, bias=True)
            (1): GELU(approximate='none')
            (2): Dropout(p=0.0, inplace=False)
            (3): Linear(in_features=3072, out_features=768, bias=True)
          )
        )
        (norm1): LayerNorm(
          (norm): LayerNorm((768,), eps=1e-06, elementwise_affine=True)
        )
        (norm2): LayerNorm(
          (norm): LayerNorm((768,), eps=1e-06, elementwise_affine=True)
        )
        (dropout1): Dropout(p=0.0, inplace=False)
        (dropout2): Dropout(p=0.0, inplace=False)
      )
    )
    (norm): LayerNorm(
      (norm): LayerNorm((768,), eps=1e-06, elementwise_affine=True)
    )
  )
  (custom_src_module): NormalizedEmbedding(
    (emb): Embedding(
      (Embedding): Embedding(5000, 768)
    )
  )
  (output_proj): ModuleList(
    (layers): ModuleList(
      (0): Linear(
…
      )
    )
    (norm): LayerNorm(
      (norm): LayerNorm((768,), eps=1e-06, elementwise_affine=True)
    )
  )
  (custom_src_module): NormalizedEmbedding(
    (emb): Embedding(
      (Embedding): Embedding(5000, 768)
    )
  )
  (output_proj): ModuleList(
    (layers): ModuleList(
      (0): Linear(
        (w): Linear(in_features=768, out_features=768, bias=True)
      )
      (1): LayerNorm(
        (norm): LayerNorm((768,), eps=1e-06, elementwise_affine=True)
      )
      (2): Linear(
        (w): Linear(in_features=768, out_features=5000, bias=True)
      )
    )
  )
) loading from /scratch/flatala/speechbrain/transformer/results_fold_5/conformer_small/7775/save/lm.ckpt, the transferred parameters did not have parameters for the key: encoder.layers.11.norm1.norm.bias
2025-03-20 20:16:29,031 - speechbrain.utils.checkpoints - WARNING - During parameter transfer to TransformerLM(
  (positional_encoding): PositionalEncoding()
  (encoder): TransformerEncoder(
    (layers): ModuleList(
      (0-11): 12 x TransformerEncoderLayer(
        (self_att): MultiheadAttention(
          (att): MultiheadAttention(
            (out_proj): NonDynamicallyQuantizableLinear(in_features=768, out_features=768, bias=True)
          )
        )
        (pos_ffn): PositionalwiseFeedForward(
          (ffn): Sequential(
            (0): Linear(in_features=768, out_features=3072, bias=True)
            (1): GELU(approximate='none')
            (2): Dropout(p=0.0, inplace=False)
            (3): Linear(in_features=3072, out_features=768, bias=True)
          )
        )
        (norm1): LayerNorm(
          (norm): LayerNorm((768,), eps=1e-06, elementwise_affine=True)
        )
        (norm2): LayerNorm(
          (norm): LayerNorm((768,), eps=1e-06, elementwise_affine=True)
        )
        (dropout1): Dropout(p=0.0, inplace=False)
        (dropout2): Dropout(p=0.0, inplace=False)
      )
    )
    (norm): LayerNorm(
      (norm): LayerNorm((768,), eps=1e-06, elementwise_affine=True)
    )
  )
  (custom_src_module): NormalizedEmbedding(
    (emb): Embedding(
      (Embedding): Embedding(5000, 768)
    )
  )
  (output_proj): ModuleList(
    (layers): ModuleList(
      (0): Linear(
        (w): Linear(in_features=768, out_features=768, bias=True)
      )
      (1): LayerNorm(
        (norm): LayerNorm((768,), eps=1e-06, elementwise_affine=True)
      )
      (2): Linear(
        (w): Linear(in_features=768, out_features=5000, bias=True)
      )
    )
  )
) loading from /scratch/flatala/speechbrain/transformer/results_fold_5/conformer_small/7775/save/lm.ckpt, the transferred parameters did not have parameters for the key: encoder.layers.11.norm2.norm.weight
2025-03-20 20:16:29,031 - speechbrain.utils.checkpoints - WARNING - During parameter transfer to TransformerLM(
  (positional_encoding): PositionalEncoding()
  (encoder): TransformerEncoder(
    (layers): ModuleList(
      (0-11): 12 x TransformerEncoderLayer(
        (self_att): MultiheadAttention(
          (att): MultiheadAttention(
            (out_proj): NonDynamicallyQuantizableLinear(in_features=768, out_features=768, bias=True)
          )
        )
        (pos_ffn): PositionalwiseFeedForward(
          (ffn): Sequential(
            (0): Linear(in_features=768, out_features=3072, bias=True)
            (1): GELU(approximate='none')
            (2): Dropout(p=0.0, inplace=False)
            (3): Linear(in_features=3072, out_features=768, bias=True)
          )
        )
        (norm1): LayerNorm(
          (norm): LayerNorm((768,), eps=1e-06, elementwise_affine=True)
        )
        (norm2): LayerNorm(
          (norm): LayerNorm((768,), eps=1e-06, elementwise_affine=True)
        )
        (dropout1): Dropout(p=0.0, inplace=False)
        (dropout2): Dropout(p=0.0, inplace=False)
      )
    )
    (norm): LayerNorm(
      (norm): LayerNorm((768,), eps=1e-06, elementwise_affine=True)
    )
  )
  (custom_src_module): NormalizedEmbedding(
    (emb): Embedding(
      (Embedding): Embedding(5000, 768)
    )
  )
  (output_proj): ModuleList(
    (layers): ModuleList(
      (0): Linear(
        (w): Linear(in_features=768, out_features=768, bias=True)
      )
      (1): LayerNorm(
        (norm): LayerNorm((768,), eps=1e-06, elementwise_affine=True)
      )
      (2): Linear(
        (w): Linear(in_features=768, out_features=5000, bias=True)
      )
    )
  )
) loading from /scratch/flatala/speechbrain/transformer/results_fold_5/conformer_small/7775/save/lm.ckpt, the transferred parameters did not have parameters for the key: encoder.layers.11.norm2.norm.bias
2025-03-20 20:16:29,032 - speechbrain.utils.checkpoints - WARNING - During parameter transfer to TransformerLM(
  (positional_encoding): PositionalEncoding()
  (encoder): TransformerEncoder(
    (layers): ModuleList(
      (0-11): 12 x TransformerEncoderLayer(
        (self_att): MultiheadAttention(
          (att): MultiheadAttention(
            (out_proj): NonDynamicallyQuantizableLinear(in_features=768, out_features=768, bias=True)
          )
        )
        (pos_ffn): PositionalwiseFeedForward(
          (ffn): Sequential(
            (0): Linear(in_features=768, out_features=3072, bias=True)
            (1): GELU(approximate='none')
            (2): Dropout(p=0.0, inplace=False)
            (3): Linear(in_features=3072, out_features=768, bias=True)
          )
        )
        (norm1): LayerNorm(
          (norm): LayerNorm((768,), eps=1e-06, elementwise_affine=True)
        )
        (norm2): LayerNorm(
          (norm): LayerNorm((768,), eps=1e-06, elementwise_affine=True)
        )
        (dropout1): Dropout(p=0.0, inplace=False)
        (dropout2): Dropout(p=0.0, inplace=False)
      )
    )
    (norm): LayerNorm(
      (norm): LayerNorm((768,), eps=1e-06, elementwise_affine=True)
    )
  )
  (custom_src_module): NormalizedEmbedding(
    (emb): Embedding(
      (Embedding): Embedding(5000, 768)
    )
  )
  (output_proj): ModuleList(
    (layers): ModuleList(
      (0): Linear(
        (w): Linear(in_features=768, out_features=768, bias=True)
      )
      (1): LayerNorm(
        (norm): LayerNorm((768,), eps=1e-06, elementwise_affine=True)
      )
      (2): Linear(
        (w): Linear(in_features=768, out_features=5000, bias=True)
      )
    )
  )
) loading from /scratch/flatala/speechbrain/transformer/results_fold_5/conformer_small/7775/save/lm.ckpt, the transferred parameters did not have parameters for the key: encoder.norm.norm.weight
2025-03-20 20:16:29,032 - speechbrain.utils.checkpoints - WARNING - During parameter transfer to TransformerLM(
  (positional_encoding): PositionalEncoding()
  (encoder): TransformerEncoder(
    (layers): ModuleList(
      (0-11): 12 x TransformerEncoderLayer(
        (self_att): MultiheadAttention(
          (att): MultiheadAttention(
            (out_proj): NonDynamicallyQuantizableLinear(in_features=768, out_features=768, bias=True)
          )
        )
        (pos_ffn): PositionalwiseFeedForward(
          (ffn): Sequential(
            (0): Linear(in_features=768, out_features=3072, bias=True)
            (1): GELU(approximate='none')
            (2): Dropout(p=0.0, inplace=False)
            (3): Linear(in_features=3072, out_features=768, bias=True)
          )
        )
        (norm1): LayerNorm(
          (norm): LayerNorm((768,), eps=1e-06, elementwise_affine=True)
        )
        (norm2): LayerNorm(
          (norm): LayerNorm((768,), eps=1e-06, elementwise_affine=True)
        )
        (dropout1): Dropout(p=0.0, inplace=False)
        (dropout2): Dropout(p=0.0, inplace=False)
      )
    )
    (norm): LayerNorm(
      (norm): LayerNorm((768,), eps=1e-06, elementwise_affine=True)
    )
  )
  (custom_src_module): NormalizedEmbedding(
    (emb): Embedding(
      (Embedding): Embedding(5000, 768)
    )
  )
  (output_proj): ModuleList(
    (layers): ModuleList(
      (0): Linear(
        (w): Linear(in_features=768, out_features=768, bias=True)
      )
      (1): LayerNorm(
        (norm): LayerNorm((768,), eps=1e-06, elementwise_affine=True)
      )
      (2): Linear(
        (w): Linear(in_features=768, out_features=5000, bias=True)
      )
    )
  )
) loading from /scratch/flatala/speechbrain/transformer/results_fold_5/conformer_small/7775/save/lm.ckpt, the transferred parameters did not have parameters for the key: encoder.norm.norm.bias
2025-03-20 20:16:29,033 - speechbrain.utils.checkpoints - WARNING - During parameter transfer to TransformerLM(
  (positional_encoding): PositionalEncoding()
  (encoder): TransformerEncoder(
    (layers): ModuleList(
      (0-11): 12 x TransformerEncoderLayer(
        (self_att): MultiheadAttention(
          (att): MultiheadAttention(
            (out_proj): NonDynamicallyQuantizableLinear(in_features=768, out_features=768, bias=True)
          )
        )
        (pos_ffn): PositionalwiseFeedForward(
          (ffn): Sequential(
            (0): Linear(in_features=768, out_features=3072, bias=True)
            (1): GELU(approximate='none')
            (2): Dropout(p=0.0, inplace=False)
            (3): Linear(in_features=3072, out_features=768, bias=True)
          )
        )
        (norm1): LayerNorm(
          (norm): LayerNorm((768,), eps=1e-06, elementwise_affine=True)
        )
        (norm2): LayerNorm(
          (norm): LayerNorm((768,), eps=1e-06, elementwise_affine=True)
        )
        (dropout1): Dropout(p=0.0, inplace=False)
        (dropout2): Dropout(p=0.0, inplace=False)
      )
    )
    (norm): LayerNorm(
      (norm): LayerNorm((768,), eps=1e-06, elementwise_affine=True)
    )
  )
  (custom_src_module): NormalizedEmbedding(
    (emb): Embedding(
      (Embedding): Embedding(5000, 768)
    )
  )
  (output_proj): ModuleList(
    (layers): ModuleList(
      (0): Linear(
        (w): Linear(in_features=768, out_features=768, bias=True)
      )
      (1): LayerNorm(
        (norm): LayerNorm((768,), eps=1e-06, elementwise_affine=True)
      )
      (2): Linear(
        (w): Linear(in_features=768, out_features=5000, bias=True)
      )
    )
  )
) loading from /scratch/flatala/speechbrain/transformer/results_fold_5/conformer_small/7775/save/lm.ckpt, the transferred parameters did not have parameters for the key: custom_src_module.emb.Embedding.weight
2025-03-20 20:16:29,033 - speechbrain.utils.checkpoints - WARNING - During parameter transfer to TransformerLM(
  (positional_encoding): PositionalEncoding()
  (encoder): TransformerEncoder(
    (layers): ModuleList(
      (0-11): 12 x TransformerEncoderLayer(
        (self_att): MultiheadAttention(
          (att): MultiheadAttention(
            (out_proj): NonDynamicallyQuantizableLinear(in_features=768, out_features=768, bias=True)
          )
        )
        (pos_ffn): PositionalwiseFeedForward(
          (ffn): Sequential(
            (0): Linear(in_features=768, out_features=3072, bias=True)
            (1): GELU(approximate='none')
            (2): Dropout(p=0.0, inplace=False)
            (3): Linear(in_features=3072, out_features=768, bias=True)
          )
        )
        (norm1): LayerNorm(
          (norm): LayerNorm((768,), eps=1e-06, elementwise_affine=True)
        )
        (norm2): LayerNorm(
          (norm): LayerNorm((768,), eps=1e-06, elementwise_affine=True)
        )
        (dropout1): Dropout(p=0.0, inplace=False)
        (dropout2): Dropout(p=0.0, inplace=False)
      )
    )
    (norm): LayerNorm(
      (norm): LayerNorm((768,), eps=1e-06, elementwise_affine=True)
    )
  )
  (custom_src_module): NormalizedEmbedding(
    (emb): Embedding(
      (Embedding): Embedding(5000, 768)
    )
  )
  (output_proj): ModuleList(
    (layers): ModuleList(
      (0): Linear(
        (w): Linear(in_features=768, out_features=768, bias=True)
      )
      (1): LayerNorm(
        (norm): LayerNorm((768,), eps=1e-06, elementwise_affine=True)
      )
      (2): Linear(
        (w): Linear(in_features=768, out_features=5000, bias=True)
      )
    )
  )
) loading from /scratch/flatala/speechbrain/transformer/results_fold_5/conformer_small/7775/save/lm.ckpt, the transferred parameters did not have parameters for the key: output_proj.layers.0.w.weight
2025-03-20 20:16:29,034 - speechbrain.utils.checkpoints - WARNING - During parameter transfer to TransformerLM(
  (positional_encoding): PositionalEncoding()
  (encoder): TransformerEncoder(
    (layers): ModuleList(
      (0-11): 12 x TransformerEncoderLayer(
        (self_att): MultiheadAttention(
          (att): MultiheadAttention(
            (out_proj): NonDynamicallyQuantizableLinear(in_features=768, out_features=768, bias=True)
          )
        )
        (pos_ffn): PositionalwiseFeedForward(
          (ffn): Sequential(
            (0): Linear(in_features=768, out_features=3072, bias=True)
            (1): GELU(approximate='none')
            (2): Dropout(p=0.0, inplace=False)
            (3): Linear(in_features=3072, out_features=768, bias=True)
          )
        )
        (norm1): LayerNorm(
          (norm): LayerNorm((768,), eps=1e-06, elementwise_affine=True)
        )
        (norm2): LayerNorm(
          (norm): LayerNorm((768,), eps=1e-06, elementwise_affine=True)
        )
        (dropout1): Dropout(p=0.0, inplace=False)
        (dropout2): Dropout(p=0.0, inplace=False)
      )
    )
    (norm): LayerNorm(
      (norm): LayerNorm((768,), eps=1e-06, elementwise_affine=True)
    )
  )
  (custom_src_module): NormalizedEmbedding(
    (emb): Embedding(
      (Embedding): Embedding(5000, 768)
    )
  )
  (output_proj): ModuleList(
    (layers): ModuleList(
      (0): Linear(
        (w): Linear(in_features=768, out_features=768, bias=True)
      )
      (1): LayerNorm(
        (norm): LayerNorm((768,), eps=1e-06, elementwise_affine=True)
      )
      (2): Linear(
        (w): Linear(in_features=768, out_features=5000, bias=True)
      )
    )
  )
) loading from /scratch/flatala/speechbrain/transformer/results_fold_5/conformer_small/7775/save/lm.ckpt, the transferred parameters did not have parameters for the key: output_proj.layers.0.w.bias
2025-03-20 20:16:29,035 - speechbrain.utils.checkpoints - WARNING - During parameter transfer to TransformerLM(
  (positional_encoding): PositionalEncoding()
  (encoder): TransformerEncoder(
    (layers): ModuleList(
      (0-11): 12 x TransformerEncoderLayer(
        (self_att): MultiheadAttention(
          (att): MultiheadAttention(
            (out_proj): NonDynamicallyQuantizableLinear(in_features=768, out_features=768, bias=True)
          )
        )
        (pos_ffn): PositionalwiseFeedForward(
          (ffn): Sequential(
            (0): Linear(in_features=768, out_features=3072, bias=True)
            (1): GELU(approximate='none')
            (2): Dropout(p=0.0, inplace=False)
            (3): Linear(in_features=3072, out_features=768, bias=True)
          )
        )
        (norm1): LayerNorm(
          (norm): LayerNorm((768,), eps=1e-06, elementwise_affine=True)
        )
        (norm2): LayerNorm(
          (norm): LayerNorm((768,), eps=1e-06, elementwise_affine=True)
        )
        (dropout1): Dropout(p=0.0, inplace=False)
        (dropout2): Dropout(p=0.0, inplace=False)
      )
    )
    (norm): LayerNorm(
      (norm): LayerNorm((768,), eps=1e-06, elementwise_affine=True)
    )
  )
  (custom_src_module): NormalizedEmbedding(
    (emb): Embedding(
      (Embedding): Embedding(5000, 768)
    )
  )
  (output_proj): ModuleList(
    (layers): ModuleList(
      (0): Linear(
        (w): Linear(in_features=768, out_features=768, bias=True)
      )
      (1): LayerNorm(
        (norm): LayerNorm((768,), eps=1e-06, elementwise_affine=True)
      )
      (2): Linear(
        (w): Linear(in_features=768, out_features=5000, bias=True)
      )
    )
  )
) loading from /scratch/flatala/speechbrain/transformer/results_fold_5/conformer_small/7775/save/lm.ckpt, the transferred parameters did not have parameters for the key: output_proj.layers.1.norm.weight
2025-03-20 20:16:29,035 - speechbrain.utils.checkpoints - WARNING - During parameter transfer to TransformerLM(
  (positional_encoding): PositionalEncoding()
  (encoder): TransformerEncoder(
    (layers): ModuleList(
      (0-11): 12 x TransformerEncoderLayer(
        (self_att): MultiheadAttention(
          (att): MultiheadAttention(
            (out_proj): NonDynamicallyQuantizableLinear(in_features=768, out_features=768, bias=True)
          )
        )
        (pos_ffn): PositionalwiseFeedForward(
          (ffn): Sequential(
            (0): Linear(in_features=768, out_features=3072, bias=True)
            (1): GELU(approximate='none')
            (2): Dropout(p=0.0, inplace=False)
            (3): Linear(in_features=3072, out_features=768, bias=True)
          )
        )
        (norm1): LayerNorm(
          (norm): LayerNorm((768,), eps=1e-06, elementwise_affine=True)
        )
        (norm2): LayerNorm(
          (norm): LayerNorm((768,), eps=1e-06, elementwise_affine=True)
        )
        (dropout1): Dropout(p=0.0, inplace=False)
        (dropout2): Dropout(p=0.0, inplace=False)
      )
    )
    (norm): LayerNorm(
      (norm): LayerNorm((768,), eps=1e-06, elementwise_affine=True)
    )
  )
  (custom_src_module): NormalizedEmbedding(
    (emb): Embedding(
      (Embedding): Embedding(5000, 768)
    )
  )
  (output_proj): ModuleList(
    (layers): ModuleList(
      (0): Linear(
        (w): Linear(in_features=768, out_features=768, bias=True)
      )
      (1): LayerNorm(
        (norm): LayerNorm((768,), eps=1e-06, elementwise_affine=True)
      )
      (2): Linear(
        (w): Linear(in_features=768, out_features=5000, bias=True)
      )
    )
  )
) loading from /scratch/flatala/speechbrain/transformer/results_fold_5/conformer_small/7775/save/lm.ckpt, the transferred parameters did not have parameters for the key: output_proj.layers.1.norm.bias
2025-03-20 20:16:29,036 - speechbrain.utils.checkpoints - WARNING - During parameter transfer to TransformerLM(
  (positional_encoding): PositionalEncoding()
  (encoder): TransformerEncoder(
    (layers): ModuleList(
      (0-11): 12 x TransformerEncoderLayer(
        (self_att): MultiheadAttention(
          (att): MultiheadAttention(
            (out_proj): NonDynamicallyQuantizableLinear(in_features=768, out_features=768, bias=True)
          )
        )
        (pos_ffn): PositionalwiseFeedForward(
          (ffn): Sequential(
            (0): Linear(in_features=768, out_features=3072, bias=True)
            (1): GELU(approximate='none')
            (2): Dropout(p=0.0, inplace=False)
            (3): Linear(in_features=3072, out_features=768, bias=True)
          )
        )
        (norm1): LayerNorm(
          (norm): LayerNorm((768,), eps=1e-06, elementwise_affine=True)
        )
        (norm2): LayerNorm(
          (norm): LayerNorm((768,), eps=1e-06, elementwise_affine=True)
        )
        (dropout1): Dropout(p=0.0, inplace=False)
        (dropout2): Dropout(p=0.0, inplace=False)
      )
    )
    (norm): LayerNorm(
      (norm): LayerNorm((768,), eps=1e-06, elementwise_affine=True)
    )
  )
  (custom_src_module): NormalizedEmbedding(
    (emb): Embedding(
      (Embedding): Embedding(5000, 768)
    )
  )
  (output_proj): ModuleList(
    (layers): ModuleList(
      (0): Linear(
        (w): Linear(in_features=768, out_features=768, bias=True)
      )
      (1): LayerNorm(
        (norm): LayerNorm((768,), eps=1e-06, elementwise_affine=True)
      )
      (2): Linear(
        (w): Linear(in_features=768, out_features=5000, bias=True)
      )
    )
  )
) loading from /scratch/flatala/speechbrain/transformer/results_fold_5/conformer_small/7775/save/lm.ckpt, the transferred parameters did not have parameters for the key: output_proj.layers.2.w.weight
2025-03-20 20:16:29,036 - speechbrain.utils.checkpoints - WARNING - During parameter transfer to TransformerLM(
  (positional_encoding): PositionalEncoding()
  (encoder): TransformerEncoder(
    (layers): ModuleList(
      (0-11): 12 x TransformerEncoderLayer(
        (self_att): MultiheadAttention(
          (att): MultiheadAttention(
            (out_proj): NonDynamicallyQuantizableLinear(in_features=768, out_features=768, bias=True)
          )
        )
        (pos_ffn): PositionalwiseFeedForward(
          (ffn): Sequential(
            (0): Linear(in_features=768, out_features=3072, bias=True)
            (1): GELU(approximate='none')
            (2): Dropout(p=0.0, inplace=False)
            (3): Linear(in_features=3072, out_features=768, bias=True)
          )
        )
        (norm1): LayerNorm(
          (norm): LayerNorm((768,), eps=1e-06, elementwise_affine=True)
        )
        (norm2): LayerNorm(
          (norm): LayerNorm((768,), eps=1e-06, elementwise_affine=True)
        )
        (dropout1): Dropout(p=0.0, inplace=False)
        (dropout2): Dropout(p=0.0, inplace=False)
      )
    )
    (norm): LayerNorm(
      (norm): LayerNorm((768,), eps=1e-06, elementwise_affine=True)
    )
  )
  (custom_src_module): NormalizedEmbedding(
    (emb): Embedding(
      (Embedding): Embedding(5000, 768)
    )
  )
  (output_proj): ModuleList(
    (layers): ModuleList(
      (0): Linear(
        (w): Linear(in_features=768, out_features=768, bias=True)
      )
      (1): LayerNorm(
        (norm): LayerNorm((768,), eps=1e-06, elementwise_affine=True)
      )
      (2): Linear(
        (w): Linear(in_features=768, out_features=5000, bias=True)
      )
    )
  )
) loading from /scratch/flatala/speechbrain/transformer/results_fold_5/conformer_small/7775/save/lm.ckpt, the transferred parameters did not have parameters for the key: output_proj.layers.2.w.bias
2025-03-20 20:16:29,037 - speechbrain.utils.checkpoints - WARNING - During parameter transfer to TransformerLM(
  (positional_encoding): PositionalEncoding()
  (encoder): TransformerEncoder(
    (layers): ModuleList(
      (0-11): 12 x TransformerEncoderLayer(
        (self_att): MultiheadAttention(
          (att): MultiheadAttention(
            (out_proj): NonDynamicallyQuantizableLinear(in_features=768, out_features=768, bias=True)
          )
        )
        (pos_ffn): PositionalwiseFeedForward(
          (ffn): Sequential(
            (0): Linear(in_features=768, out_features=3072, bias=True)
            (1): GELU(approximate='none')
            (2): Dropout(p=0.0, inplace=False)
            (3): Linear(in_features=3072, out_features=768, bias=True)
          )
        )
        (norm1): LayerNorm(
          (norm): LayerNorm((768,), eps=1e-06, elementwise_affine=True)
        )
        (norm2): LayerNorm(
          (norm): LayerNorm((768,), eps=1e-06, elementwise_affine=True)
        )
        (dropout1): Dropout(p=0.0, inplace=False)
        (dropout2): Dropout(p=0.0, inplace=False)
      )
    )
    (norm): LayerNorm(
      (norm): LayerNorm((768,), eps=1e-06, elementwise_affine=True)
    )
  )
  (custom_src_module): NormalizedEmbedding(
    (emb): Embedding(
      (Embedding): Embedding(5000, 768)
    )
  )
  (output_proj): ModuleList(
    (layers): ModuleList(
      (0): Linear(
        (w): Linear(in_features=768, out_features=768, bias=True)
      )
      (1): LayerNorm(
        (norm): LayerNorm((768,), eps=1e-06, elementwise_affine=True)
      )
      (2): Linear(
        (w): Linear(in_features=768, out_features=5000, bias=True)
      )
    )
  )
) loading from /scratch/flatala/speechbrain/transformer/results_fold_5/conformer_small/7775/save/lm.ckpt, the object could not use the parameters loaded with the key: embedding.Embedding.weight
2025-03-20 20:16:29,037 - speechbrain.utils.checkpoints - WARNING - During parameter transfer to TransformerLM(
  (positional_encoding): PositionalEncoding()
  (encoder): TransformerEncoder(
    (layers): ModuleList(
      (0-11): 12 x TransformerEncoderLayer(
        (self_att): MultiheadAttention(
          (att): MultiheadAttention(
            (out_proj): NonDynamicallyQuantizableLinear(in_features=768, out_features=768, bias=True)
          )
        )
        (pos_ffn): PositionalwiseFeedForward(
          (ffn): Sequential(
            (0): Linear(in_features=768, out_features=3072, bias=True)
            (1): GELU(approximate='none')
            (2): Dropout(p=0.0, inplace=False)
            (3): Linear(in_features=3072, out_features=768, bias=True)
          )
        )
        (norm1): LayerNorm(
          (norm): LayerNorm((768,), eps=1e-06, elementwise_affine=True)
        )
        (norm2): LayerNorm(
          (norm): LayerNorm((768,), eps=1e-06, elementwise_affine=True)
        )
        (dropout1): Dropout(p=0.0, inplace=False)
        (dropout2): Dropout(p=0.0, inplace=False)
      )
    )
    (norm): LayerNorm(
      (norm): LayerNorm((768,), eps=1e-06, elementwise_affine=True)
    )
  )
  (custom_src_module): NormalizedEmbedding(
    (emb): Embedding(
      (Embedding): Embedding(5000, 768)
    )
  )
  (output_proj): ModuleList(
    (layers): ModuleList(
      (0): Linear(
        (w): Linear(in_features=768, out_features=768, bias=True)
      )
      (1): LayerNorm(
        (norm): LayerNorm((768,), eps=1e-06, elementwise_affine=True)
      )
      (2): Linear(
        (w): Linear(in_features=768, out_features=5000, bias=True)
      )
    )
  )
) loading from /scratch/flatala/speechbrain/transformer/results_fold_5/conformer_small/7775/save/lm.ckpt, the object could not use the parameters loaded with the key: rnn.rnn.weight_ih_l0
2025-03-20 20:16:29,038 - speechbrain.utils.checkpoints - WARNING - During parameter transfer to TransformerLM(
  (positional_encoding): PositionalEncoding()
  (encoder): TransformerEncoder(
    (layers): ModuleList(
      (0-11): 12 x TransformerEncoderLayer(
        (self_att): MultiheadAttention(
          (att): MultiheadAttention(
            (out_proj): NonDynamicallyQuantizableLinear(in_features=768, out_features=768, bias=True)
          )
        )
        (pos_ffn): PositionalwiseFeedForward(
          (ffn): Sequential(
            (0): Linear(in_features=768, out_features=3072, bias=True)
            (1): GELU(approximate='none')
            (2): Dropout(p=0.0, inplace=False)
            (3): Linear(in_features=3072, out_features=768, bias=True)
          )
        )
        (norm1): LayerNorm(
          (norm): LayerNorm((768,), eps=1e-06, elementwise_affine=True)
        )
        (norm2): LayerNorm(
          (norm): LayerNorm((768,), eps=1e-06, elementwise_affine=True)
        )
        (dropout1): Dropout(p=0.0, inplace=False)
        (dropout2): Dropout(p=0.0, inplace=False)
      )
    )
    (norm): LayerNorm(
      (norm): LayerNorm((768,), eps=1e-06, elementwise_affine=True)
    )
  )
  (custom_src_module): NormalizedEmbedding(
    (emb): Embedding(
      (Embedding): Embedding(5000, 768)
    )
  )
  (output_proj): ModuleList(
    (layers): ModuleList(
      (0): Linear(
        (w): Linear(in_features=768, out_features=768, bias=True)
      )
      (1): LayerNorm(
        (norm): LayerNorm((768,), eps=1e-06, elementwise_affine=True)
      )
      (2): Linear(
        (w): Linear(in_features=768, out_features=5000, bias=True)
      )
    )
  )
) loading from /scratch/flatala/speechbrain/transformer/results_fold_5/conformer_small/7775/save/lm.ckpt, the object could not use the parameters loaded with the key: rnn.rnn.weight_hh_l0
2025-03-20 20:16:29,038 - speechbrain.utils.checkpoints - WARNING - During parameter transfer to TransformerLM(
  (positional_encoding): PositionalEncoding()
  (encoder): TransformerEncoder(
    (layers): ModuleList(
      (0-11): 12 x TransformerEncoderLayer(
        (self_att): MultiheadAttention(
          (att): MultiheadAttention(
            (out_proj): NonDynamicallyQuantizableLinear(in_features=768, out_features=768, bias=True)
          )
        )
        (pos_ffn): PositionalwiseFeedForward(
          (ffn): Sequential(
            (0): Linear(in_features=768, out_features=3072, bias=True)
            (1): GELU(approximate='none')
            (2): Dropout(p=0.0, inplace=False)
            (3): Linear(in_features=3072, out_features=768, bias=True)
          )
        )
        (norm1): LayerNorm(
          (norm): LayerNorm((768,), eps=1e-06, elementwise_affine=True)
        )
        (norm2): LayerNorm(
          (norm): LayerNorm((768,), eps=1e-06, elementwise_affine=True)
        )
        (dropout1): Dropout(p=0.0, inplace=False)
        (dropout2): Dropout(p=0.0, inplace=False)
      )
    )
    (norm): LayerNorm(
      (norm): LayerNorm((768,), eps=1e-06, elementwise_affine=True)
    )
  )
  (custom_src_module): NormalizedEmbedding(
    (emb): Embedding(
      (Embedding): Embedding(5000, 768)
    )
  )
  (output_proj): ModuleList(
    (layers): ModuleList(
      (0): Linear(
        (w): Linear(in_features=768, out_features=768, bias=True)
      )
      (1): LayerNorm(
        (norm): LayerNorm((768,), eps=1e-06, elementwise_affine=True)
      )
      (2): Linear(
        (w): Linear(in_features=768, out_features=5000, bias=True)
      )
    )
  )
) loading from /scratch/flatala/speechbrain/transformer/results_fold_5/conformer_small/7775/save/lm.ckpt, the object could not use the parameters loaded with the key: rnn.rnn.bias_ih_l0
2025-03-20 20:16:29,039 - speechbrain.utils.checkpoints - WARNING - During parameter transfer to TransformerLM(
  (positional_encoding): PositionalEncoding()
  (encoder): TransformerEncoder(
    (layers): ModuleList(
      (0-11): 12 x TransformerEncoderLayer(
        (self_att): MultiheadAttention(
          (att): MultiheadAttention(
            (out_proj): NonDynamicallyQuantizableLinear(in_features=768, out_features=768, bias=True)
          )
        )
        (pos_ffn): PositionalwiseFeedForward(
          (ffn): Sequential(
            (0): Linear(in_features=768, out_features=3072, bias=True)
            (1): GELU(approximate='none')
            (2): Dropout(p=0.0, inplace=False)
            (3): Linear(in_features=3072, out_features=768, bias=True)
          )
        )
        (norm1): LayerNorm(
          (norm): LayerNorm((768,), eps=1e-06, elementwise_affine=True)
        )
        (norm2): LayerNorm(
          (norm): LayerNorm((768,), eps=1e-06, elementwise_affine=True)
        )
        (dropout1): Dropout(p=0.0, inplace=False)
        (dropout2): Dropout(p=0.0, inplace=False)
      )
    )
    (norm): LayerNorm(
      (norm): LayerNorm((768,), eps=1e-06, elementwise_affine=True)
    )
  )
  (custom_src_module): NormalizedEmbedding(
    (emb): Embedding(
      (Embedding): Embedding(5000, 768)
    )
  )
  (output_proj): ModuleList(
    (layers): ModuleList(
      (0): Linear(
        (w): Linear(in_features=768, out_features=768, bias=True)
      )
      (1): LayerNorm(
        (norm): LayerNorm((768,), eps=1e-06, elementwise_affine=True)
      )
      (2): Linear(
        (w): Linear(in_features=768, out_features=5000, bias=True)
      )
    )
  )
) loading from /scratch/flatala/speechbrain/transformer/results_fold_5/conformer_small/7775/save/lm.ckpt, the object could not use the parameters loaded with the key: rnn.rnn.bias_hh_l0
2025-03-20 20:16:29,039 - speechbrain.utils.checkpoints - WARNING - During parameter transfer to TransformerLM(
  (positional_encoding): PositionalEncoding()
  (encoder): TransformerEncoder(
    (layers): ModuleList(
      (0-11): 12 x TransformerEncoderLayer(
        (self_att): MultiheadAttention(
          (att): MultiheadAttention(
            (out_proj): NonDynamicallyQuantizableLinear(in_features=768, out_features=768, bias=True)
          )
        )
        (pos_ffn): PositionalwiseFeedForward(
          (ffn): Sequential(
            (0): Linear(in_features=768, out_features=3072, bias=True)
            (1): GELU(approximate='none')
            (2): Dropout(p=0.0, inplace=False)
            (3): Linear(in_features=3072, out_features=768, bias=True)
          )
        )
        (norm1): LayerNorm(
          (norm): LayerNorm((768,), eps=1e-06, elementwise_affine=True)
        )
        (norm2): LayerNorm(
          (norm): LayerNorm((768,), eps=1e-06, elementwise_affine=True)
        )
        (dropout1): Dropout(p=0.0, inplace=False)
        (dropout2): Dropout(p=0.0, inplace=False)
      )
    )
    (norm): LayerNorm(
      (norm): LayerNorm((768,), eps=1e-06, elementwise_affine=True)
    )
  )
  (custom_src_module): NormalizedEmbedding(
    (emb): Embedding(
      (Embedding): Embedding(5000, 768)
    )
  )
  (output_proj): ModuleList(
    (layers): ModuleList(
      (0): Linear(
        (w): Linear(in_features=768, out_features=768, bias=True)
      )
      (1): LayerNorm(
        (norm): LayerNorm((768,), eps=1e-06, elementwise_affine=True)
      )
      (2): Linear(
        (w): Linear(in_features=768, out_features=5000, bias=True)
      )
    )
  )
) loading from /scratch/flatala/speechbrain/transformer/results_fold_5/conformer_small/7775/save/lm.ckpt, the object could not use the parameters loaded with the key: rnn.rnn.weight_ih_l1
2025-03-20 20:16:29,040 - speechbrain.utils.checkpoints - WARNING - During parameter transfer to TransformerLM(
  (positional_encoding): PositionalEncoding()
  (encoder): TransformerEncoder(
    (layers): ModuleList(
      (0-11): 12 x TransformerEncoderLayer(
        (self_att): MultiheadAttention(
          (att): MultiheadAttention(
            (out_proj): NonDynamicallyQuantizableLinear(in_features=768, out_features=768, bias=True)
          )
        )
        (pos_ffn): PositionalwiseFeedForward(
          (ffn): Sequential(
            (0): Linear(in_features=768, out_features=3072, bias=True)
            (1): GELU(approximate='none')
            (2): Dropout(p=0.0, inplace=False)
            (3): Linear(in_features=3072, out_features=768, bias=True)
          )
        )
        (norm1): LayerNorm(
          (norm): LayerNorm((768,), eps=1e-06, elementwise_affine=True)
        )
        (norm2): LayerNorm(
          (norm): LayerNorm((768,), eps=1e-06, elementwise_affine=True)
        )
        (dropout1): Dropout(p=0.0, inplace=False)
        (dropout2): Dropout(p=0.0, inplace=False)
      )
    )
    (norm): LayerNorm(
      (norm): LayerNorm((768,), eps=1e-06, elementwise_affine=True)
    )
  )
  (custom_src_module): NormalizedEmbedding(
    (emb): Embedding(
      (Embedding): Embedding(5000, 768)
    )
  )
  (output_proj): ModuleList(
    (layers): ModuleList(
      (0): Linear(
        (w): Linear(in_features=768, out_features=768, bias=True)
      )
      (1): LayerNorm(
        (norm): LayerNorm((768,), eps=1e-06, elementwise_affine=True)
      )
      (2): Linear(
        (w): Linear(in_features=768, out_features=5000, bias=True)
      )
    )
  )
) loading from /scratch/flatala/speechbrain/transformer/results_fold_5/conformer_small/7775/save/lm.ckpt, the object could not use the parameters loaded with the key: rnn.rnn.weight_hh_l1
2025-03-20 20:16:29,040 - speechbrain.utils.checkpoints - WARNING - During parameter transfer to TransformerLM(
  (positional_encoding): PositionalEncoding()
  (encoder): TransformerEncoder(
    (layers): ModuleList(
      (0-11): 12 x TransformerEncoderLayer(
        (self_att): MultiheadAttention(
          (att): MultiheadAttention(
            (out_proj): NonDynamicallyQuantizableLinear(in_features=768, out_features=768, bias=True)
          )
        )
        (pos_ffn): PositionalwiseFeedForward(
          (ffn): Sequential(
            (0): Linear(in_features=768, out_features=3072, bias=True)
            (1): GELU(approximate='none')
            (2): Dropout(p=0.0, inplace=False)
            (3): Linear(in_features=3072, out_features=768, bias=True)
          )
        )
        (norm1): LayerNorm(
          (norm): LayerNorm((768,), eps=1e-06, elementwise_affine=True)
        )
        (norm2): LayerNorm(
          (norm): LayerNorm((768,), eps=1e-06, elementwise_affine=True)
        )
        (dropout1): Dropout(p=0.0, inplace=False)
        (dropout2): Dropout(p=0.0, inplace=False)
      )
    )
    (norm): LayerNorm(
      (norm): LayerNorm((768,), eps=1e-06, elementwise_affine=True)
    )
  )
  (custom_src_module): NormalizedEmbedding(
    (emb): Embedding(
      (Embedding): Embedding(5000, 768)
    )
  )
  (output_proj): ModuleList(
    (layers): ModuleList(
      (0): Linear(
        (w): Linear(in_features=768, out_features=768, bias=True)
      )
      (1): LayerNorm(
        (norm): LayerNorm((768,), eps=1e-06, elementwise_affine=True)
      )
      (2): Linear(
        (w): Linear(in_features=768, out_features=5000, bias=True)
      )
    )
  )
) loading from /scratch/flatala/speechbrain/transformer/results_fold_5/conformer_small/7775/save/lm.ckpt, the object could not use the parameters loaded with the key: rnn.rnn.bias_ih_l1
2025-03-20 20:16:29,041 - speechbrain.utils.checkpoints - WARNING - During parameter transfer to TransformerLM(
  (positional_encoding): PositionalEncoding()
  (encoder): TransformerEncoder(
    (layers): ModuleList(
      (0-11): 12 x TransformerEncoderLayer(
        (self_att): MultiheadAttention(
          (att): MultiheadAttention(
            (out_proj): NonDynamicallyQuantizableLinear(in_features=768, out_features=768, bias=True)
          )
        )
        (pos_ffn): PositionalwiseFeedForward(
          (ffn): Sequential(
            (0): Linear(in_features=768, out_features=3072, bias=True)
            (1): GELU(approximate='none')
            (2): Dropout(p=0.0, inplace=False)
            (3): Linear(in_features=3072, out_features=768, bias=True)
          )
        )
        (norm1): LayerNorm(
          (norm): LayerNorm((768,), eps=1e-06, elementwise_affine=True)
        )
        (norm2): LayerNorm(
          (norm): LayerNorm((768,), eps=1e-06, elementwise_affine=True)
        )
        (dropout1): Dropout(p=0.0, inplace=False)
        (dropout2): Dropout(p=0.0, inplace=False)
      )
    )
    (norm): LayerNorm(
      (norm): LayerNorm((768,), eps=1e-06, elementwise_affine=True)
    )
  )
  (custom_src_module): NormalizedEmbedding(
    (emb): Embedding(
      (Embedding): Embedding(5000, 768)
    )
  )
  (output_proj): ModuleList(
    (layers): ModuleList(
      (0): Linear(
        (w): Linear(in_features=768, out_features=768, bias=True)
      )
      (1): LayerNorm(
        (norm): LayerNorm((768,), eps=1e-06, elementwise_affine=True)
      )
      (2): Linear(
        (w): Linear(in_features=768, out_features=5000, bias=True)
      )
    )
  )
) loading from /scratch/flatala/speechbrain/transformer/results_fold_5/conformer_small/7775/save/lm.ckpt, the object could not use the parameters loaded with the key: rnn.rnn.bias_hh_l1
2025-03-20 20:16:29,041 - speechbrain.utils.checkpoints - WARNING - During parameter transfer to TransformerLM(
  (positional_encoding): PositionalEncoding()
  (encoder): TransformerEncoder(
    (layers): ModuleList(
      (0-11): 12 x TransformerEncoderLayer(
        (self_att): MultiheadAttention(
          (att): MultiheadAttention(
            (out_proj): NonDynamicallyQuantizableLinear(in_features=768, out_features=768, bias=True)
          )
        )
        (pos_ffn): PositionalwiseFeedForward(
          (ffn): Sequential(
            (0): Linear(in_features=768, out_features=3072, bias=True)
            (1): GELU(approximate='none')
            (2): Dropout(p=0.0, inplace=False)
            (3): Linear(in_features=3072, out_features=768, bias=True)
          )
        )
        (norm1): LayerNorm(
          (norm): LayerNorm((768,), eps=1e-06, elementwise_affine=True)
        )
        (norm2): LayerNorm(
          (norm): LayerNorm((768,), eps=1e-06, elementwise_affine=True)
        )
        (dropout1): Dropout(p=0.0, inplace=False)
        (dropout2): Dropout(p=0.0, inplace=False)
      )
    )
    (norm): LayerNorm(
      (norm): LayerNorm((768,), eps=1e-06, elementwise_affine=True)
    )
  )
  (custom_src_module): NormalizedEmbedding(
    (emb): Embedding(
      (Embedding): Embedding(5000, 768)
    )
  )
  (output_proj): ModuleList(
    (layers): ModuleList(
      (0): Linear(
        (w): Linear(in_features=768, out_features=768, bias=True)
      )
      (1): LayerNorm(
        (norm): LayerNorm((768,), eps=1e-06, elementwise_affine=True)
      )
      (2): Linear(
        (w): Linear(in_features=768, out_features=5000, bias=True)
      )
    )
  )
) loading from /scratch/flatala/speechbrain/transformer/results_fold_5/conformer_small/7775/save/lm.ckpt, the object could not use the parameters loaded with the key: dnn.linear.w.weight
2025-03-20 20:16:29,042 - speechbrain.utils.checkpoints - WARNING - During parameter transfer to TransformerLM(
  (positional_encoding): PositionalEncoding()
  (encoder): TransformerEncoder(
    (layers): ModuleList(
      (0-11): 12 x TransformerEncoderLayer(
        (self_att): MultiheadAttention(
          (att): MultiheadAttention(
            (out_proj): NonDynamicallyQuantizableLinear(in_features=768, out_features=768, bias=True)
          )
        )
        (pos_ffn): PositionalwiseFeedForward(
          (ffn): Sequential(
            (0): Linear(in_features=768, out_features=3072, bias=True)
            (1): GELU(approximate='none')
            (2): Dropout(p=0.0, inplace=False)
            (3): Linear(in_features=3072, out_features=768, bias=True)
          )
        )
        (norm1): LayerNorm(
          (norm): LayerNorm((768,), eps=1e-06, elementwise_affine=True)
        )
        (norm2): LayerNorm(
          (norm): LayerNorm((768,), eps=1e-06, elementwise_affine=True)
        )
        (dropout1): Dropout(p=0.0, inplace=False)
        (dropout2): Dropout(p=0.0, inplace=False)
      )
    )
    (norm): LayerNorm(
      (norm): LayerNorm((768,), eps=1e-06, elementwise_affine=True)
    )
  )
  (custom_src_module): NormalizedEmbedding(
    (emb): Embedding(
      (Embedding): Embedding(5000, 768)
    )
  )
  (output_proj): ModuleList(
    (layers): ModuleList(
      (0): Linear(
        (w): Linear(in_features=768, out_features=768, bias=True)
      )
      (1): LayerNorm(
        (norm): LayerNorm((768,), eps=1e-06, elementwise_affine=True)
      )
      (2): Linear(
        (w): Linear(in_features=768, out_features=5000, bias=True)
      )
    )
  )
) loading from /scratch/flatala/speechbrain/transformer/results_fold_5/conformer_small/7775/save/lm.ckpt, the object could not use the parameters loaded with the key: dnn.linear.w.bias
2025-03-20 20:16:29,042 - speechbrain.utils.checkpoints - WARNING - During parameter transfer to TransformerLM(
  (positional_encoding): PositionalEncoding()
  (encoder): TransformerEncoder(
    (layers): ModuleList(
      (0-11): 12 x TransformerEncoderLayer(
        (self_att): MultiheadAttention(
          (att): MultiheadAttention(
            (out_proj): NonDynamicallyQuantizableLinear(in_features=768, out_features=768, bias=True)
          )
        )
        (pos_ffn): PositionalwiseFeedForward(
          (ffn): Sequential(
            (0): Linear(in_features=768, out_features=3072, bias=True)
            (1): GELU(approximate='none')
            (2): Dropout(p=0.0, inplace=False)
            (3): Linear(in_features=3072, out_features=768, bias=True)
          )
        )
        (norm1): LayerNorm(
          (norm): LayerNorm((768,), eps=1e-06, elementwise_affine=True)
        )
        (norm2): LayerNorm(
          (norm): LayerNorm((768,), eps=1e-06, elementwise_affine=True)
        )
        (dropout1): Dropout(p=0.0, inplace=False)
        (dropout2): Dropout(p=0.0, inplace=False)
      )
    )
    (norm): LayerNorm(
      (norm): LayerNorm((768,), eps=1e-06, elementwise_affine=True)
    )
  )
  (custom_src_module): NormalizedEmbedding(
    (emb): Embedding(
      (Embedding): Embedding(5000, 768)
    )
  )
  (output_proj): ModuleList(
    (layers): ModuleList(
      (0): Linear(
        (w): Linear(in_features=768, out_features=768, bias=True)
      )
      (1): LayerNorm(
        (norm): LayerNorm((768,), eps=1e-06, elementwise_affine=True)
      )
      (2): Linear(
        (w): Linear(in_features=768, out_features=5000, bias=True)
      )
    )
  )
) loading from /scratch/flatala/speechbrain/transformer/results_fold_5/conformer_small/7775/save/lm.ckpt, the object could not use the parameters loaded with the key: dnn.norm.norm.weight
2025-03-20 20:16:29,043 - speechbrain.utils.checkpoints - WARNING - During parameter transfer to TransformerLM(
  (positional_encoding): PositionalEncoding()
  (encoder): TransformerEncoder(
    (layers): ModuleList(
      (0-11): 12 x TransformerEncoderLayer(
        (self_att): MultiheadAttention(
          (att): MultiheadAttention(
            (out_proj): NonDynamicallyQuantizableLinear(in_features=768, out_features=768, bias=True)
          )
        )
        (pos_ffn): PositionalwiseFeedForward(
          (ffn): Sequential(
            (0): Linear(in_features=768, out_features=3072, bias=True)
            (1): GELU(approximate='none')
            (2): Dropout(p=0.0, inplace=False)
            (3): Linear(in_features=3072, out_features=768, bias=True)
          )
        )
        (norm1): LayerNorm(
          (norm): LayerNorm((768,), eps=1e-06, elementwise_affine=True)
        )
        (norm2): LayerNorm(
          (norm): LayerNorm((768,), eps=1e-06, elementwise_affine=True)
        )
        (dropout1): Dropout(p=0.0, inplace=False)
        (dropout2): Dropout(p=0.0, inplace=False)
      )
    )
    (norm): LayerNorm(
      (norm): LayerNorm((768,), eps=1e-06, elementwise_affine=True)
    )
  )
  (custom_src_module): NormalizedEmbedding(
    (emb): Embedding(
      (Embedding): Embedding(5000, 768)
    )
  )
  (output_proj): ModuleList(
    (layers): ModuleList(
      (0): Linear(
        (w): Linear(in_features=768, out_features=768, bias=True)
      )
      (1): LayerNorm(
        (norm): LayerNorm((768,), eps=1e-06, elementwise_affine=True)
      )
      (2): Linear(
        (w): Linear(in_features=768, out_features=5000, bias=True)
      )
    )
  )
) loading from /scratch/flatala/speechbrain/transformer/results_fold_5/conformer_small/7775/save/lm.ckpt, the object could not use the parameters loaded with the key: dnn.norm.norm.bias
2025-03-20 20:16:29,043 - speechbrain.utils.checkpoints - WARNING - During parameter transfer to TransformerLM(
  (positional_encoding): PositionalEncoding()
  (encoder): TransformerEncoder(
    (layers): ModuleList(
      (0-11): 12 x TransformerEncoderLayer(
        (self_att): MultiheadAttention(
          (att): MultiheadAttention(
            (out_proj): NonDynamicallyQuantizableLinear(in_features=768, out_features=768, bias=True)
          )
        )
        (pos_ffn): PositionalwiseFeedForward(
          (ffn): Sequential(
            (0): Linear(in_features=768, out_features=3072, bias=True)
            (1): GELU(approximate='none')
            (2): Dropout(p=0.0, inplace=False)
            (3): Linear(in_features=3072, out_features=768, bias=True)
          )
        )
        (norm1): LayerNorm(
          (norm): LayerNorm((768,), eps=1e-06, elementwise_affine=True)
        )
        (norm2): LayerNorm(
          (norm): LayerNorm((768,), eps=1e-06, elementwise_affine=True)
        )
        (dropout1): Dropout(p=0.0, inplace=False)
        (dropout2): Dropout(p=0.0, inplace=False)
      )
    )
    (norm): LayerNorm(
      (norm): LayerNorm((768,), eps=1e-06, elementwise_affine=True)
    )
  )
  (custom_src_module): NormalizedEmbedding(
    (emb): Embedding(
      (Embedding): Embedding(5000, 768)
    )
  )
  (output_proj): ModuleList(
    (layers): ModuleList(
      (0): Linear(
        (w): Linear(in_features=768, out_features=768, bias=True)
      )
      (1): LayerNorm(
        (norm): LayerNorm((768,), eps=1e-06, elementwise_affine=True)
      )
      (2): Linear(
        (w): Linear(in_features=768, out_features=5000, bias=True)
      )
    )
  )
) loading from /scratch/flatala/speechbrain/transformer/results_fold_5/conformer_small/7775/save/lm.ckpt, the object could not use the parameters loaded with the key: out.w.weight
2025-03-20 20:16:29,044 - speechbrain.utils.checkpoints - WARNING - During parameter transfer to TransformerLM(
  (positional_encoding): PositionalEncoding()
  (encoder): TransformerEncoder(
    (layers): ModuleList(
      (0-11): 12 x TransformerEncoderLayer(
        (self_att): MultiheadAttention(
          (att): MultiheadAttention(
            (out_proj): NonDynamicallyQuantizableLinear(in_features=768, out_features=768, bias=True)
          )
        )
        (pos_ffn): PositionalwiseFeedForward(
          (ffn): Sequential(
            (0): Linear(in_features=768, out_features=3072, bias=True)
            (1): GELU(approximate='none')
            (2): Dropout(p=0.0, inplace=False)
            (3): Linear(in_features=3072, out_features=768, bias=True)
          )
        )
        (norm1): LayerNorm(
          (norm): LayerNorm((768,), eps=1e-06, elementwise_affine=True)
        )
        (norm2): LayerNorm(
          (norm): LayerNorm((768,), eps=1e-06, elementwise_affine=True)
        )
        (dropout1): Dropout(p=0.0, inplace=False)
        (dropout2): Dropout(p=0.0, inplace=False)
      )
    )
    (norm): LayerNorm(
      (norm): LayerNorm((768,), eps=1e-06, elementwise_affine=True)
    )
  )
  (custom_src_module): NormalizedEmbedding(
    (emb): Embedding(
      (Embedding): Embedding(5000, 768)
    )
  )
  (output_proj): ModuleList(
    (layers): ModuleList(
      (0): Linear(
        (w): Linear(in_features=768, out_features=768, bias=True)
      )
      (1): LayerNorm(
        (norm): LayerNorm((768,), eps=1e-06, elementwise_affine=True)
      )
      (2): Linear(
        (w): Linear(in_features=768, out_features=5000, bias=True)
      )
    )
  )
) loading from /scratch/flatala/speechbrain/transformer/results_fold_5/conformer_small/7775/save/lm.ckpt, the object could not use the parameters loaded with the key: out.w.bias
2025-03-20 20:16:29,054 - speechbrain.core - INFO - Info: precision arg from hparam file is used
2025-03-20 20:16:29,054 - speechbrain.core - INFO - Info: max_grad_norm arg from hparam file is used
…
