…
2025-03-21 00:25:50,047 - speechbrain.utils.parameter_transfer - DEBUG - Redirecting (loading from local path): tokenizer -> /scratch/flatala/speechbrain/transformer/results_no_lm/results_fold_5/conformer_small/7775/save/tokenizer.ckpt
2025-03-21 00:25:50,594 - speechbrain.utils.checkpoints - WARNING - During parameter transfer to TransformerLM(
  (positional_encoding): PositionalEncoding()
  (encoder): TransformerEncoder(
    (layers): ModuleList(
      (0-11): 12 x TransformerEncoderLayer(
        (self_att): MultiheadAttention(
          (att): MultiheadAttention(
            (out_proj): NonDynamicallyQuantizableLinear(in_features=768, out_features=768, bias=True)
          )
        )
        (pos_ffn): PositionalwiseFeedForward(
          (ffn): Sequential(
            (0): Linear(in_features=768, out_features=3072, bias=True)
            (1): GELU(approximate='none')
            (2): Dropout(p=0.0, inplace=False)
            (3): Linear(in_features=3072, out_features=768, bias=True)
          )
        )
        (norm1): LayerNorm(
          (norm): LayerNorm((768,), eps=1e-06, elementwise_affine=True)
        )
        (norm2): LayerNorm(
          (norm): LayerNorm((768,), eps=1e-06, elementwise_affine=True)
        )
        (dropout1): Dropout(p=0.0, inplace=False)
        (dropout2): Dropout(p=0.0, inplace=False)
      )
    )
    (norm): LayerNorm(
      (norm): LayerNorm((768,), eps=1e-06, elementwise_affine=True)
    )
  )
  (custom_src_module): NormalizedEmbedding(
    (emb): Embedding(
      (Embedding): Embedding(5000, 768)
    )
  )
  (output_proj): ModuleList(
    (layers): ModuleList(
      (0): Linear(
        (w): Linear(in_features=768, out_features=768, bias=True)
      )
      (1): LayerNorm(
        (norm): LayerNorm((768,), eps=1e-06, elementwise_affine=True)
      )
      (2): Linear(
        (w): Linear(in_features=768, out_features=5000, bias=True)
      )
    )
  )
) loading from /scratch/flatala/speechbrain/transformer/results_no_lm/results_fold_5/conformer_small/7775/save/lm.ckpt, the transferred parameters did not have parameters for the key: positional_encoding.pe
2025-03-21 00:25:50,595 - speechbrain.utils.checkpoints - WARNING - During parameter transfer to TransformerLM(
  (positional_encoding): PositionalEncoding()
  (encoder): TransformerEncoder(
    (layers): ModuleList(
      (0-11): 12 x TransformerEncoderLayer(
        (self_att): MultiheadAttention(
          (att): MultiheadAttention(
            (out_proj): NonDynamicallyQuantizableLinear(in_features=768, out_features=768, bias=True)
          )
        )
        (pos_ffn): PositionalwiseFeedForward(
          (ffn): Sequential(
            (0): Linear(in_features=768, out_features=3072, bias=True)
            (1): GELU(approximate='none')
            (2): Dropout(p=0.0, inplace=False)
            (3): Linear(in_features=3072, out_features=768, bias=True)
          )
        )
        (norm1): LayerNorm(
          (norm): LayerNorm((768,), eps=1e-06, elementwise_affine=True)
        )
        (norm2): LayerNorm(
          (norm): LayerNorm((768,), eps=1e-06, elementwise_affine=True)
        )
        (dropout1): Dropout(p=0.0, inplace=False)
        (dropout2): Dropout(p=0.0, inplace=False)
      )
    )
    (norm): LayerNorm(
      (norm): LayerNorm((768,), eps=1e-06, elementwise_affine=True)
    )
  )
  (custom_src_module): NormalizedEmbedding(
    (emb): Embedding(
      (Embedding): Embedding(5000, 768)
    )
  )
  (output_proj): ModuleList(
    (layers): ModuleList(
      (0): Linear(
        (w): Linear(in_features=768, out_features=768, bias=True)
      )
      (1): LayerNorm(
        (norm): LayerNorm((768,), eps=1e-06, elementwise_affine=True)
      )
      (2): Linear(
        (w): Linear(in_features=768, out_features=5000, bias=True)
      )
    )
  )
) loading from /scratch/flatala/speechbrain/transformer/results_no_lm/results_fold_5/conformer_small/7775/save/lm.ckpt, the transferred parameters did not have parameters for the key: encoder.layers.0.self_att.att.in_proj_weight
2025-03-21 00:25:50,596 - speechbrain.utils.checkpoints - WARNING - During parameter transfer to TransformerLM(
  (positional_encoding): PositionalEncoding()
  (encoder): TransformerEncoder(
    (layers): ModuleList(
      (0-11): 12 x TransformerEncoderLayer(
        (self_att): MultiheadAttention(
          (att): MultiheadAttention(
            (out_proj): NonDynamicallyQuantizableLinear(in_features=768, out_features=768, bias=True)
          )
        )
        (pos_ffn): PositionalwiseFeedForward(
          (ffn): Sequential(
            (0): Linear(in_features=768, out_features=3072, bias=True)
            (1): GELU(approximate='none')
            (2): Dropout(p=0.0, inplace=False)
            (3): Linear(in_features=3072, out_features=768, bias=True)
          )
        )
        (norm1): LayerNorm(
          (norm): LayerNorm((768,), eps=1e-06, elementwise_affine=True)
        )
        (norm2): LayerNorm(
          (norm): LayerNorm((768,), eps=1e-06, elementwise_affine=True)
        )
        (dropout1): Dropout(p=0.0, inplace=False)
        (dropout2): Dropout(p=0.0, inplace=False)
      )
    )
    (norm): LayerNorm(
      (norm): LayerNorm((768,), eps=1e-06, elementwise_affine=True)
    )
  )
  (custom_src_module): NormalizedEmbedding(
    (emb): Embedding(
      (Embedding): Embedding(5000, 768)
    )
  )
  (output_proj): ModuleList(
    (layers): ModuleList(
      (0): Linear(
        (w): Linear(in_features=768, out_features=768, bias=True)
      )
      (1): LayerNorm(
        (norm): LayerNorm((768,), eps=1e-06, elementwise_affine=True)
      )
      (2): Linear(
        (w): Linear(in_features=768, out_features=5000, bias=True)
      )
    )
  )
) loading from /scratch/flatala/speechbrain/transformer/results_no_lm/results_fold_5/conformer_small/7775/save/lm.ckpt, the transferred parameters did not have parameters for the key: encoder.layers.0.self_att.att.in_proj_bias
2025-03-21 00:25:50,599 - speechbrain.utils.checkpoints - WARNING - During parameter transfer to TransformerLM(
  (positional_encoding): PositionalEncoding()
  (encoder): TransformerEncoder(
    (layers): ModuleList(
      (0-11): 12 x TransformerEncoderLayer(
        (self_att): MultiheadAttention(
          (att): MultiheadAttention(
            (out_proj): NonDynamicallyQuantizableLinear(in_features=768, out_features=768, bias=True)
          )
        )
        (pos_ffn): PositionalwiseFeedForward(
          (ffn): Sequential(
            (0): Linear(in_features=768, out_features=3072, bias=True)
            (1): GELU(approximate='none')
            (2): Dropout(p=0.0, inplace=False)
            (3): Linear(in_features=3072, out_features=768, bias=True)
          )
        )
        (norm1): LayerNorm(
          (norm): LayerNorm((768,), eps=1e-06, elementwise_affine=True)
        )
        (norm2): LayerNorm(
          (norm): LayerNorm((768,), eps=1e-06, elementwise_affine=True)
        )
        (dropout1): Dropout(p=0.0, inplace=False)
        (dropout2): Dropout(p=0.0, inplace=False)
      )
    )
    (norm): LayerNorm(
      (norm): LayerNorm((768,), eps=1e-06, elementwise_affine=True)
    )
  )
  (custom_src_module): NormalizedEmbedding(
    (emb): Embedding(
      (Embedding): Embedding(5000, 768)
    )
  )
  (output_proj): ModuleList(
    (layers): ModuleList(
      (0): Linear(
        (w): Linear(in_features=768, out_features=768, bias=True)
      )
      (1): LayerNorm(
        (norm): LayerNorm((768,), eps=1e-06, elementwise_affine=True)
      )
      (2): Linear(
        (w): Linear(in_features=768, out_features=5000, bias=True)
      )
    )
  )
) loading from /scratch/flatala/speechbrain/transformer/results_no_lm/results_fold_5/conformer_small/7775/save/lm.ckpt, the transferred parameters did not have parameters for the key: encoder.layers.0.self_att.att.out_proj.weight
2025-03-21 00:25:50,600 - speechbrain.utils.checkpoints - WARNING - During parameter transfer to TransformerLM(
  (positional_encoding): PositionalEncoding()
  (encoder): TransformerEncoder(
    (layers): ModuleList(
      (0-11): 12 x TransformerEncoderLayer(
        (self_att): MultiheadAttention(
          (att): MultiheadAttention(
            (out_proj): NonDynamicallyQuantizableLinear(in_features=768, out_features=768, bias=True)
          )
        )
        (pos_ffn): PositionalwiseFeedForward(
          (ffn): Sequential(
            (0): Linear(in_features=768, out_features=3072, bias=True)
            (1): GELU(approximate='none')
            (2): Dropout(p=0.0, inplace=False)
            (3): Linear(in_features=3072, out_features=768, bias=True)
          )
        )
        (norm1): LayerNorm(
          (norm): LayerNorm((768,), eps=1e-06, elementwise_affine=True)
        )
        (norm2): LayerNorm(
          (norm): LayerNorm((768,), eps=1e-06, elementwise_affine=True)
        )
        (dropout1): Dropout(p=0.0, inplace=False)
        (dropout2): Dropout(p=0.0, inplace=False)
      )
    )
    (norm): LayerNorm(
      (norm): LayerNorm((768,), eps=1e-06, elementwise_affine=True)
    )
  )
  (custom_src_module): NormalizedEmbedding(
    (emb): Embedding(
      (Embedding): Embedding(5000, 768)
    )
  )
  (output_proj): ModuleList(
    (layers): ModuleList(
      (0): Linear(
        (w): Linear(in_features=768, out_features=768, bias=True)
      )
      (1): LayerNorm(
        (norm): LayerNorm((768,), eps=1e-06, elementwise_affine=True)
      )
      (2): Linear(
        (w): Linear(in_features=768, out_features=5000, bias=True)
      )
    )
  )
) loading from /scratch/flatala/speechbrain/transformer/results_no_lm/results_fold_5/conformer_small/7775/save/lm.ckpt, the transferred parameters did not have parameters for the key: encoder.layers.0.self_att.att.out_proj.bias
2025-03-21 00:25:50,600 - speechbrain.utils.checkpoints - WARNING - During parameter transfer to TransformerLM(
  (positional_encoding): PositionalEncoding()
  (encoder): TransformerEncoder(
    (layers): ModuleList(
      (0-11): 12 x TransformerEncoderLayer(
        (self_att): MultiheadAttention(
          (att): MultiheadAttention(
            (out_proj): NonDynamicallyQuantizableLinear(in_features=768, out_features=768, bias=True)
          )
        )
        (pos_ffn): PositionalwiseFeedForward(
          (ffn): Sequential(
            (0): Linear(in_features=768, out_features=3072, bias=True)
            (1): GELU(approximate='none')
            (2): Dropout(p=0.0, inplace=False)
            (3): Linear(in_features=3072, out_features=768, bias=True)
          )
        )
        (norm1): LayerNorm(
          (norm): LayerNorm((768,), eps=1e-06, elementwise_affine=True)
        )
        (norm2): LayerNorm(
          (norm): LayerNorm((768,), eps=1e-06, elementwise_affine=True)
        )
        (dropout1): Dropout(p=0.0, inplace=False)
        (dropout2): Dropout(p=0.0, inplace=False)
      )
    )
    (norm): LayerNorm(
      (norm): LayerNorm((768,), eps=1e-06, elementwise_affine=True)
    )
  )
  (custom_src_module): NormalizedEmbedding(
    (emb): Embedding(
      (Embedding): Embedding(5000, 768)
    )
  )
  (output_proj): ModuleList(
    (layers): ModuleList(
      (0): Linear(
        (w): Linear(in_features=768, out_features=768, bias=True)
      )
      (1): LayerNorm(
        (norm): LayerNorm((768,), eps=1e-06, elementwise_affine=True)
      )
      (2): Linear(
        (w): Linear(in_features=768, out_features=5000, bias=True)
      )
    )
  )
) loading from /scratch/flatala/speechbrain/transformer/results_no_lm/results_fold_5/conformer_small/7775/save/lm.ckpt, the transferred parameters did not have parameters for the key: encoder.layers.0.pos_ffn.ffn.0.weight
2025-03-21 00:25:50,601 - speechbrain.utils.checkpoints - WARNING - During parameter transfer to TransformerLM(
  (positional_encoding): PositionalEncoding()
  (encoder): TransformerEncoder(
    (layers): ModuleList(
      (0-11): 12 x TransformerEncoderLayer(
        (self_att): MultiheadAttention(
          (att): MultiheadAttention(
            (out_proj): NonDynamicallyQuantizableLinear(in_features=768, out_features=768, bias=True)
          )
        )
        (pos_ffn): PositionalwiseFeedForward(
          (ffn): Sequential(
            (0): Linear(in_features=768, out_features=3072, bias=True)
            (1): GELU(approximate='none')
            (2): Dropout(p=0.0, inplace=False)
            (3): Linear(in_features=3072, out_features=768, bias=True)
          )
        )
        (norm1): LayerNorm(
          (norm): LayerNorm((768,), eps=1e-06, elementwise_affine=True)
        )
        (norm2): LayerNorm(
          (norm): LayerNorm((768,), eps=1e-06, elementwise_affine=True)
        )
        (dropout1): Dropout(p=0.0, inplace=False)
        (dropout2): Dropout(p=0.0, inplace=False)
      )
    )
    (norm): LayerNorm(
      (norm): LayerNorm((768,), eps=1e-06, elementwise_affine=True)
    )
  )
  (custom_src_module): NormalizedEmbedding(
    (emb): Embedding(
      (Embedding): Embedding(5000, 768)
    )
  )
  (output_proj): ModuleList(
    (layers): ModuleList(
      (0): Linear(
        (w): Linear(in_features=768, out_features=768, bias=True)
      )
      (1): LayerNorm(
        (norm): LayerNorm((768,), eps=1e-06, elementwise_affine=True)
      )
      (2): Linear(
        (w): Linear(in_features=768, out_features=5000, bias=True)
      )
    )
  )
) loading from /scratch/flatala/speechbrain/transformer/results_no_lm/results_fold_5/conformer_small/7775/save/lm.ckpt, the transferred parameters did not have parameters for the key: encoder.layers.0.pos_ffn.ffn.0.bias
2025-03-21 00:25:50,602 - speechbrain.utils.checkpoints - WARNING - During parameter transfer to TransformerLM(
  (positional_encoding): PositionalEncoding()
  (encoder): TransformerEncoder(
    (layers): ModuleList(
      (0-11): 12 x TransformerEncoderLayer(
        (self_att): MultiheadAttention(
          (att): MultiheadAttention(
            (out_proj): NonDynamicallyQuantizableLinear(in_features=768, out_features=768, bias=True)
          )
        )
        (pos_ffn): PositionalwiseFeedForward(
          (ffn): Sequential(
            (0): Linear(in_features=768, out_features=3072, bias=True)
            (1): GELU(approximate='none')
            (2): Dropout(p=0.0, inplace=False)
            (3): Linear(in_features=3072, out_features=768, bias=True)
          )
        )
        (norm1): LayerNorm(
          (norm): LayerNorm((768,), eps=1e-06, elementwise_affine=True)
        )
        (norm2): LayerNorm(
          (norm): LayerNorm((768,), eps=1e-06, elementwise_affine=True)
        )
        (dropout1): Dropout(p=0.0, inplace=False)
        (dropout2): Dropout(p=0.0, inplace=False)
      )
    )
    (norm): LayerNorm(
      (norm): LayerNorm((768,), eps=1e-06, elementwise_affine=True)
    )
  )
  (custom_src_module): NormalizedEmbedding(
    (emb): Embedding(
      (Embedding): Embedding(5000, 768)
    )
  )
  (output_proj): ModuleList(
    (layers): ModuleList(
      (0): Linear(
        (w): Linear(in_features=768, out_features=768, bias=True)
      )
      (1): LayerNorm(
        (norm): LayerNorm((768,), eps=1e-06, elementwise_affine=True)
      )
      (2): Linear(
        (w): Linear(in_features=768, out_features=5000, bias=True)
      )
    )
  )
) loading from /scratch/flatala/speechbrain/transformer/results_no_lm/results_fold_5/conformer_small/7775/save/lm.ckpt, the transferred parameters did not have parameters for the key: encoder.layers.0.pos_ffn.ffn.3.weight
2025-03-21 00:25:50,602 - speechbrain.utils.checkpoints - WARNING - During parameter transfer to TransformerLM(
  (positional_encoding): PositionalEncoding()
  (encoder): TransformerEncoder(
    (layers): ModuleList(
      (0-11): 12 x TransformerEncoderLayer(
        (self_att): MultiheadAttention(
          (att): MultiheadAttention(
            (out_proj): NonDynamicallyQuantizableLinear(in_features=768, out_features=768, bias=True)
          )
        )
        (pos_ffn): PositionalwiseFeedForward(
          (ffn): Sequential(
            (0): Linear(in_features=768, out_features=3072, bias=True)
            (1): GELU(approximate='none')
            (2): Dropout(p=0.0, inplace=False)
            (3): Linear(in_features=3072, out_features=768, bias=True)
          )
        )
        (norm1): LayerNorm(
          (norm): LayerNorm((768,), eps=1e-06, elementwise_affine=True)
        )
        (norm2): LayerNorm(
          (norm): LayerNorm((768,), eps=1e-06, elementwise_affine=True)
        )
        (dropout1): Dropout(p=0.0, inplace=False)
        (dropout2): Dropout(p=0.0, inplace=False)
      )
    )
    (norm): LayerNorm(
      (norm): LayerNorm((768,), eps=1e-06, elementwise_affine=True)
    )
  )
  (custom_src_module): NormalizedEmbedding(
    (emb): Embedding(
      (Embedding): Embedding(5000, 768)
    )
  )
  (output_proj): ModuleList(
    (layers): ModuleList(
      (0): Linear(
        (w): Linear(in_features=768, out_features=768, bias=True)
      )
      (1): LayerNorm(
        (norm): LayerNorm((768,), eps=1e-06, elementwise_affine=True)
      )
      (2): Linear(
        (w): Linear(in_features=768, out_features=5000, bias=True)
      )
    )
  )
) loading from /scratch/flatala/speechbrain/transformer/results_no_lm/results_fold_5/conformer_small/7775/save/lm.ckpt, the transferred parameters did not have parameters for the key: encoder.layers.0.pos_ffn.ffn.3.bias
2025-03-21 00:25:50,603 - speechbrain.utils.checkpoints - WARNING - During parameter transfer to TransformerLM(
  (positional_encoding): PositionalEncoding()
  (encoder): TransformerEncoder(
    (layers): ModuleList(
      (0-11): 12 x TransformerEncoderLayer(
        (self_att): MultiheadAttention(
          (att): MultiheadAttention(
            (out_proj): NonDynamicallyQuantizableLinear(in_features=768, out_features=768, bias=True)
          )
        )
        (pos_ffn): PositionalwiseFeedForward(
          (ffn): Sequential(
            (0): Linear(in_features=768, out_features=3072, bias=True)
            (1): GELU(approximate='none')
            (2): Dropout(p=0.0, inplace=False)
            (3): Linear(in_features=3072, out_features=768, bias=True)
          )
        )
        (norm1): LayerNorm(
          (norm): LayerNorm((768,), eps=1e-06, elementwise_affine=True)
        )
        (norm2): LayerNorm(
          (norm): LayerNorm((768,), eps=1e-06, elementwise_affine=True)
        )
        (dropout1): Dropout(p=0.0, inplace=False)
        (dropout2): Dropout(p=0.0, inplace=False)
      )
    )
    (norm): LayerNorm(
      (norm): LayerNorm((768,), eps=1e-06, elementwise_affine=True)
    )
  )
  (custom_src_module): NormalizedEmbedding(
    (emb): Embedding(
      (Embedding): Embedding(5000, 768)
    )
  )
  (output_proj): ModuleList(
    (layers): ModuleList(
      (0): Linear(
        (w): Linear(in_features=768, out_features=768, bias=True)
      )
      (1): LayerNorm(
        (norm): LayerNorm((768,), eps=1e-06, elementwise_affine=True)
      )
      (2): Linear(
        (w): Linear(in_features=768, out_features=5000, bias=True)
      )
    )
  )
) loading from /scratch/flatala/speechbrain/transformer/results_no_lm/results_fold_5/conformer_small/7775/save/lm.ckpt, the transferred parameters did not have parameters for the key: encoder.layers.0.norm1.norm.weight
2025-03-21 00:25:50,604 - speechbrain.utils.checkpoints - WARNING - During parameter transfer to TransformerLM(
  (positional_encoding): PositionalEncoding()
  (encoder): TransformerEncoder(
    (layers): ModuleList(
      (0-11): 12 x TransformerEncoderLayer(
        (self_att): MultiheadAttention(
          (att): MultiheadAttention(
            (out_proj): NonDynamicallyQuantizableLinear(in_features=768, out_features=768, bias=True)
          )
        )
        (pos_ffn): PositionalwiseFeedForward(
          (ffn): Sequential(
            (0): Linear(in_features=768, out_features=3072, bias=True)
            (1): GELU(approximate='none')
            (2): Dropout(p=0.0, inplace=False)
            (3): Linear(in_features=3072, out_features=768, bias=True)
          )
        )
        (norm1): LayerNorm(
          (norm): LayerNorm((768,), eps=1e-06, elementwise_affine=True)
        )
        (norm2): LayerNorm(
          (norm): LayerNorm((768,), eps=1e-06, elementwise_affine=True)
        )
        (dropout1): Dropout(p=0.0, inplace=False)
        (dropout2): Dropout(p=0.0, inplace=False)
      )
    )
    (norm): LayerNorm(
      (norm): LayerNorm((768,), eps=1e-06, elementwise_affine=True)
    )
  )
  (custom_src_module): NormalizedEmbedding(
    (emb): Embedding(
      (Embedding): Embedding(5000, 768)
    )
  )
  (output_proj): ModuleList(
    (layers): ModuleList(
      (0): Linear(
        (w): Linear(in_features=768, out_features=768, bias=True)
      )
      (1): LayerNorm(
        (norm): LayerNorm((768,), eps=1e-06, elementwise_affine=True)
      )
      (2): Linear(
        (w): Linear(in_features=768, out_features=5000, bias=True)
      )
    )
  )
) loading from /scratch/flatala/speechbrain/transformer/results_no_lm/results_fold_5/conformer_small/7775/save/lm.ckpt, the transferred parameters did not have parameters for the key: encoder.layers.0.norm1.norm.bias
2025-03-21 00:25:50,604 - speechbrain.utils.checkpoints - WARNING - During parameter transfer to TransformerLM(
  (positional_encoding): PositionalEncoding()
  (encoder): TransformerEncoder(
    (layers): ModuleList(
      (0-11): 12 x TransformerEncoderLayer(
        (self_att): MultiheadAttention(
          (att): MultiheadAttention(
            (out_proj): NonDynamicallyQuantizableLinear(in_features=768, out_features=768, bias=True)
          )
        )
        (pos_ffn): PositionalwiseFeedForward(
          (ffn): Sequential(
            (0): Linear(in_features=768, out_features=3072, bias=True)
            (1): GELU(approximate='none')
            (2): Dropout(p=0.0, inplace=False)
            (3): Linear(in_features=3072, out_features=768, bias=True)
          )
        )
        (norm1): LayerNorm(
          (norm): LayerNorm((768,), eps=1e-06, elementwise_affine=True)
        )
        (norm2): LayerNorm(
          (norm): LayerNorm((768,), eps=1e-06, elementwise_affine=True)
        )
        (dropout1): Dropout(p=0.0, inplace=False)
        (dropout2): Dropout(p=0.0, inplace=False)
      )
    )
    (norm): LayerNorm(
      (norm): LayerNorm((768,), eps=1e-06, elementwise_affine=True)
    )
  )
  (custom_src_module): NormalizedEmbedding(
    (emb): Embedding(
      (Embedding): Embedding(5000, 768)
    )
  )
  (output_proj): ModuleList(
    (layers): ModuleList(
      (0): Linear(
        (w): Linear(in_features=768, out_features=768, bias=True)
      )
      (1): LayerNorm(
        (norm): LayerNorm((768,), eps=1e-06, elementwise_affine=True)
      )
      (2): Linear(
        (w): Linear(in_features=768, out_features=5000, bias=True)
      )
    )
  )
) loading from /scratch/flatala/speechbrain/transformer/results_no_lm/results_fold_5/conformer_small/7775/save/lm.ckpt, the transferred parameters did not have parameters for the key: encoder.layers.0.norm2.norm.weight
2025-03-21 00:25:50,605 - speechbrain.utils.checkpoints - WARNING - During parameter transfer to TransformerLM(
  (positional_encoding): PositionalEncoding()
  (encoder): TransformerEncoder(
    (layers): ModuleList(
      (0-11): 12 x TransformerEncoderLayer(
        (self_att): MultiheadAttention(
          (att): MultiheadAttention(
            (out_proj): NonDynamicallyQuantizableLinear(in_features=768, out_features=768, bias=True)
          )
        )
        (pos_ffn): PositionalwiseFeedForward(
          (ffn): Sequential(
            (0): Linear(in_features=768, out_features=3072, bias=True)
            (1): GELU(approximate='none')
            (2): Dropout(p=0.0, inplace=False)
            (3): Linear(in_features=3072, out_features=768, bias=True)
          )
        )
        (norm1): LayerNorm(
          (norm): LayerNorm((768,), eps=1e-06, elementwise_affine=True)
        )
        (norm2): LayerNorm(
          (norm): LayerNorm((768,), eps=1e-06, elementwise_affine=True)
        )
        (dropout1): Dropout(p=0.0, inplace=False)
        (dropout2): Dropout(p=0.0, inplace=False)
      )
    )
    (norm): LayerNorm(
      (norm): LayerNorm((768,), eps=1e-06, elementwise_affine=True)
    )
  )
  (custom_src_module): NormalizedEmbedding(
    (emb): Embedding(
      (Embedding): Embedding(5000, 768)
    )
  )
  (output_proj): ModuleList(
    (layers): ModuleList(
      (0): Linear(
        (w): Linear(in_features=768, out_features=768, bias=True)
      )
      (1): LayerNorm(
        (norm): LayerNorm((768,), eps=1e-06, elementwise_affine=True)
      )
      (2): Linear(
        (w): Linear(in_features=768, out_features=5000, bias=True)
      )
    )
  )
) loading from /scratch/flatala/speechbrain/transformer/results_no_lm/results_fold_5/conformer_small/7775/save/lm.ckpt, the transferred parameters did not have parameters for the key: encoder.layers.0.norm2.norm.bias
2025-03-21 00:25:50,605 - speechbrain.utils.checkpoints - WARNING - During parameter transfer to TransformerLM(
  (positional_encoding): PositionalEncoding()
  (encoder): TransformerEncoder(
    (layers): ModuleList(
      (0-11): 12 x TransformerEncoderLayer(
        (self_att): MultiheadAttention(
          (att): MultiheadAttention(
            (out_proj): NonDynamicallyQuantizableLinear(in_features=768, out_features=768, bias=True)
          )
        )
        (pos_ffn): PositionalwiseFeedForward(
          (ffn): Sequential(
            (0): Linear(in_features=768, out_features=3072, bias=True)
            (1): GELU(approximate='none')
            (2): Dropout(p=0.0, inplace=False)
            (3): Linear(in_features=3072, out_features=768, bias=True)
          )
        )
        (norm1): LayerNorm(
          (norm): LayerNorm((768,), eps=1e-06, elementwise_affine=True)
        )
        (norm2): LayerNorm(
          (norm): LayerNorm((768,), eps=1e-06, elementwise_affine=True)
        )
        (dropout1): Dropout(p=0.0, inplace=False)
        (dropout2): Dropout(p=0.0, inplace=False)
      )
    )
    (norm): LayerNorm(
      (norm): LayerNorm((768,), eps=1e-06, elementwise_affine=True)
    )
  )
  (custom_src_module): NormalizedEmbedding(
    (emb): Embedding(
      (Embedding): Embedding(5000, 768)
    )
  )
  (output_proj): ModuleList(
    (layers): ModuleList(
      (0): Linear(
        (w): Linear(in_features=768, out_features=768, bias=True)
      )
      (1): LayerNorm(
        (norm): LayerNorm((768,), eps=1e-06, elementwise_affine=True)
      )
      (2): Linear(
        (w): Linear(in_features=768, out_features=5000, bias=True)
      )
    )
  )
) loading from /scratch/flatala/speechbrain/transformer/results_no_lm/results_fold_5/conformer_small/7775/save/lm.ckpt, the transferred parameters did not have parameters for the key: encoder.layers.1.self_att.att.in_proj_weight
2025-03-21 00:25:50,606 - speechbrain.utils.checkpoints - WARNING - During parameter transfer to TransformerLM(
  (positional_encoding): PositionalEncoding()
  (encoder): TransformerEncoder(
    (layers): ModuleList(
      (0-11): 12 x TransformerEncoderLayer(
        (self_att): MultiheadAttention(
          (att): MultiheadAttention(
            (out_proj): NonDynamicallyQuantizableLinear(in_features=768, out_features=768, bias=True)
          )
        )
        (pos_ffn): PositionalwiseFeedForward(
          (ffn): Sequential(
            (0): Linear(in_features=768, out_features=3072, bias=True)
            (1): GELU(approximate='none')
            (2): Dropout(p=0.0, inplace=False)
            (3): Linear(in_features=3072, out_features=768, bias=True)
          )
        )
        (norm1): LayerNorm(
          (norm): LayerNorm((768,), eps=1e-06, elementwise_affine=True)
        )
        (norm2): LayerNorm(
          (norm): LayerNorm((768,), eps=1e-06, elementwise_affine=True)
        )
        (dropout1): Dropout(p=0.0, inplace=False)
        (dropout2): Dropout(p=0.0, inplace=False)
      )
    )
    (norm): LayerNorm(
      (norm): LayerNorm((768,), eps=1e-06, elementwise_affine=True)
    )
  )
  (custom_src_module): NormalizedEmbedding(
    (emb): Embedding(
      (Embedding): Embedding(5000, 768)
    )
  )
  (output_proj): ModuleList(
    (layers): ModuleList(
      (0): Linear(
        (w): Linear(in_features=768, out_features=768, bias=True)
      )
      (1): LayerNorm(
        (norm): LayerNorm((768,), eps=1e-06, elementwise_affine=True)
      )
      (2): Linear(
        (w): Linear(in_features=768, out_features=5000, bias=True)
      )
    )
  )
) loading from /scratch/flatala/speechbrain/transformer/results_no_lm/results_fold_5/conformer_small/7775/save/lm.ckpt, the transferred parameters did not have parameters for the key: encoder.layers.1.self_att.att.in_proj_bias
2025-03-21 00:25:50,606 - speechbrain.utils.checkpoints - WARNING - During parameter transfer to TransformerLM(
  (positional_encoding): PositionalEncoding()
  (encoder): TransformerEncoder(
    (layers): ModuleList(
      (0-11): 12 x TransformerEncoderLayer(
        (self_att): MultiheadAttention(
          (att): MultiheadAttention(
            (out_proj): NonDynamicallyQuantizableLinear(in_features=768, out_features=768, bias=True)
          )
        )
        (pos_ffn): PositionalwiseFeedForward(
          (ffn): Sequential(
            (0): Linear(in_features=768, out_features=3072, bias=True)
            (1): GELU(approximate='none')
            (2): Dropout(p=0.0, inplace=False)
            (3): Linear(in_features=3072, out_features=768, bias=True)
          )
        )
        (norm1): LayerNorm(
          (norm): LayerNorm((768,), eps=1e-06, elementwise_affine=True)
        )
        (norm2): LayerNorm(
          (norm): LayerNorm((768,), eps=1e-06, elementwise_affine=True)
        )
        (dropout1): Dropout(p=0.0, inplace=False)
        (dropout2): Dropout(p=0.0, inplace=False)
      )
    )
    (norm): LayerNorm(
      (norm): LayerNorm((768,), eps=1e-06, elementwise_affine=True)
    )
  )
  (custom_src_module): NormalizedEmbedding(
    (emb): Embedding(
      (Embedding): Embedding(5000, 768)
    )
  )
  (output_proj): ModuleList(
    (layers): ModuleList(
      (0): Linear(
        (w): Linear(in_features=768, out_features=768, bias=True)
      )
      (1): LayerNorm(
        (norm): LayerNorm((768,), eps=1e-06, elementwise_affine=True)
      )
      (2): Linear(
        (w): Linear(in_features=768, out_features=5000, bias=True)
      )
    )
  )
) loading from /scratch/flatala/speechbrain/transformer/results_no_lm/results_fold_5/conformer_small/7775/save/lm.ckpt, the transferred parameters did not have parameters for the key: encoder.layers.1.self_att.att.out_proj.weight
2025-03-21 00:25:50,607 - speechbrain.utils.checkpoints - WARNING - During parameter transfer to TransformerLM(
  (positional_encoding): PositionalEncoding()
  (encoder): TransformerEncoder(
    (layers): ModuleList(
      (0-11): 12 x TransformerEncoderLayer(
        (self_att): MultiheadAttention(
          (att): MultiheadAttention(
            (out_proj): NonDynamicallyQuantizableLinear(in_features=768, out_features=768, bias=True)
          )
        )
        (pos_ffn): PositionalwiseFeedForward(
          (ffn): Sequential(
            (0): Linear(in_features=768, out_features=3072, bias=True)
            (1): GELU(approximate='none')
            (2): Dropout(p=0.0, inplace=False)
            (3): Linear(in_features=3072, out_features=768, bias=True)
          )
        )
        (norm1): LayerNorm(
          (norm): LayerNorm((768,), eps=1e-06, elementwise_affine=True)
        )
        (norm2): LayerNorm(
          (norm): LayerNorm((768,), eps=1e-06, elementwise_affine=True)
        )
        (dropout1): Dropout(p=0.0, inplace=False)
        (dropout2): Dropout(p=0.0, inplace=False)
      )
    )
    (norm): LayerNorm(
      (norm): LayerNorm((768,), eps=1e-06, elementwise_affine=True)
    )
  )
  (custom_src_module): NormalizedEmbedding(
    (emb): Embedding(
      (Embedding): Embedding(5000, 768)
    )
  )
  (output_proj): ModuleList(
    (layers): ModuleList(
      (0): Linear(
        (w): Linear(in_features=768, out_features=768, bias=True)
      )
      (1): LayerNorm(
        (norm): LayerNorm((768,), eps=1e-06, elementwise_affine=True)
      )
      (2): Linear(
        (w): Linear(in_features=768, out_features=5000, bias=True)
      )
    )
  )
) loading from /scratch/flatala/speechbrain/transformer/results_no_lm/results_fold_5/conformer_small/7775/save/lm.ckpt, the transferred parameters did not have parameters for the key: encoder.layers.1.self_att.att.out_proj.bias
2025-03-21 00:25:50,608 - speechbrain.utils.checkpoints - WARNING - During parameter transfer to TransformerLM(
  (positional_encoding): PositionalEncoding()
  (encoder): TransformerEncoder(
    (layers): ModuleList(
      (0-11): 12 x TransformerEncoderLayer(
        (self_att): MultiheadAttention(
          (att): MultiheadAttention(
            (out_proj): NonDynamicallyQuantizableLinear(in_features=768, out_features=768, bias=True)
          )
        )
        (pos_ffn): PositionalwiseFeedForward(
          (ffn): Sequential(
            (0): Linear(in_features=768, out_features=3072, bias=True)
            (1): GELU(approximate='none')
            (2): Dropout(p=0.0, inplace=False)
            (3): Linear(in_features=3072, out_features=768, bias=True)
          )
        )
        (norm1): LayerNorm(
          (norm): LayerNorm((768,), eps=1e-06, elementwise_affine=True)
        )
        (norm2): LayerNorm(
          (norm): LayerNorm((768,), eps=1e-06, elementwise_affine=True)
        )
        (dropout1): Dropout(p=0.0, inplace=False)
        (dropout2): Dropout(p=0.0, inplace=False)
      )
    )
    (norm): LayerNorm(
      (norm): LayerNorm((768,), eps=1e-06, elementwise_affine=True)
    )
  )
  (custom_src_module): NormalizedEmbedding(
    (emb): Embedding(
      (Embedding): Embedding(5000, 768)
    )
  )
  (output_proj): ModuleList(
    (layers): ModuleList(
      (0): Linear(
        (w): Linear(in_features=768, out_features=768, bias=True)
      )
      (1): LayerNorm(
        (norm): LayerNorm((768,), eps=1e-06, elementwise_affine=True)
      )
      (2): Linear(
        (w): Linear(in_features=768, out_features=5000, bias=True)
      )
    )
  )
) loading from /scratch/flatala/speechbrain/transformer/results_no_lm/results_fold_5/conformer_small/7775/save/lm.ckpt, the transferred parameters did not have parameters for the key: encoder.layers.1.pos_ffn.ffn.0.weight
2025-03-21 00:25:50,608 - speechbrain.utils.checkpoints - WARNING - During parameter transfer to TransformerLM(
  (positional_encoding): PositionalEncoding()
  (encoder): TransformerEncoder(
    (layers): ModuleList(
      (0-11): 12 x TransformerEncoderLayer(
        (self_att): MultiheadAttention(
          (att): MultiheadAttention(
            (out_proj): NonDynamicallyQuantizableLinear(in_features=768, out_features=768, bias=True)
          )
        )
        (pos_ffn): PositionalwiseFeedForward(
          (ffn): Sequential(
            (0): Linear(in_features=768, out_features=3072, bias=True)
            (1): GELU(approximate='none')
            (2): Dropout(p=0.0, inplace=False)
            (3): Linear(in_features=3072, out_features=768, bias=True)
          )
        )
        (norm1): LayerNorm(
          (norm): LayerNorm((768,), eps=1e-06, elementwise_affine=True)
        )
        (norm2): LayerNorm(
          (norm): LayerNorm((768,), eps=1e-06, elementwise_affine=True)
        )
        (dropout1): Dropout(p=0.0, inplace=False)
        (dropout2): Dropout(p=0.0, inplace=False)
      )
    )
    (norm): LayerNorm(
      (norm): LayerNorm((768,), eps=1e-06, elementwise_affine=True)
    )
  )
  (custom_src_module): NormalizedEmbedding(
    (emb): Embedding(
      (Embedding): Embedding(5000, 768)
    )
  )
  (output_proj): ModuleList(
    (layers): ModuleList(
      (0): Linear(
        (w): Linear(in_features=768, out_features=768, bias=True)
      )
      (1): LayerNorm(
        (norm): LayerNorm((768,), eps=1e-06, elementwise_affine=True)
      )
      (2): Linear(
        (w): Linear(in_features=768, out_features=5000, bias=True)
      )
    )
  )
) loading from /scratch/flatala/speechbrain/transformer/results_no_lm/results_fold_5/conformer_small/7775/save/lm.ckpt, the transferred parameters did not have parameters for the key: encoder.layers.1.pos_ffn.ffn.0.bias
2025-03-21 00:25:50,609 - speechbrain.utils.checkpoints - WARNING - During parameter transfer to TransformerLM(
  (positional_encoding): PositionalEncoding()
  (encoder): TransformerEncoder(
    (layers): ModuleList(
      (0-11): 12 x TransformerEncoderLayer(
        (self_att): MultiheadAttention(
          (att): MultiheadAttention(
            (out_proj): NonDynamicallyQuantizableLinear(in_features=768, out_features=768, bias=True)
          )
        )
        (pos_ffn): PositionalwiseFeedForward(
          (ffn): Sequential(
            (0): Linear(in_features=768, out_features=3072, bias=True)
            (1): GELU(approximate='none')
            (2): Dropout(p=0.0, inplace=False)
            (3): Linear(in_features=3072, out_features=768, bias=True)
          )
        )
        (norm1): LayerNorm(
          (norm): LayerNorm((768,), eps=1e-06, elementwise_affine=True)
        )
        (norm2): LayerNorm(
          (norm): LayerNorm((768,), eps=1e-06, elementwise_affine=True)
        )
        (dropout1): Dropout(p=0.0, inplace=False)
        (dropout2): Dropout(p=0.0, inplace=False)
      )
    )
    (norm): LayerNorm(
      (norm): LayerNorm((768,), eps=1e-06, elementwise_affine=True)
    )
  )
  (custom_src_module): NormalizedEmbedding(
    (emb): Embedding(
      (Embedding): Embedding(5000, 768)
    )
  )
  (output_proj): ModuleList(
    (layers): ModuleList(
      (0): Linear(
        (w): Linear(in_features=768, out_features=768, bias=True)
      )
      (1): LayerNorm(
        (norm): LayerNorm((768,), eps=1e-06, elementwise_affine=True)
      )
      (2): Linear(
        (w): Linear(in_features=768, out_features=5000, bias=True)
      )
    )
  )
) loading from /scratch/flatala/speechbrain/transformer/results_no_lm/results_fold_5/conformer_small/7775/save/lm.ckpt, the transferred parameters did not have parameters for the key: encoder.layers.1.pos_ffn.ffn.3.weight
2025-03-21 00:25:50,609 - speechbrain.utils.checkpoints - WARNING - During parameter transfer to TransformerLM(
  (positional_encoding): PositionalEncoding()
  (encoder): TransformerEncoder(
    (layers): ModuleList(
      (0-11): 12 x TransformerEncoderLayer(
        (self_att): MultiheadAttention(
          (att): MultiheadAttention(
            (out_proj): NonDynamicallyQuantizableLinear(in_features=768, out_features=768, bias=True)
          )
        )
        (pos_ffn): PositionalwiseFeedForward(
          (ffn): Sequential(
            (0): Linear(in_features=768, out_features=3072, bias=True)
            (1): GELU(approximate='none')
            (2): Dropout(p=0.0, inplace=False)
            (3): Linear(in_features=3072, out_features=768, bias=True)
          )
        )
        (norm1): LayerNorm(
          (norm): LayerNorm((768,), eps=1e-06, elementwise_affine=True)
        )
        (norm2): LayerNorm(
          (norm): LayerNorm((768,), eps=1e-06, elementwise_affine=True)
        )
        (dropout1): Dropout(p=0.0, inplace=False)
        (dropout2): Dropout(p=0.0, inplace=False)
      )
    )
    (norm): LayerNorm(
      (norm): LayerNorm((768,), eps=1e-06, elementwise_affine=True)
    )
  )
  (custom_src_module): NormalizedEmbedding(
    (emb): Embedding(
      (Embedding): Embedding(5000, 768)
    )
  )
  (output_proj): ModuleList(
    (layers): ModuleList(
      (0): Linear(
        (w): Linear(in_features=768, out_features=768, bias=True)
      )
      (1): LayerNorm(
        (norm): LayerNorm((768,), eps=1e-06, elementwise_affine=True)
      )
      (2): Linear(
        (w): Linear(in_features=768, out_features=5000, bias=True)
      )
    )
  )
) loading from /scratch/flatala/speechbrain/transformer/results_no_lm/results_fold_5/conformer_small/7775/save/lm.ckpt, the transferred parameters did not have parameters for the key: encoder.layers.1.pos_ffn.ffn.3.bias
2025-03-21 00:25:50,609 - speechbrain.utils.checkpoints - WARNING - During parameter transfer to TransformerLM(
  (positional_encoding): PositionalEncoding()
  (encoder): TransformerEncoder(
    (layers): ModuleList(
      (0-11): 12 x TransformerEncoderLayer(
        (self_att): MultiheadAttention(
          (att): MultiheadAttention(
            (out_proj): NonDynamicallyQuantizableLinear(in_features=768, out_features=768, bias=True)
          )
        )
        (pos_ffn): PositionalwiseFeedForward(
          (ffn): Sequential(
            (0): Linear(in_features=768, out_features=3072, bias=True)
            (1): GELU(approximate='none')
            (2): Dropout(p=0.0, inplace=False)
            (3): Linear(in_features=3072, out_features=768, bias=True)
          )
        )
        (norm1): LayerNorm(
          (norm): LayerNorm((768,), eps=1e-06, elementwise_affine=True)
        )
        (norm2): LayerNorm(
          (norm): LayerNorm((768,), eps=1e-06, elementwise_affine=True)
        )
        (dropout1): Dropout(p=0.0, inplace=False)
        (dropout2): Dropout(p=0.0, inplace=False)
      )
    )
    (norm): LayerNorm(
      (norm): LayerNorm((768,), eps=1e-06, elementwise_affine=True)
    )
  )
  (custom_src_module): NormalizedEmbedding(
    (emb): Embedding(
      (Embedding): Embedding(5000, 768)
    )
  )
  (output_proj): ModuleList(
    (layers): ModuleList(
      (0): Linear(
        (w): Linear(in_features=768, out_features=768, bias=True)
      )
      (1): LayerNorm(
        (norm): LayerNorm((768,), eps=1e-06, elementwise_affine=True)
      )
      (2): Linear(
        (w): Linear(in_features=768, out_features=5000, bias=True)
      )
    )
  )
) loading from /scratch/flatala/speechbrain/transformer/results_no_lm/results_fold_5/conformer_small/7775/save/lm.ckpt, the transferred parameters did not have parameters for the key: encoder.layers.1.norm1.norm.weight
2025-03-21 00:25:50,610 - speechbrain.utils.checkpoints - WARNING - During parameter transfer to TransformerLM(
  (positional_encoding): PositionalEncoding()
  (encoder): TransformerEncoder(
    (layers): ModuleList(
      (0-11): 12 x TransformerEncoderLayer(
        (self_att): MultiheadAttention(
          (att): MultiheadAttention(
            (out_proj): NonDynamicallyQuantizableLinear(in_features=768, out_features=768, bias=True)
          )
        )
        (pos_ffn): PositionalwiseFeedForward(
          (ffn): Sequential(
            (0): Linear(in_features=768, out_features=3072, bias=True)
            (1): GELU(approximate='none')
            (2): Dropout(p=0.0, inplace=False)
            (3): Linear(in_features=3072, out_features=768, bias=True)
          )
        )
        (norm1): LayerNorm(
          (norm): LayerNorm((768,), eps=1e-06, elementwise_affine=True)
        )
        (norm2): LayerNorm(
          (norm): LayerNorm((768,), eps=1e-06, elementwise_affine=True)
        )
        (dropout1): Dropout(p=0.0, inplace=False)
        (dropout2): Dropout(p=0.0, inplace=False)
      )
    )
    (norm): LayerNorm(
      (norm): LayerNorm((768,), eps=1e-06, elementwise_affine=True)
    )
  )
  (custom_src_module): NormalizedEmbedding(
    (emb): Embedding(
      (Embedding): Embedding(5000, 768)
    )
  )
  (output_proj): ModuleList(
    (layers): ModuleList(
      (0): Linear(
        (w): Linear(in_features=768, out_features=768, bias=True)
      )
      (1): LayerNorm(
        (norm): LayerNorm((768,), eps=1e-06, elementwise_affine=True)
      )
      (2): Linear(
        (w): Linear(in_features=768, out_features=5000, bias=True)
      )
    )
  )
) loading from /scratch/flatala/speechbrain/transformer/results_no_lm/results_fold_5/conformer_small/7775/save/lm.ckpt, the transferred parameters did not have parameters for the key: encoder.layers.1.norm1.norm.bias
2025-03-21 00:25:50,610 - speechbrain.utils.checkpoints - WARNING - During parameter transfer to TransformerLM(
  (positional_encoding): PositionalEncoding()
  (encoder): TransformerEncoder(
    (layers): ModuleList(
      (0-11): 12 x TransformerEncoderLayer(
        (self_att): MultiheadAttention(
          (att): MultiheadAttention(
            (out_proj): NonDynamicallyQuantizableLinear(in_features=768, out_features=768, bias=True)
          )
        )
        (pos_ffn): PositionalwiseFeedForward(
          (ffn): Sequential(
            (0): Linear(in_features=768, out_features=3072, bias=True)
            (1): GELU(approximate='none')
            (2): Dropout(p=0.0, inplace=False)
            (3): Linear(in_features=3072, out_features=768, bias=True)
          )
        )
        (norm1): LayerNorm(
          (norm): LayerNorm((768,), eps=1e-06, elementwise_affine=True)
        )
        (norm2): LayerNorm(
          (norm): LayerNorm((768,), eps=1e-06, elementwise_affine=True)
        )
        (dropout1): Dropout(p=0.0, inplace=False)
        (dropout2): Dropout(p=0.0, inplace=False)
      )
    )
    (norm): LayerNorm(
      (norm): LayerNorm((768,), eps=1e-06, elementwise_affine=True)
    )
  )
  (custom_src_module): NormalizedEmbedding(
    (emb): Embedding(
      (Embedding): Embedding(5000, 768)
    )
  )
  (output_proj): ModuleList(
    (layers): ModuleList(
      (0): Linear(
        (w): Linear(in_features=768, out_features=768, bias=True)
      )
      (1): LayerNorm(
        (norm): LayerNorm((768,), eps=1e-06, elementwise_affine=True)
      )
      (2): Linear(
        (w): Linear(in_features=768, out_features=5000, bias=True)
      )
    )
  )
) loading from /scratch/flatala/speechbrain/transformer/results_no_lm/results_fold_5/conformer_small/7775/save/lm.ckpt, the transferred parameters did not have parameters for the key: encoder.layers.1.norm2.norm.weight
2025-03-21 00:25:50,611 - speechbrain.utils.checkpoints - WARNING - During parameter transfer to TransformerLM(
  (positional_encoding): PositionalEncoding()
  (encoder): TransformerEncoder(
    (layers): ModuleList(
      (0-11): 12 x TransformerEncoderLayer(
        (self_att): MultiheadAttention(
          (att): MultiheadAttention(
            (out_proj): NonDynamicallyQuantizableLinear(in_features=768, out_features=768, bias=True)
          )
        )
        (pos_ffn): PositionalwiseFeedForward(
          (ffn): Sequential(
            (0): Linear(in_features=768, out_features=3072, bias=True)
            (1): GELU(approximate='none')
            (2): Dropout(p=0.0, inplace=False)
            (3): Linear(in_features=3072, out_features=768, bias=True)
          )
        )
        (norm1): LayerNorm(
          (norm): LayerNorm((768,), eps=1e-06, elementwise_affine=True)
        )
        (norm2): LayerNorm(
          (norm): LayerNorm((768,), eps=1e-06, elementwise_affine=True)
        )
        (dropout1): Dropout(p=0.0, inplace=False)
        (dropout2): Dropout(p=0.0, inplace=False)
      )
    )
    (norm): LayerNorm(
      (norm): LayerNorm((768,), eps=1e-06, elementwise_affine=True)
    )
  )
  (custom_src_module): NormalizedEmbedding(
    (emb): Embedding(
      (Embedding): Embedding(5000, 768)
    )
  )
  (output_proj): ModuleList(
    (layers): ModuleList(
      (0): Linear(
        (w): Linear(in_features=768, out_features=768, bias=True)
      )
      (1): LayerNorm(
        (norm): LayerNorm((768,), eps=1e-06, elementwise_affine=True)
      )
      (2): Linear(
        (w): Linear(in_features=768, out_features=5000, bias=True)
      )
    )
  )
) loading from /scratch/flatala/speechbrain/transformer/results_no_lm/results_fold_5/conformer_small/7775/save/lm.ckpt, the transferred parameters did not have parameters for the key: encoder.layers.1.norm2.norm.bias
2025-03-21 00:25:50,611 - speechbrain.utils.checkpoints - WARNING - During parameter transfer to TransformerLM(
  (positional_encoding): PositionalEncoding()
  (encoder): TransformerEncoder(
    (layers): ModuleList(
      (0-11): 12 x TransformerEncoderLayer(
        (self_att): MultiheadAttention(
          (att): MultiheadAttention(
            (out_proj): NonDynamicallyQuantizableLinear(in_features=768, out_features=768, bias=True)
          )
        )
        (pos_ffn): PositionalwiseFeedForward(
          (ffn): Sequential(
            (0): Linear(in_features=768, out_features=3072, bias=True)
            (1): GELU(approximate='none')
            (2): Dropout(p=0.0, inplace=False)
            (3): Linear(in_features=3072, out_features=768, bias=True)
          )
        )
        (norm1): LayerNorm(
          (norm): LayerNorm((768,), eps=1e-06, elementwise_affine=True)
        )
        (norm2): LayerNorm(
          (norm): LayerNorm((768,), eps=1e-06, elementwise_affine=True)
        )
        (dropout1): Dropout(p=0.0, inplace=False)
        (dropout2): Dropout(p=0.0, inplace=False)
      )
    )
    (norm): LayerNorm(
      (norm): LayerNorm((768,), eps=1e-06, elementwise_affine=True)
    )
  )
  (custom_src_module): NormalizedEmbedding(
    (emb): Embedding(
      (Embedding): Embedding(5000, 768)
    )
  )
  (output_proj): ModuleList(
    (layers): ModuleList(
      (0): Linear(
        (w): Linear(in_features=768, out_features=768, bias=True)
      )
      (1): LayerNorm(
        (norm): LayerNorm((768,), eps=1e-06, elementwise_affine=True)
      )
      (2): Linear(
        (w): Linear(in_features=768, out_features=5000, bias=True)
      )
    )
  )
) loading from /scratch/flatala/speechbrain/transformer/results_no_lm/results_fold_5/conformer_small/7775/save/lm.ckpt, the transferred parameters did not have parameters for the key: encoder.layers.2.self_att.att.in_proj_weight
2025-03-21 00:25:50,612 - speechbrain.utils.checkpoints - WARNING - During parameter transfer to TransformerLM(
  (positional_encoding): PositionalEncoding()
  (encoder): TransformerEncoder(
    (layers): ModuleList(
      (0-11): 12 x TransformerEncoderLayer(
        (self_att): MultiheadAttention(
          (att): MultiheadAttention(
            (out_proj): NonDynamicallyQuantizableLinear(in_features=768, out_features=768, bias=True)
          )
        )
        (pos_ffn): PositionalwiseFeedForward(
          (ffn): Sequential(
            (0): Linear(in_features=768, out_features=3072, bias=True)
            (1): GELU(approximate='none')
            (2): Dropout(p=0.0, inplace=False)
            (3): Linear(in_features=3072, out_features=768, bias=True)
          )
        )
        (norm1): LayerNorm(
          (norm): LayerNorm((768,), eps=1e-06, elementwise_affine=True)
        )
        (norm2): LayerNorm(
          (norm): LayerNorm((768,), eps=1e-06, elementwise_affine=True)
        )
        (dropout1): Dropout(p=0.0, inplace=False)
        (dropout2): Dropout(p=0.0, inplace=False)
      )
    )
    (norm): LayerNorm(
      (norm): LayerNorm((768,), eps=1e-06, elementwise_affine=True)
    )
  )
  (custom_src_module): NormalizedEmbedding(
    (emb): Embedding(
      (Embedding): Embedding(5000, 768)
    )
  )
  (output_proj): ModuleList(
    (layers): ModuleList(
      (0): Linear(
        (w): Linear(in_features=768, out_features=768, bias=True)
      )
      (1): LayerNorm(
        (norm): LayerNorm((768,), eps=1e-06, elementwise_affine=True)
      )
      (2): Linear(
        (w): Linear(in_features=768, out_features=5000, bias=True)
      )
    )
  )
) loading from /scratch/flatala/speechbrain/transformer/results_no_lm/results_fold_5/conformer_small/7775/save/lm.ckpt, the transferred parameters did not have parameters for the key: encoder.layers.2.self_att.att.in_proj_bias
2025-03-21 00:25:50,612 - speechbrain.utils.checkpoints - WARNING - During parameter transfer to TransformerLM(
  (positional_encoding): PositionalEncoding()
  (encoder): TransformerEncoder(
    (layers): ModuleList(
      (0-11): 12 x TransformerEncoderLayer(
        (self_att): MultiheadAttention(
          (att): MultiheadAttention(
            (out_proj): NonDynamicallyQuantizableLinear(in_features=768, out_features=768, bias=True)
          )
        )
        (pos_ffn): PositionalwiseFeedForward(
          (ffn): Sequential(
            (0): Linear(in_features=768, out_features=3072, bias=True)
            (1): GELU(approximate='none')
            (2): Dropout(p=0.0, inplace=False)
            (3): Linear(in_features=3072, out_features=768, bias=True)
          )
        )
        (norm1): LayerNorm(
          (norm): LayerNorm((768,), eps=1e-06, elementwise_affine=True)
        )
        (norm2): LayerNorm(
          (norm): LayerNorm((768,), eps=1e-06, elementwise_affine=True)
        )
        (dropout1): Dropout(p=0.0, inplace=False)
        (dropout2): Dropout(p=0.0, inplace=False)
      )
    )
    (norm): LayerNorm(
      (norm): LayerNorm((768,), eps=1e-06, elementwise_affine=True)
    )
  )
  (custom_src_module): NormalizedEmbedding(
    (emb): Embedding(
      (Embedding): Embedding(5000, 768)
    )
  )
  (output_proj): ModuleList(
    (layers): ModuleList(
      (0): Linear(
        (w): Linear(in_features=768, out_features=768, bias=True)
      )
      (1): LayerNorm(
        (norm): LayerNorm((768,), eps=1e-06, elementwise_affine=True)
      )
      (2): Linear(
        (w): Linear(in_features=768, out_features=5000, bias=True)
      )
    )
  )
) loading from /scratch/flatala/speechbrain/transformer/results_no_lm/results_fold_5/conformer_small/7775/save/lm.ckpt, the transferred parameters did not have parameters for the key: encoder.layers.2.self_att.att.out_proj.weight
2025-03-21 00:25:50,613 - speechbrain.utils.checkpoints - WARNING - During parameter transfer to TransformerLM(
  (positional_encoding): PositionalEncoding()
  (encoder): TransformerEncoder(
    (layers): ModuleList(
      (0-11): 12 x TransformerEncoderLayer(
        (self_att): MultiheadAttention(
          (att): MultiheadAttention(
            (out_proj): NonDynamicallyQuantizableLinear(in_features=768, out_features=768, bias=True)
          )
        )
        (pos_ffn): PositionalwiseFeedForward(
          (ffn): Sequential(
            (0): Linear(in_features=768, out_features=3072, bias=True)
            (1): GELU(approximate='none')
            (2): Dropout(p=0.0, inplace=False)
            (3): Linear(in_features=3072, out_features=768, bias=True)
          )
        )
        (norm1): LayerNorm(
          (norm): LayerNorm((768,), eps=1e-06, elementwise_affine=True)
        )
        (norm2): LayerNorm(
          (norm): LayerNorm((768,), eps=1e-06, elementwise_affine=True)
        )
        (dropout1): Dropout(p=0.0, inplace=False)
        (dropout2): Dropout(p=0.0, inplace=False)
      )
    )
    (norm): LayerNorm(
      (norm): LayerNorm((768,), eps=1e-06, elementwise_affine=True)
    )
  )
  (custom_src_module): NormalizedEmbedding(
    (emb): Embedding(
      (Embedding): Embedding(5000, 768)
    )
  )
  (output_proj): ModuleList(
    (layers): ModuleList(
      (0): Linear(
        (w): Linear(in_features=768, out_features=768, bias=True)
      )
      (1): LayerNorm(
        (norm): LayerNorm((768,), eps=1e-06, elementwise_affine=True)
      )
      (2): Linear(
        (w): Linear(in_features=768, out_features=5000, bias=True)
      )
    )
  )
) loading from /scratch/flatala/speechbrain/transformer/results_no_lm/results_fold_5/conformer_small/7775/save/lm.ckpt, the transferred parameters did not have parameters for the key: encoder.layers.2.self_att.att.out_proj.bias
2025-03-21 00:25:50,613 - speechbrain.utils.checkpoints - WARNING - During parameter transfer to TransformerLM(
  (positional_encoding): PositionalEncoding()
  (encoder): TransformerEncoder(
    (layers): ModuleList(
      (0-11): 12 x TransformerEncoderLayer(
        (self_att): MultiheadAttention(
          (att): MultiheadAttention(
            (out_proj): NonDynamicallyQuantizableLinear(in_features=768, out_features=768, bias=True)
          )
        )
        (pos_ffn): PositionalwiseFeedForward(
          (ffn): Sequential(
            (0): Linear(in_features=768, out_features=3072, bias=True)
            (1): GELU(approximate='none')
            (2): Dropout(p=0.0, inplace=False)
            (3): Linear(in_features=3072, out_features=768, bias=True)
          )
        )
        (norm1): LayerNorm(
          (norm): LayerNorm((768,), eps=1e-06, elementwise_affine=True)
        )
        (norm2): LayerNorm(
          (norm): LayerNorm((768,), eps=1e-06, elementwise_affine=True)
        )
        (dropout1): Dropout(p=0.0, inplace=False)
        (dropout2): Dropout(p=0.0, inplace=False)
      )
    )
    (norm): LayerNorm(
      (norm): LayerNorm((768,), eps=1e-06, elementwise_affine=True)
    )
  )
  (custom_src_module): NormalizedEmbedding(
    (emb): Embedding(
      (Embedding): Embedding(5000, 768)
    )
  )
  (output_proj): ModuleList(
    (layers): ModuleList(
      (0): Linear(
        (w): Linear(in_features=768, out_features=768, bias=True)
      )
      (1): LayerNorm(
        (norm): LayerNorm((768,), eps=1e-06, elementwise_affine=True)
      )
      (2): Linear(
        (w): Linear(in_features=768, out_features=5000, bias=True)
      )
    )
  )
) loading from /scratch/flatala/speechbrain/transformer/results_no_lm/results_fold_5/conformer_small/7775/save/lm.ckpt, the transferred parameters did not have parameters for the key: encoder.layers.2.pos_ffn.ffn.0.weight
2025-03-21 00:25:50,614 - speechbrain.utils.checkpoints - WARNING - During parameter transfer to TransformerLM(
  (positional_encoding): PositionalEncoding()
  (encoder): TransformerEncoder(
    (layers): ModuleList(
      (0-11): 12 x TransformerEncoderLayer(
        (self_att): MultiheadAttention(
          (att): MultiheadAttention(
            (out_proj): NonDynamicallyQuantizableLinear(in_features=768, out_features=768, bias=True)
          )
        )
        (pos_ffn): PositionalwiseFeedForward(
          (ffn): Sequential(
            (0): Linear(in_features=768, out_features=3072, bias=True)
            (1): GELU(approximate='none')
            (2): Dropout(p=0.0, inplace=False)
            (3): Linear(in_features=3072, out_features=768, bias=True)
          )
        )
        (norm1): LayerNorm(
          (norm): LayerNorm((768,), eps=1e-06, elementwise_affine=True)
        )
        (norm2): LayerNorm(
          (norm): LayerNorm((768,), eps=1e-06, elementwise_affine=True)
        )
        (dropout1): Dropout(p=0.0, inplace=False)
        (dropout2): Dropout(p=0.0, inplace=False)
      )
    )
    (norm): LayerNorm(
      (norm): LayerNorm((768,), eps=1e-06, elementwise_affine=True)
    )
  )
  (custom_src_module): NormalizedEmbedding(
    (emb): Embedding(
      (Embedding): Embedding(5000, 768)
    )
  )
  (output_proj): ModuleList(
    (layers): ModuleList(
      (0): Linear(
        (w): Linear(in_features=768, out_features=768, bias=True)
      )
      (1): LayerNorm(
        (norm): LayerNorm((768,), eps=1e-06, elementwise_affine=True)
      )
      (2): Linear(
        (w): Linear(in_features=768, out_features=5000, bias=True)
      )
    )
  )
) loading from /scratch/flatala/speechbrain/transformer/results_no_lm/results_fold_5/conformer_small/7775/save/lm.ckpt, the transferred parameters did not have parameters for the key: encoder.layers.2.pos_ffn.ffn.0.bias
2025-03-21 00:25:50,614 - speechbrain.utils.checkpoints - WARNING - During parameter transfer to TransformerLM(
  (positional_encoding): PositionalEncoding()
  (encoder): TransformerEncoder(
    (layers): ModuleList(
      (0-11): 12 x TransformerEncoderLayer(
        (self_att): MultiheadAttention(
          (att): MultiheadAttention(
            (out_proj): NonDynamicallyQuantizableLinear(in_features=768, out_features=768, bias=True)
          )
        )
        (pos_ffn): PositionalwiseFeedForward(
          (ffn): Sequential(
            (0): Linear(in_features=768, out_features=3072, bias=True)
            (1): GELU(approximate='none')
            (2): Dropout(p=0.0, inplace=False)
            (3): Linear(in_features=3072, out_features=768, bias=True)
          )
        )
        (norm1): LayerNorm(
          (norm): LayerNorm((768,), eps=1e-06, elementwise_affine=True)
        )
        (norm2): LayerNorm(
          (norm): LayerNorm((768,), eps=1e-06, elementwise_affine=True)
        )
        (dropout1): Dropout(p=0.0, inplace=False)
        (dropout2): Dropout(p=0.0, inplace=False)
      )
    )
    (norm): LayerNorm(
      (norm): LayerNorm((768,), eps=1e-06, elementwise_affine=True)
    )
  )
  (custom_src_module): NormalizedEmbedding(
    (emb): Embedding(
      (Embedding): Embedding(5000, 768)
    )
  )
  (output_proj): ModuleList(
    (layers): ModuleList(
      (0): Linear(
        (w): Linear(in_features=768, out_features=768, bias=True)
      )
      (1): LayerNorm(
        (norm): LayerNorm((768,), eps=1e-06, elementwise_affine=True)
      )
      (2): Linear(
        (w): Linear(in_features=768, out_features=5000, bias=True)
      )
    )
  )
) loading from /scratch/flatala/speechbrain/transformer/results_no_lm/results_fold_5/conformer_small/7775/save/lm.ckpt, the transferred parameters did not have parameters for the key: encoder.layers.2.pos_ffn.ffn.3.weight
2025-03-21 00:25:50,615 - speechbrain.utils.checkpoints - WARNING - During parameter transfer to TransformerLM(
  (positional_encoding): PositionalEncoding()
  (encoder): TransformerEncoder(
    (layers): ModuleList(
      (0-11): 12 x TransformerEncoderLayer(
        (self_att): MultiheadAttention(
          (att): MultiheadAttention(
            (out_proj): NonDynamicallyQuantizableLinear(in_features=768, out_features=768, bias=True)
          )
        )
        (pos_ffn): PositionalwiseFeedForward(
          (ffn): Sequential(
            (0): Linear(in_features=768, out_features=3072, bias=True)
            (1): GELU(approximate='none')
            (2): Dropout(p=0.0, inplace=False)
            (3): Linear(in_features=3072, out_features=768, bias=True)
          )
        )
        (norm1): LayerNorm(
          (norm): LayerNorm((768,), eps=1e-06, elementwise_affine=True)
        )
        (norm2): LayerNorm(
          (norm): LayerNorm((768,), eps=1e-06, elementwise_affine=True)
        )
        (dropout1): Dropout(p=0.0, inplace=False)
        (dropout2): Dropout(p=0.0, inplace=False)
      )
    )
    (norm): LayerNorm(
      (norm): LayerNorm((768,), eps=1e-06, elementwise_affine=True)
    )
  )
  (custom_src_module): NormalizedEmbedding(
    (emb): Embedding(
      (Embedding): Embedding(5000, 768)
    )
  )
  (output_proj): ModuleList(
    (layers): ModuleList(
      (0): Linear(
        (w): Linear(in_features=768, out_features=768, bias=True)
      )
      (1): LayerNorm(
        (norm): LayerNorm((768,), eps=1e-06, elementwise_affine=True)
      )
      (2): Linear(
        (w): Linear(in_features=768, out_features=5000, bias=True)
      )
    )
  )
) loading from /scratch/flatala/speechbrain/transformer/results_no_lm/results_fold_5/conformer_small/7775/save/lm.ckpt, the transferred parameters did not have parameters for the key: encoder.layers.2.pos_ffn.ffn.3.bias
2025-03-21 00:25:50,615 - speechbrain.utils.checkpoints - WARNING - During parameter transfer to TransformerLM(
  (positional_encoding): PositionalEncoding()
  (encoder): TransformerEncoder(
    (layers): ModuleList(
      (0-11): 12 x TransformerEncoderLayer(
        (self_att): MultiheadAttention(
          (att): MultiheadAttention(
            (out_proj): NonDynamicallyQuantizableLinear(in_features=768, out_features=768, bias=True)
          )
        )
        (pos_ffn): PositionalwiseFeedForward(
          (ffn): Sequential(
            (0): Linear(in_features=768, out_features=3072, bias=True)
            (1): GELU(approximate='none')
            (2): Dropout(p=0.0, inplace=False)
            (3): Linear(in_features=3072, out_features=768, bias=True)
          )
        )
        (norm1): LayerNorm(
          (norm): LayerNorm((768,), eps=1e-06, elementwise_affine=True)
        )
        (norm2): LayerNorm(
          (norm): LayerNorm((768,), eps=1e-06, elementwise_affine=True)
        )
        (dropout1): Dropout(p=0.0, inplace=False)
        (dropout2): Dropout(p=0.0, inplace=False)
      )
    )
    (norm): LayerNorm(
      (norm): LayerNorm((768,), eps=1e-06, elementwise_affine=True)
    )
  )
  (custom_src_module): NormalizedEmbedding(
    (emb): Embedding(
      (Embedding): Embedding(5000, 768)
    )
  )
  (output_proj): ModuleList(
    (layers): ModuleList(
      (0): Linear(
        (w): Linear(in_features=768, out_features=768, bias=True)
      )
      (1): LayerNorm(
        (norm): LayerNorm((768,), eps=1e-06, elementwise_affine=True)
      )
      (2): Linear(
        (w): Linear(in_features=768, out_features=5000, bias=True)
      )
    )
  )
) loading from /scratch/flatala/speechbrain/transformer/results_no_lm/results_fold_5/conformer_small/7775/save/lm.ckpt, the transferred parameters did not have parameters for the key: encoder.layers.2.norm1.norm.weight
2025-03-21 00:25:50,616 - speechbrain.utils.checkpoints - WARNING - During parameter transfer to TransformerLM(
  (positional_encoding): PositionalEncoding()
  (encoder): TransformerEncoder(
    (layers): ModuleList(
      (0-11): 12 x TransformerEncoderLayer(
        (self_att): MultiheadAttention(
          (att): MultiheadAttention(
            (out_proj): NonDynamicallyQuantizableLinear(in_features=768, out_features=768, bias=True)
          )
        )
        (pos_ffn): PositionalwiseFeedForward(
          (ffn): Sequential(
            (0): Linear(in_features=768, out_features=3072, bias=True)
            (1): GELU(approximate='none')
            (2): Dropout(p=0.0, inplace=False)
            (3): Linear(in_features=3072, out_features=768, bias=True)
          )
        )
        (norm1): LayerNorm(
          (norm): LayerNorm((768,), eps=1e-06, elementwise_affine=True)
        )
        (norm2): LayerNorm(
          (norm): LayerNorm((768,), eps=1e-06, elementwise_affine=True)
        )
        (dropout1): Dropout(p=0.0, inplace=False)
        (dropout2): Dropout(p=0.0, inplace=False)
      )
    )
    (norm): LayerNorm(
      (norm): LayerNorm((768,), eps=1e-06, elementwise_affine=True)
    )
  )
  (custom_src_module): NormalizedEmbedding(
    (emb): Embedding(
      (Embedding): Embedding(5000, 768)
    )
  )
  (output_proj): ModuleList(
    (layers): ModuleList(
      (0): Linear(
        (w): Linear(in_features=768, out_features=768, bias=True)
      )
      (1): LayerNorm(
        (norm): LayerNorm((768,), eps=1e-06, elementwise_affine=True)
      )
      (2): Linear(
        (w): Linear(in_features=768, out_features=5000, bias=True)
      )
    )
  )
) loading from /scratch/flatala/speechbrain/transformer/results_no_lm/results_fold_5/conformer_small/7775/save/lm.ckpt, the transferred parameters did not have parameters for the key: encoder.layers.2.norm1.norm.bias
2025-03-21 00:25:50,616 - speechbrain.utils.checkpoints - WARNING - During parameter transfer to TransformerLM(
  (positional_encoding): PositionalEncoding()
  (encoder): TransformerEncoder(
    (layers): ModuleList(
      (0-11): 12 x TransformerEncoderLayer(
        (self_att): MultiheadAttention(
          (att): MultiheadAttention(
            (out_proj): NonDynamicallyQuantizableLinear(in_features=768, out_features=768, bias=True)
          )
        )
        (pos_ffn): PositionalwiseFeedForward(
          (ffn): Sequential(
            (0): Linear(in_features=768, out_features=3072, bias=True)
            (1): GELU(approximate='none')
            (2): Dropout(p=0.0, inplace=False)
            (3): Linear(in_features=3072, out_features=768, bias=True)
          )
        )
        (norm1): LayerNorm(
          (norm): LayerNorm((768,), eps=1e-06, elementwise_affine=True)
        )
        (norm2): LayerNorm(
          (norm): LayerNorm((768,), eps=1e-06, elementwise_affine=True)
        )
        (dropout1): Dropout(p=0.0, inplace=False)
        (dropout2): Dropout(p=0.0, inplace=False)
      )
    )
    (norm): LayerNorm(
      (norm): LayerNorm((768,), eps=1e-06, elementwise_affine=True)
    )
  )
  (custom_src_module): NormalizedEmbedding(
    (emb): Embedding(
      (Embedding): Embedding(5000, 768)
    )
  )
  (output_proj): ModuleList(
    (layers): ModuleList(
      (0): Linear(
        (w): Linear(in_features=768, out_features=768, bias=True)
      )
      (1): LayerNorm(
        (norm): LayerNorm((768,), eps=1e-06, elementwise_affine=True)
      )
      (2): Linear(
        (w): Linear(in_features=768, out_features=5000, bias=True)
      )
    )
  )
) loading from /scratch/flatala/speechbrain/transformer/results_no_lm/results_fold_5/conformer_small/7775/save/lm.ckpt, the transferred parameters did not have parameters for the key: encoder.layers.2.norm2.norm.weight
2025-03-21 00:25:50,617 - speechbrain.utils.checkpoints - WARNING - During parameter transfer to TransformerLM(
  (positional_encoding): PositionalEncoding()
  (encoder): TransformerEncoder(
    (layers): ModuleList(
      (0-11): 12 x TransformerEncoderLayer(
        (self_att): MultiheadAttention(
          (att): MultiheadAttention(
            (out_proj): NonDynamicallyQuantizableLinear(in_features=768, out_features=768, bias=True)
          )
        )
        (pos_ffn): PositionalwiseFeedForward(
          (ffn): Sequential(
            (0): Linear(in_features=768, out_features=3072, bias=True)
            (1): GELU(approximate='none')
            (2): Dropout(p=0.0, inplace=False)
            (3): Linear(in_features=3072, out_features=768, bias=True)
          )
        )
        (norm1): LayerNorm(
          (norm): LayerNorm((768,), eps=1e-06, elementwise_affine=True)
        )
        (norm2): LayerNorm(
          (norm): LayerNorm((768,), eps=1e-06, elementwise_affine=True)
        )
        (dropout1): Dropout(p=0.0, inplace=False)
        (dropout2): Dropout(p=0.0, inplace=False)
      )
    )
    (norm): LayerNorm(
      (norm): LayerNorm((768,), eps=1e-06, elementwise_affine=True)
    )
  )
  (custom_src_module): NormalizedEmbedding(
    (emb): Embedding(
      (Embedding): Embedding(5000, 768)
    )
  )
  (output_proj): ModuleList(
    (layers): ModuleList(
      (0): Linear(
        (w): Linear(in_features=768, out_features=768, bias=True)
      )
      (1): LayerNorm(
        (norm): LayerNorm((768,), eps=1e-06, elementwise_affine=True)
      )
      (2): Linear(
        (w): Linear(in_features=768, out_features=5000, bias=True)
      )
    )
  )
) loading from /scratch/flatala/speechbrain/transformer/results_no_lm/results_fold_5/conformer_small/7775/save/lm.ckpt, the transferred parameters did not have parameters for the key: encoder.layers.2.norm2.norm.bias
2025-03-21 00:25:50,617 - speechbrain.utils.checkpoints - WARNING - During parameter transfer to TransformerLM(
  (positional_encoding): PositionalEncoding()
  (encoder): TransformerEncoder(
    (layers): ModuleList(
      (0-11): 12 x TransformerEncoderLayer(
        (self_att): MultiheadAttention(
          (att): MultiheadAttention(
            (out_proj): NonDynamicallyQuantizableLinear(in_features=768, out_features=768, bias=True)
          )
        )
        (pos_ffn): PositionalwiseFeedForward(
          (ffn): Sequential(
            (0): Linear(in_features=768, out_features=3072, bias=True)
            (1): GELU(approximate='none')
            (2): Dropout(p=0.0, inplace=False)
            (3): Linear(in_features=3072, out_features=768, bias=True)
          )
        )
        (norm1): LayerNorm(
          (norm): LayerNorm((768,), eps=1e-06, elementwise_affine=True)
        )
        (norm2): LayerNorm(
          (norm): LayerNorm((768,), eps=1e-06, elementwise_affine=True)
        )
        (dropout1): Dropout(p=0.0, inplace=False)
        (dropout2): Dropout(p=0.0, inplace=False)
      )
    )
    (norm): LayerNorm(
      (norm): LayerNorm((768,), eps=1e-06, elementwise_affine=True)
    )
  )
  (custom_src_module): NormalizedEmbedding(
    (emb): Embedding(
      (Embedding): Embedding(5000, 768)
    )
  )
  (output_proj): ModuleList(
    (layers): ModuleList(
      (0): Linear(
        (w): Linear(in_features=768, out_features=768, bias=True)
      )
      (1): LayerNorm(
        (norm): LayerNorm((768,), eps=1e-06, elementwise_affine=True)
      )
      (2): Linear(
        (w): Linear(in_features=768, out_features=5000, bias=True)
      )
    )
  )
) loading from /scratch/flatala/speechbrain/transformer/results_no_lm/results_fold_5/conformer_small/7775/save/lm.ckpt, the transferred parameters did not have parameters for the key: encoder.layers.3.self_att.att.in_proj_weight
2025-03-21 00:25:50,618 - speechbrain.utils.checkpoints - WARNING - During parameter transfer to TransformerLM(
  (positional_encoding): PositionalEncoding()
  (encoder): TransformerEncoder(
    (layers): ModuleList(
      (0-11): 12 x TransformerEncoderLayer(
        (self_att): MultiheadAttention(
          (att): MultiheadAttention(
            (out_proj): NonDynamicallyQuantizableLinear(in_features=768, out_features=768, bias=True)
          )
        )
        (pos_ffn): PositionalwiseFeedForward(
          (ffn): Sequential(
            (0): Linear(in_features=768, out_features=3072, bias=True)
            (1): GELU(approximate='none')
            (2): Dropout(p=0.0, inplace=False)
            (3): Linear(in_features=3072, out_features=768, bias=True)
          )
        )
        (norm1): LayerNorm(
          (norm): LayerNorm((768,), eps=1e-06, elementwise_affine=True)
        )
        (norm2): LayerNorm(
          (norm): LayerNorm((768,), eps=1e-06, elementwise_affine=True)
        )
        (dropout1): Dropout(p=0.0, inplace=False)
        (dropout2): Dropout(p=0.0, inplace=False)
      )
    )
    (norm): LayerNorm(
      (norm): LayerNorm((768,), eps=1e-06, elementwise_affine=True)
    )
  )
  (custom_src_module): NormalizedEmbedding(
    (emb): Embedding(
      (Embedding): Embedding(5000, 768)
    )
  )
  (output_proj): ModuleList(
    (layers): ModuleList(
      (0): Linear(
        (w): Linear(in_features=768, out_features=768, bias=True)
      )
      (1): LayerNorm(
        (norm): LayerNorm((768,), eps=1e-06, elementwise_affine=True)
      )
      (2): Linear(
        (w): Linear(in_features=768, out_features=5000, bias=True)
      )
    )
  )
) loading from /scratch/flatala/speechbrain/transformer/results_no_lm/results_fold_5/conformer_small/7775/save/lm.ckpt, the transferred parameters did not have parameters for the key: encoder.layers.3.self_att.att.in_proj_bias
2025-03-21 00:25:50,618 - speechbrain.utils.checkpoints - WARNING - During parameter transfer to TransformerLM(
  (positional_encoding): PositionalEncoding()
  (encoder): TransformerEncoder(
    (layers): ModuleList(
      (0-11): 12 x TransformerEncoderLayer(
        (self_att): MultiheadAttention(
          (att): MultiheadAttention(
            (out_proj): NonDynamicallyQuantizableLinear(in_features=768, out_features=768, bias=True)
          )
        )
        (pos_ffn): PositionalwiseFeedForward(
          (ffn): Sequential(
            (0): Linear(in_features=768, out_features=3072, bias=True)
            (1): GELU(approximate='none')
            (2): Dropout(p=0.0, inplace=False)
            (3): Linear(in_features=3072, out_features=768, bias=True)
          )
        )
        (norm1): LayerNorm(
          (norm): LayerNorm((768,), eps=1e-06, elementwise_affine=True)
        )
        (norm2): LayerNorm(
          (norm): LayerNorm((768,), eps=1e-06, elementwise_affine=True)
        )
        (dropout1): Dropout(p=0.0, inplace=False)
        (dropout2): Dropout(p=0.0, inplace=False)
      )
    )
    (norm): LayerNorm(
      (norm): LayerNorm((768,), eps=1e-06, elementwise_affine=True)
    )
  )
  (custom_src_module): NormalizedEmbedding(
    (emb): Embedding(
      (Embedding): Embedding(5000, 768)
    )
  )
  (output_proj): ModuleList(
    (layers): ModuleList(
      (0): Linear(
        (w): Linear(in_features=768, out_features=768, bias=True)
      )
      (1): LayerNorm(
        (norm): LayerNorm((768,), eps=1e-06, elementwise_affine=True)
      )
      (2): Linear(
        (w): Linear(in_features=768, out_features=5000, bias=True)
      )
    )
  )
) loading from /scratch/flatala/speechbrain/transformer/results_no_lm/results_fold_5/conformer_small/7775/save/lm.ckpt, the transferred parameters did not have parameters for the key: encoder.layers.3.self_att.att.out_proj.weight
2025-03-21 00:25:50,619 - speechbrain.utils.checkpoints - WARNING - During parameter transfer to TransformerLM(
  (positional_encoding): PositionalEncoding()
  (encoder): TransformerEncoder(
    (layers): ModuleList(
      (0-11): 12 x TransformerEncoderLayer(
        (self_att): MultiheadAttention(
          (att): MultiheadAttention(
            (out_proj): NonDynamicallyQuantizableLinear(in_features=768, out_features=768, bias=True)
          )
        )
        (pos_ffn): PositionalwiseFeedForward(
          (ffn): Sequential(
            (0): Linear(in_features=768, out_features=3072, bias=True)
            (1): GELU(approximate='none')
            (2): Dropout(p=0.0, inplace=False)
            (3): Linear(in_features=3072, out_features=768, bias=True)
          )
        )
        (norm1): LayerNorm(
          (norm): LayerNorm((768,), eps=1e-06, elementwise_affine=True)
        )
        (norm2): LayerNorm(
          (norm): LayerNorm((768,), eps=1e-06, elementwise_affine=True)
        )
        (dropout1): Dropout(p=0.0, inplace=False)
        (dropout2): Dropout(p=0.0, inplace=False)
      )
    )
    (norm): LayerNorm(
      (norm): LayerNorm((768,), eps=1e-06, elementwise_affine=True)
    )
  )
  (custom_src_module): NormalizedEmbedding(
    (emb): Embedding(
      (Embedding): Embedding(5000, 768)
    )
  )
  (output_proj): ModuleList(
    (layers): ModuleList(
      (0): Linear(
        (w): Linear(in_features=768, out_features=768, bias=True)
      )
      (1): LayerNorm(
        (norm): LayerNorm((768,), eps=1e-06, elementwise_affine=True)
      )
      (2): Linear(
        (w): Linear(in_features=768, out_features=5000, bias=True)
      )
    )
  )
) loading from /scratch/flatala/speechbrain/transformer/results_no_lm/results_fold_5/conformer_small/7775/save/lm.ckpt, the transferred parameters did not have parameters for the key: encoder.layers.3.self_att.att.out_proj.bias
2025-03-21 00:25:50,619 - speechbrain.utils.checkpoints - WARNING - During parameter transfer to TransformerLM(
  (positional_encoding): PositionalEncoding()
  (encoder): TransformerEncoder(
    (layers): ModuleList(
      (0-11): 12 x TransformerEncoderLayer(
        (self_att): MultiheadAttention(
          (att): MultiheadAttention(
            (out_proj): NonDynamicallyQuantizableLinear(in_features=768, out_features=768, bias=True)
          )
        )
        (pos_ffn): PositionalwiseFeedForward(
          (ffn): Sequential(
            (0): Linear(in_features=768, out_features=3072, bias=True)
            (1): GELU(approximate='none')
            (2): Dropout(p=0.0, inplace=False)
            (3): Linear(in_features=3072, out_features=768, bias=True)
          )
        )
        (norm1): LayerNorm(
          (norm): LayerNorm((768,), eps=1e-06, elementwise_affine=True)
        )
        (norm2): LayerNorm(
          (norm): LayerNorm((768,), eps=1e-06, elementwise_affine=True)
        )
        (dropout1): Dropout(p=0.0, inplace=False)
        (dropout2): Dropout(p=0.0, inplace=False)
      )
    )
    (norm): LayerNorm(
      (norm): LayerNorm((768,), eps=1e-06, elementwise_affine=True)
    )
  )
  (custom_src_module): NormalizedEmbedding(
    (emb): Embedding(
      (Embedding): Embedding(5000, 768)
    )
  )
  (output_proj): ModuleList(
    (layers): ModuleList(
      (0): Linear(
        (w): Linear(in_features=768, out_features=768, bias=True)
      )
      (1): LayerNorm(
        (norm): LayerNorm((768,), eps=1e-06, elementwise_affine=True)
      )
      (2): Linear(
        (w): Linear(in_features=768, out_features=5000, bias=True)
      )
    )
  )
) loading from /scratch/flatala/speechbrain/transformer/results_no_lm/results_fold_5/conformer_small/7775/save/lm.ckpt, the transferred parameters did not have parameters for the key: encoder.layers.3.pos_ffn.ffn.0.weight
2025-03-21 00:25:50,620 - speechbrain.utils.checkpoints - WARNING - During parameter transfer to TransformerLM(
  (positional_encoding): PositionalEncoding()
  (encoder): TransformerEncoder(
    (layers): ModuleList(
      (0-11): 12 x TransformerEncoderLayer(
        (self_att): MultiheadAttention(
          (att): MultiheadAttention(
            (out_proj): NonDynamicallyQuantizableLinear(in_features=768, out_features=768, bias=True)
          )
        )
        (pos_ffn): PositionalwiseFeedForward(
          (ffn): Sequential(
            (0): Linear(in_features=768, out_features=3072, bias=True)
            (1): GELU(approximate='none')
            (2): Dropout(p=0.0, inplace=False)
            (3): Linear(in_features=3072, out_features=768, bias=True)
          )
        )
        (norm1): LayerNorm(
          (norm): LayerNorm((768,), eps=1e-06, elementwise_affine=True)
        )
        (norm2): LayerNorm(
          (norm): LayerNorm((768,), eps=1e-06, elementwise_affine=True)
        )
        (dropout1): Dropout(p=0.0, inplace=False)
        (dropout2): Dropout(p=0.0, inplace=False)
      )
    )
    (norm): LayerNorm(
      (norm): LayerNorm((768,), eps=1e-06, elementwise_affine=True)
    )
  )
  (custom_src_module): NormalizedEmbedding(
    (emb): Embedding(
      (Embedding): Embedding(5000, 768)
    )
  )
  (output_proj): ModuleList(
    (layers): ModuleList(
      (0): Linear(
        (w): Linear(in_features=768, out_features=768, bias=True)
      )
      (1): LayerNorm(
        (norm): LayerNorm((768,), eps=1e-06, elementwise_affine=True)
      )
      (2): Linear(
        (w): Linear(in_features=768, out_features=5000, bias=True)
      )
    )
  )
) loading from /scratch/flatala/speechbrain/transformer/results_no_lm/results_fold_5/conformer_small/7775/save/lm.ckpt, the transferred parameters did not have parameters for the key: encoder.layers.3.pos_ffn.ffn.0.bias
2025-03-21 00:25:50,620 - speechbrain.utils.checkpoints - WARNING - During parameter transfer to TransformerLM(
  (positional_encoding): PositionalEncoding()
  (encoder): TransformerEncoder(
    (layers): ModuleList(
      (0-11): 12 x TransformerEncoderLayer(
        (self_att): MultiheadAttention(
          (att): MultiheadAttention(
            (out_proj): NonDynamicallyQuantizableLinear(in_features=768, out_features=768, bias=True)
          )
        )
        (pos_ffn): PositionalwiseFeedForward(
          (ffn): Sequential(
            (0): Linear(in_features=768, out_features=3072, bias=True)
            (1): GELU(approximate='none')
            (2): Dropout(p=0.0, inplace=False)
            (3): Linear(in_features=3072, out_features=768, bias=True)
          )
        )
        (norm1): LayerNorm(
          (norm): LayerNorm((768,), eps=1e-06, elementwise_affine=True)
        )
        (norm2): LayerNorm(
          (norm): LayerNorm((768,), eps=1e-06, elementwise_affine=True)
        )
        (dropout1): Dropout(p=0.0, inplace=False)
        (dropout2): Dropout(p=0.0, inplace=False)
      )
    )
    (norm): LayerNorm(
      (norm): LayerNorm((768,), eps=1e-06, elementwise_affine=True)
    )
  )
  (custom_src_module): NormalizedEmbedding(
    (emb): Embedding(
      (Embedding): Embedding(5000, 768)
    )
  )
  (output_proj): ModuleList(
    (layers): ModuleList(
      (0): Linear(
        (w): Linear(in_features=768, out_features=768, bias=True)
      )
      (1): LayerNorm(
        (norm): LayerNorm((768,), eps=1e-06, elementwise_affine=True)
      )
      (2): Linear(
        (w): Linear(in_features=768, out_features=5000, bias=True)
      )
    )
  )
) loading from /scratch/flatala/speechbrain/transformer/results_no_lm/results_fold_5/conformer_small/7775/save/lm.ckpt, the transferred parameters did not have parameters for the key: encoder.layers.3.pos_ffn.ffn.3.weight
2025-03-21 00:25:50,621 - speechbrain.utils.checkpoints - WARNING - During parameter transfer to TransformerLM(
  (positional_encoding): PositionalEncoding()
  (encoder): TransformerEncoder(
    (layers): ModuleList(
      (0-11): 12 x TransformerEncoderLayer(
        (self_att): MultiheadAttention(
          (att): MultiheadAttention(
            (out_proj): NonDynamicallyQuantizableLinear(in_features=768, out_features=768, bias=True)
          )
        )
        (pos_ffn): PositionalwiseFeedForward(
          (ffn): Sequential(
            (0): Linear(in_features=768, out_features=3072, bias=True)
            (1): GELU(approximate='none')
            (2): Dropout(p=0.0, inplace=False)
            (3): Linear(in_features=3072, out_features=768, bias=True)
          )
        )
        (norm1): LayerNorm(
          (norm): LayerNorm((768,), eps=1e-06, elementwise_affine=True)
        )
        (norm2): LayerNorm(
          (norm): LayerNorm((768,), eps=1e-06, elementwise_affine=True)
        )
        (dropout1): Dropout(p=0.0, inplace=False)
        (dropout2): Dropout(p=0.0, inplace=False)
      )
    )
    (norm): LayerNorm(
      (norm): LayerNorm((768,), eps=1e-06, elementwise_affine=True)
    )
  )
  (custom_src_module): NormalizedEmbedding(
    (emb): Embedding(
      (Embedding): Embedding(5000, 768)
    )
  )
  (output_proj): ModuleList(
    (layers): ModuleList(
      (0): Linear(
        (w): Linear(in_features=768, out_features=768, bias=True)
      )
      (1): LayerNorm(
        (norm): LayerNorm((768,), eps=1e-06, elementwise_affine=True)
      )
      (2): Linear(
        (w): Linear(in_features=768, out_features=5000, bias=True)
      )
    )
  )
) loading from /scratch/flatala/speechbrain/transformer/results_no_lm/results_fold_5/conformer_small/7775/save/lm.ckpt, the transferred parameters did not have parameters for the key: encoder.layers.3.pos_ffn.ffn.3.bias
2025-03-21 00:25:50,621 - speechbrain.utils.checkpoints - WARNING - During parameter transfer to TransformerLM(
  (positional_encoding): PositionalEncoding()
  (encoder): TransformerEncoder(
    (layers): ModuleList(
      (0-11): 12 x TransformerEncoderLayer(
        (self_att): MultiheadAttention(
          (att): MultiheadAttention(
            (out_proj): NonDynamicallyQuantizableLinear(in_features=768, out_features=768, bias=True)
          )
        )
        (pos_ffn): PositionalwiseFeedForward(
          (ffn): Sequential(
            (0): Linear(in_features=768, out_features=3072, bias=True)
            (1): GELU(approximate='none')
            (2): Dropout(p=0.0, inplace=False)
            (3): Linear(in_features=3072, out_features=768, bias=True)
          )
        )
        (norm1): LayerNorm(
          (norm): LayerNorm((768,), eps=1e-06, elementwise_affine=True)
        )
        (norm2): LayerNorm(
          (norm): LayerNorm((768,), eps=1e-06, elementwise_affine=True)
        )
        (dropout1): Dropout(p=0.0, inplace=False)
        (dropout2): Dropout(p=0.0, inplace=False)
      )
    )
    (norm): LayerNorm(
      (norm): LayerNorm((768,), eps=1e-06, elementwise_affine=True)
    )
  )
  (custom_src_module): NormalizedEmbedding(
    (emb): Embedding(
      (Embedding): Embedding(5000, 768)
    )
  )
  (output_proj): ModuleList(
    (layers): ModuleList(
      (0): Linear(
        (w): Linear(in_features=768, out_features=768, bias=True)
      )
      (1): LayerNorm(
        (norm): LayerNorm((768,), eps=1e-06, elementwise_affine=True)
      )
      (2): Linear(
        (w): Linear(in_features=768, out_features=5000, bias=True)
      )
    )
  )
) loading from /scratch/flatala/speechbrain/transformer/results_no_lm/results_fold_5/conformer_small/7775/save/lm.ckpt, the transferred parameters did not have parameters for the key: encoder.layers.3.norm1.norm.weight
2025-03-21 00:25:50,622 - speechbrain.utils.checkpoints - WARNING - During parameter transfer to TransformerLM(
  (positional_encoding): PositionalEncoding()
  (encoder): TransformerEncoder(
    (layers): ModuleList(
      (0-11): 12 x TransformerEncoderLayer(
        (self_att): MultiheadAttention(
          (att): MultiheadAttention(
            (out_proj): NonDynamicallyQuantizableLinear(in_features=768, out_features=768, bias=True)
          )
        )
        (pos_ffn): PositionalwiseFeedForward(
          (ffn): Sequential(
            (0): Linear(in_features=768, out_features=3072, bias=True)
            (1): GELU(approximate='none')
            (2): Dropout(p=0.0, inplace=False)
            (3): Linear(in_features=3072, out_features=768, bias=True)
          )
        )
        (norm1): LayerNorm(
          (norm): LayerNorm((768,), eps=1e-06, elementwise_affine=True)
        )
        (norm2): LayerNorm(
          (norm): LayerNorm((768,), eps=1e-06, elementwise_affine=True)
        )
        (dropout1): Dropout(p=0.0, inplace=False)
        (dropout2): Dropout(p=0.0, inplace=False)
      )
    )
    (norm): LayerNorm(
      (norm): LayerNorm((768,), eps=1e-06, elementwise_affine=True)
    )
  )
  (custom_src_module): NormalizedEmbedding(
    (emb): Embedding(
      (Embedding): Embedding(5000, 768)
    )
  )
  (output_proj): ModuleList(
    (layers): ModuleList(
      (0): Linear(
        (w): Linear(in_features=768, out_features=768, bias=True)
      )
      (1): LayerNorm(
        (norm): LayerNorm((768,), eps=1e-06, elementwise_affine=True)
      )
      (2): Linear(
        (w): Linear(in_features=768, out_features=5000, bias=True)
      )
    )
  )
) loading from /scratch/flatala/speechbrain/transformer/results_no_lm/results_fold_5/conformer_small/7775/save/lm.ckpt, the transferred parameters did not have parameters for the key: encoder.layers.3.norm1.norm.bias
2025-03-21 00:25:50,622 - speechbrain.utils.checkpoints - WARNING - During parameter transfer to TransformerLM(
  (positional_encoding): PositionalEncoding()
  (encoder): TransformerEncoder(
    (layers): ModuleList(
      (0-11): 12 x TransformerEncoderLayer(
        (self_att): MultiheadAttention(
          (att): MultiheadAttention(
            (out_proj): NonDynamicallyQuantizableLinear(in_features=768, out_features=768, bias=True)
          )
        )
        (pos_ffn): PositionalwiseFeedForward(
          (ffn): Sequential(
            (0): Linear(in_features=768, out_features=3072, bias=True)
            (1): GELU(approximate='none')
            (2): Dropout(p=0.0, inplace=False)
            (3): Linear(in_features=3072, out_features=768, bias=True)
          )
        )
        (norm1): LayerNorm(
          (norm): LayerNorm((768,), eps=1e-06, elementwise_affine=True)
        )
        (norm2): LayerNorm(
          (norm): LayerNorm((768,), eps=1e-06, elementwise_affine=True)
        )
        (dropout1): Dropout(p=0.0, inplace=False)
        (dropout2): Dropout(p=0.0, inplace=False)
      )
    )
    (norm): LayerNorm(
      (norm): LayerNorm((768,), eps=1e-06, elementwise_affine=True)
    )
  )
  (custom_src_module): NormalizedEmbedding(
    (emb): Embedding(
      (Embedding): Embedding(5000, 768)
    )
  )
  (output_proj): ModuleList(
    (layers): ModuleList(
      (0): Linear(
        (w): Linear(in_features=768, out_features=768, bias=True)
      )
      (1): LayerNorm(
        (norm): LayerNorm((768,), eps=1e-06, elementwise_affine=True)
      )
      (2): Linear(
        (w): Linear(in_features=768, out_features=5000, bias=True)
      )
    )
  )
) loading from /scratch/flatala/speechbrain/transformer/results_no_lm/results_fold_5/conformer_small/7775/save/lm.ckpt, the transferred parameters did not have parameters for the key: encoder.layers.3.norm2.norm.weight
2025-03-21 00:25:50,623 - speechbrain.utils.checkpoints - WARNING - During parameter transfer to TransformerLM(
  (positional_encoding): PositionalEncoding()
  (encoder): TransformerEncoder(
    (layers): ModuleList(
      (0-11): 12 x TransformerEncoderLayer(
        (self_att): MultiheadAttention(
          (att): MultiheadAttention(
            (out_proj): NonDynamicallyQuantizableLinear(in_features=768, out_features=768, bias=True)
          )
        )
        (pos_ffn): PositionalwiseFeedForward(
          (ffn): Sequential(
            (0): Linear(in_features=768, out_features=3072, bias=True)
            (1): GELU(approximate='none')
            (2): Dropout(p=0.0, inplace=False)
            (3): Linear(in_features=3072, out_features=768, bias=True)
          )
        )
        (norm1): LayerNorm(
          (norm): LayerNorm((768,), eps=1e-06, elementwise_affine=True)
        )
        (norm2): LayerNorm(
          (norm): LayerNorm((768,), eps=1e-06, elementwise_affine=True)
        )
        (dropout1): Dropout(p=0.0, inplace=False)
        (dropout2): Dropout(p=0.0, inplace=False)
      )
    )
    (norm): LayerNorm(
      (norm): LayerNorm((768,), eps=1e-06, elementwise_affine=True)
    )
  )
  (custom_src_module): NormalizedEmbedding(
    (emb): Embedding(
      (Embedding): Embedding(5000, 768)
    )
  )
  (output_proj): ModuleList(
    (layers): ModuleList(
      (0): Linear(
        (w): Linear(in_features=768, out_features=768, bias=True)
      )
      (1): LayerNorm(
        (norm): LayerNorm((768,), eps=1e-06, elementwise_affine=True)
      )
      (2): Linear(
        (w): Linear(in_features=768, out_features=5000, bias=True)
      )
    )
  )
) loading from /scratch/flatala/speechbrain/transformer/results_no_lm/results_fold_5/conformer_small/7775/save/lm.ckpt, the transferred parameters did not have parameters for the key: encoder.layers.3.norm2.norm.bias
2025-03-21 00:25:50,623 - speechbrain.utils.checkpoints - WARNING - During parameter transfer to TransformerLM(
  (positional_encoding): PositionalEncoding()
  (encoder): TransformerEncoder(
    (layers): ModuleList(
      (0-11): 12 x TransformerEncoderLayer(
        (self_att): MultiheadAttention(
          (att): MultiheadAttention(
            (out_proj): NonDynamicallyQuantizableLinear(in_features=768, out_features=768, bias=True)
          )
        )
        (pos_ffn): PositionalwiseFeedForward(
          (ffn): Sequential(
            (0): Linear(in_features=768, out_features=3072, bias=True)
            (1): GELU(approximate='none')
            (2): Dropout(p=0.0, inplace=False)
            (3): Linear(in_features=3072, out_features=768, bias=True)
          )
        )
        (norm1): LayerNorm(
          (norm): LayerNorm((768,), eps=1e-06, elementwise_affine=True)
        )
        (norm2): LayerNorm(
          (norm): LayerNorm((768,), eps=1e-06, elementwise_affine=True)
        )
        (dropout1): Dropout(p=0.0, inplace=False)
        (dropout2): Dropout(p=0.0, inplace=False)
      )
    )
    (norm): LayerNorm(
      (norm): LayerNorm((768,), eps=1e-06, elementwise_affine=True)
    )
  )
  (custom_src_module): NormalizedEmbedding(
    (emb): Embedding(
      (Embedding): Embedding(5000, 768)
    )
  )
  (output_proj): ModuleList(
    (layers): ModuleList(
      (0): Linear(
        (w): Linear(in_features=768, out_features=768, bias=True)
      )
      (1): LayerNorm(
        (norm): LayerNorm((768,), eps=1e-06, elementwise_affine=True)
      )
      (2): Linear(
        (w): Linear(in_features=768, out_features=5000, bias=True)
      )
    )
  )
) loading from /scratch/flatala/speechbrain/transformer/results_no_lm/results_fold_5/conformer_small/7775/save/lm.ckpt, the transferred parameters did not have parameters for the key: encoder.layers.4.self_att.att.in_proj_weight
2025-03-21 00:25:50,624 - speechbrain.utils.checkpoints - WARNING - During parameter transfer to TransformerLM(
  (positional_encoding): PositionalEncoding()
  (encoder): TransformerEncoder(
    (layers): ModuleList(
      (0-11): 12 x TransformerEncoderLayer(
        (self_att): MultiheadAttention(
          (att): MultiheadAttention(
            (out_proj): NonDynamicallyQuantizableLinear(in_features=768, out_features=768, bias=True)
          )
        )
        (pos_ffn): PositionalwiseFeedForward(
          (ffn): Sequential(
            (0): Linear(in_features=768, out_features=3072, bias=True)
            (1): GELU(approximate='none')
            (2): Dropout(p=0.0, inplace=False)
            (3): Linear(in_features=3072, out_features=768, bias=True)
          )
        )
        (norm1): LayerNorm(
          (norm): LayerNorm((768,), eps=1e-06, elementwise_affine=True)
        )
        (norm2): LayerNorm(
          (norm): LayerNorm((768,), eps=1e-06, elementwise_affine=True)
        )
        (dropout1): Dropout(p=0.0, inplace=False)
        (dropout2): Dropout(p=0.0, inplace=False)
      )
    )
    (norm): LayerNorm(
      (norm): LayerNorm((768,), eps=1e-06, elementwise_affine=True)
    )
  )
  (custom_src_module): NormalizedEmbedding(
    (emb): Embedding(
      (Embedding): Embedding(5000, 768)
    )
  )
  (output_proj): ModuleList(
    (layers): ModuleList(
      (0): Linear(
        (w): Linear(in_features=768, out_features=768, bias=True)
      )
      (1): LayerNorm(
        (norm): LayerNorm((768,), eps=1e-06, elementwise_affine=True)
      )
      (2): Linear(
        (w): Linear(in_features=768, out_features=5000, bias=True)
      )
    )
  )
) loading from /scratch/flatala/speechbrain/transformer/results_no_lm/results_fold_5/conformer_small/7775/save/lm.ckpt, the transferred parameters did not have parameters for the key: encoder.layers.4.self_att.att.in_proj_bias
2025-03-21 00:25:50,624 - speechbrain.utils.checkpoints - WARNING - During parameter transfer to TransformerLM(
  (positional_encoding): PositionalEncoding()
  (encoder): TransformerEncoder(
    (layers): ModuleList(
      (0-11): 12 x TransformerEncoderLayer(
        (self_att): MultiheadAttention(
          (att): MultiheadAttention(
            (out_proj): NonDynamicallyQuantizableLinear(in_features=768, out_features=768, bias=True)
          )
        )
        (pos_ffn): PositionalwiseFeedForward(
          (ffn): Sequential(
            (0): Linear(in_features=768, out_features=3072, bias=True)
            (1): GELU(approximate='none')
            (2): Dropout(p=0.0, inplace=False)
            (3): Linear(in_features=3072, out_features=768, bias=True)
          )
        )
        (norm1): LayerNorm(
          (norm): LayerNorm((768,), eps=1e-06, elementwise_affine=True)
        )
        (norm2): LayerNorm(
          (norm): LayerNorm((768,), eps=1e-06, elementwise_affine=True)
        )
        (dropout1): Dropout(p=0.0, inplace=False)
        (dropout2): Dropout(p=0.0, inplace=False)
      )
    )
    (norm): LayerNorm(
      (norm): LayerNorm((768,), eps=1e-06, elementwise_affine=True)
    )
  )
  (custom_src_module): NormalizedEmbedding(
    (emb): Embedding(
      (Embedding): Embedding(5000, 768)
    )
  )
  (output_proj): ModuleList(
    (layers): ModuleList(
      (0): Linear(
        (w): Linear(in_features=768, out_features=768, bias=True)
      )
      (1): LayerNorm(
        (norm): LayerNorm((768,), eps=1e-06, elementwise_affine=True)
      )
      (2): Linear(
        (w): Linear(in_features=768, out_features=5000, bias=True)
      )
    )
  )
) loading from /scratch/flatala/speechbrain/transformer/results_no_lm/results_fold_5/conformer_small/7775/save/lm.ckpt, the transferred parameters did not have parameters for the key: encoder.layers.4.self_att.att.out_proj.weight
2025-03-21 00:25:50,625 - speechbrain.utils.checkpoints - WARNING - During parameter transfer to TransformerLM(
  (positional_encoding): PositionalEncoding()
  (encoder): TransformerEncoder(
    (layers): ModuleList(
      (0-11): 12 x TransformerEncoderLayer(
        (self_att): MultiheadAttention(
          (att): MultiheadAttention(
            (out_proj): NonDynamicallyQuantizableLinear(in_features=768, out_features=768, bias=True)
          )
        )
        (pos_ffn): PositionalwiseFeedForward(
          (ffn): Sequential(
            (0): Linear(in_features=768, out_features=3072, bias=True)
            (1): GELU(approximate='none')
            (2): Dropout(p=0.0, inplace=False)
            (3): Linear(in_features=3072, out_features=768, bias=True)
          )
        )
        (norm1): LayerNorm(
          (norm): LayerNorm((768,), eps=1e-06, elementwise_affine=True)
        )
        (norm2): LayerNorm(
          (norm): LayerNorm((768,), eps=1e-06, elementwise_affine=True)
        )
        (dropout1): Dropout(p=0.0, inplace=False)
        (dropout2): Dropout(p=0.0, inplace=False)
      )
    )
    (norm): LayerNorm(
      (norm): LayerNorm((768,), eps=1e-06, elementwise_affine=True)
    )
  )
  (custom_src_module): NormalizedEmbedding(
    (emb): Embedding(
      (Embedding): Embedding(5000, 768)
    )
  )
  (output_proj): ModuleList(
    (layers): ModuleList(
      (0): Linear(
        (w): Linear(in_features=768, out_features=768, bias=True)
      )
      (1): LayerNorm(
        (norm): LayerNorm((768,), eps=1e-06, elementwise_affine=True)
      )
      (2): Linear(
        (w): Linear(in_features=768, out_features=5000, bias=True)
      )
    )
  )
) loading from /scratch/flatala/speechbrain/transformer/results_no_lm/results_fold_5/conformer_small/7775/save/lm.ckpt, the transferred parameters did not have parameters for the key: encoder.layers.4.self_att.att.out_proj.bias
2025-03-21 00:25:50,625 - speechbrain.utils.checkpoints - WARNING - During parameter transfer to TransformerLM(
  (positional_encoding): PositionalEncoding()
  (encoder): TransformerEncoder(
    (layers): ModuleList(
      (0-11): 12 x TransformerEncoderLayer(
        (self_att): MultiheadAttention(
          (att): MultiheadAttention(
            (out_proj): NonDynamicallyQuantizableLinear(in_features=768, out_features=768, bias=True)
          )
        )
        (pos_ffn): PositionalwiseFeedForward(
          (ffn): Sequential(
            (0): Linear(in_features=768, out_features=3072, bias=True)
            (1): GELU(approximate='none')
            (2): Dropout(p=0.0, inplace=False)
            (3): Linear(in_features=3072, out_features=768, bias=True)
          )
        )
        (norm1): LayerNorm(
          (norm): LayerNorm((768,), eps=1e-06, elementwise_affine=True)
        )
        (norm2): LayerNorm(
          (norm): LayerNorm((768,), eps=1e-06, elementwise_affine=True)
        )
        (dropout1): Dropout(p=0.0, inplace=False)
        (dropout2): Dropout(p=0.0, inplace=False)
      )
    )
    (norm): LayerNorm(
      (norm): LayerNorm((768,), eps=1e-06, elementwise_affine=True)
    )
  )
  (custom_src_module): NormalizedEmbedding(
    (emb): Embedding(
      (Embedding): Embedding(5000, 768)
    )
  )
  (output_proj): ModuleList(
    (layers): ModuleList(
      (0): Linear(
        (w): Linear(in_features=768, out_features=768, bias=True)
      )
      (1): LayerNorm(
        (norm): LayerNorm((768,), eps=1e-06, elementwise_affine=True)
      )
      (2): Linear(
        (w): Linear(in_features=768, out_features=5000, bias=True)
      )
    )
  )
) loading from /scratch/flatala/speechbrain/transformer/results_no_lm/results_fold_5/conformer_small/7775/save/lm.ckpt, the transferred parameters did not have parameters for the key: encoder.layers.4.pos_ffn.ffn.0.weight
2025-03-21 00:25:50,626 - speechbrain.utils.checkpoints - WARNING - During parameter transfer to TransformerLM(
  (positional_encoding): PositionalEncoding()
  (encoder): TransformerEncoder(
    (layers): ModuleList(
      (0-11): 12 x TransformerEncoderLayer(
        (self_att): MultiheadAttention(
          (att): MultiheadAttention(
            (out_proj): NonDynamicallyQuantizableLinear(in_features=768, out_features=768, bias=True)
          )
        )
        (pos_ffn): PositionalwiseFeedForward(
          (ffn): Sequential(
            (0): Linear(in_features=768, out_features=3072, bias=True)
            (1): GELU(approximate='none')
            (2): Dropout(p=0.0, inplace=False)
            (3): Linear(in_features=3072, out_features=768, bias=True)
          )
        )
        (norm1): LayerNorm(
          (norm): LayerNorm((768,), eps=1e-06, elementwise_affine=True)
        )
        (norm2): LayerNorm(
          (norm): LayerNorm((768,), eps=1e-06, elementwise_affine=True)
        )
        (dropout1): Dropout(p=0.0, inplace=False)
        (dropout2): Dropout(p=0.0, inplace=False)
      )
    )
    (norm): LayerNorm(
      (norm): LayerNorm((768,), eps=1e-06, elementwise_affine=True)
    )
  )
  (custom_src_module): NormalizedEmbedding(
    (emb): Embedding(
      (Embedding): Embedding(5000, 768)
    )
  )
  (output_proj): ModuleList(
    (layers): ModuleList(
      (0): Linear(
        (w): Linear(in_features=768, out_features=768, bias=True)
      )
      (1): LayerNorm(
        (norm): LayerNorm((768,), eps=1e-06, elementwise_affine=True)
      )
      (2): Linear(
        (w): Linear(in_features=768, out_features=5000, bias=True)
      )
    )
  )
) loading from /scratch/flatala/speechbrain/transformer/results_no_lm/results_fold_5/conformer_small/7775/save/lm.ckpt, the transferred parameters did not have parameters for the key: encoder.layers.4.pos_ffn.ffn.0.bias
2025-03-21 00:25:50,626 - speechbrain.utils.checkpoints - WARNING - During parameter transfer to TransformerLM(
  (positional_encoding): PositionalEncoding()
  (encoder): TransformerEncoder(
    (layers): ModuleList(
      (0-11): 12 x TransformerEncoderLayer(
        (self_att): MultiheadAttention(
          (att): MultiheadAttention(
            (out_proj): NonDynamicallyQuantizableLinear(in_features=768, out_features=768, bias=True)
          )
        )
        (pos_ffn): PositionalwiseFeedForward(
          (ffn): Sequential(
            (0): Linear(in_features=768, out_features=3072, bias=True)
            (1): GELU(approximate='none')
            (2): Dropout(p=0.0, inplace=False)
            (3): Linear(in_features=3072, out_features=768, bias=True)
          )
        )
        (norm1): LayerNorm(
          (norm): LayerNorm((768,), eps=1e-06, elementwise_affine=True)
        )
        (norm2): LayerNorm(
          (norm): LayerNorm((768,), eps=1e-06, elementwise_affine=True)
        )
        (dropout1): Dropout(p=0.0, inplace=False)
        (dropout2): Dropout(p=0.0, inplace=False)
      )
    )
    (norm): LayerNorm(
      (norm): LayerNorm((768,), eps=1e-06, elementwise_affine=True)
    )
  )
  (custom_src_module): NormalizedEmbedding(
    (emb): Embedding(
      (Embedding): Embedding(5000, 768)
    )
  )
  (output_proj): ModuleList(
    (layers): ModuleList(
      (0): Linear(
        (w): Linear(in_features=768, out_features=768, bias=True)
      )
      (1): LayerNorm(
        (norm): LayerNorm((768,), eps=1e-06, elementwise_affine=True)
      )
      (2): Linear(
        (w): Linear(in_features=768, out_features=5000, bias=True)
      )
    )
  )
) loading from /scratch/flatala/speechbrain/transformer/results_no_lm/results_fold_5/conformer_small/7775/save/lm.ckpt, the transferred parameters did not have parameters for the key: encoder.layers.4.pos_ffn.ffn.3.weight
2025-03-21 00:25:50,627 - speechbrain.utils.checkpoints - WARNING - During parameter transfer to TransformerLM(
  (positional_encoding): PositionalEncoding()
  (encoder): TransformerEncoder(
    (layers): ModuleList(
      (0-11): 12 x TransformerEncoderLayer(
        (self_att): MultiheadAttention(
          (att): MultiheadAttention(
            (out_proj): NonDynamicallyQuantizableLinear(in_features=768, out_features=768, bias=True)
          )
        )
        (pos_ffn): PositionalwiseFeedForward(
          (ffn): Sequential(
            (0): Linear(in_features=768, out_features=3072, bias=True)
            (1): GELU(approximate='none')
            (2): Dropout(p=0.0, inplace=False)
            (3): Linear(in_features=3072, out_features=768, bias=True)
          )
        )
        (norm1): LayerNorm(
          (norm): LayerNorm((768,), eps=1e-06, elementwise_affine=True)
        )
        (norm2): LayerNorm(
          (norm): LayerNorm((768,), eps=1e-06, elementwise_affine=True)
        )
        (dropout1): Dropout(p=0.0, inplace=False)
        (dropout2): Dropout(p=0.0, inplace=False)
      )
    )
    (norm): LayerNorm(
      (norm): LayerNorm((768,), eps=1e-06, elementwise_affine=True)
    )
  )
  (custom_src_module): NormalizedEmbedding(
    (emb): Embedding(
      (Embedding): Embedding(5000, 768)
    )
  )
  (output_proj): ModuleList(
    (layers): ModuleList(
      (0): Linear(
        (w): Linear(in_features=768, out_features=768, bias=True)
      )
      (1): LayerNorm(
        (norm): LayerNorm((768,), eps=1e-06, elementwise_affine=True)
      )
      (2): Linear(
        (w): Linear(in_features=768, out_features=5000, bias=True)
      )
    )
  )
) loading from /scratch/flatala/speechbrain/transformer/results_no_lm/results_fold_5/conformer_small/7775/save/lm.ckpt, the transferred parameters did not have parameters for the key: encoder.layers.4.pos_ffn.ffn.3.bias
2025-03-21 00:25:50,627 - speechbrain.utils.checkpoints - WARNING - During parameter transfer to TransformerLM(
  (positional_encoding): PositionalEncoding()
  (encoder): TransformerEncoder(
    (layers): ModuleList(
      (0-11): 12 x TransformerEncoderLayer(
        (self_att): MultiheadAttention(
          (att): MultiheadAttention(
            (out_proj): NonDynamicallyQuantizableLinear(in_features=768, out_features=768, bias=True)
          )
        )
        (pos_ffn): PositionalwiseFeedForward(
          (ffn): Sequential(
            (0): Linear(in_features=768, out_features=3072, bias=True)
            (1): GELU(approximate='none')
            (2): Dropout(p=0.0, inplace=False)
            (3): Linear(in_features=3072, out_features=768, bias=True)
          )
        )
        (norm1): LayerNorm(
          (norm): LayerNorm((768,), eps=1e-06, elementwise_affine=True)
        )
        (norm2): LayerNorm(
          (norm): LayerNorm((768,), eps=1e-06, elementwise_affine=True)
        )
        (dropout1): Dropout(p=0.0, inplace=False)
        (dropout2): Dropout(p=0.0, inplace=False)
      )
    )
    (norm): LayerNorm(
      (norm): LayerNorm((768,), eps=1e-06, elementwise_affine=True)
    )
  )
  (custom_src_module): NormalizedEmbedding(
    (emb): Embedding(
      (Embedding): Embedding(5000, 768)
    )
  )
  (output_proj): ModuleList(
    (layers): ModuleList(
      (0): Linear(
        (w): Linear(in_features=768, out_features=768, bias=True)
      )
      (1): LayerNorm(
        (norm): LayerNorm((768,), eps=1e-06, elementwise_affine=True)
      )
      (2): Linear(
        (w): Linear(in_features=768, out_features=5000, bias=True)
      )
    )
  )
) loading from /scratch/flatala/speechbrain/transformer/results_no_lm/results_fold_5/conformer_small/7775/save/lm.ckpt, the transferred parameters did not have parameters for the key: encoder.layers.4.norm1.norm.weight
2025-03-21 00:25:50,628 - speechbrain.utils.checkpoints - WARNING - During parameter transfer to TransformerLM(
  (positional_encoding): PositionalEncoding()
  (encoder): TransformerEncoder(
    (layers): ModuleList(
      (0-11): 12 x TransformerEncoderLayer(
        (self_att): MultiheadAttention(
          (att): MultiheadAttention(
            (out_proj): NonDynamicallyQuantizableLinear(in_features=768, out_features=768, bias=True)
          )
        )
        (pos_ffn): PositionalwiseFeedForward(
          (ffn): Sequential(
            (0): Linear(in_features=768, out_features=3072, bias=True)
            (1): GELU(approximate='none')
            (2): Dropout(p=0.0, inplace=False)
            (3): Linear(in_features=3072, out_features=768, bias=True)
          )
        )
        (norm1): LayerNorm(
          (norm): LayerNorm((768,), eps=1e-06, elementwise_affine=True)
        )
        (norm2): LayerNorm(
          (norm): LayerNorm((768,), eps=1e-06, elementwise_affine=True)
        )
        (dropout1): Dropout(p=0.0, inplace=False)
        (dropout2): Dropout(p=0.0, inplace=False)
      )
    )
    (norm): LayerNorm(
      (norm): LayerNorm((768,), eps=1e-06, elementwise_affine=True)
    )
  )
  (custom_src_module): NormalizedEmbedding(
    (emb): Embedding(
      (Embedding): Embedding(5000, 768)
    )
  )
  (output_proj): ModuleList(
    (layers): ModuleList(
      (0): Linear(
        (w): Linear(in_features=768, out_features=768, bias=True)
      )
      (1): LayerNorm(
        (norm): LayerNorm((768,), eps=1e-06, elementwise_affine=True)
      )
      (2): Linear(
        (w): Linear(in_features=768, out_features=5000, bias=True)
      )
    )
  )
) loading from /scratch/flatala/speechbrain/transformer/results_no_lm/results_fold_5/conformer_small/7775/save/lm.ckpt, the transferred parameters did not have parameters for the key: encoder.layers.4.norm1.norm.bias
2025-03-21 00:25:50,628 - speechbrain.utils.checkpoints - WARNING - During parameter transfer to TransformerLM(
  (positional_encoding): PositionalEncoding()
  (encoder): TransformerEncoder(
    (layers): ModuleList(
      (0-11): 12 x TransformerEncoderLayer(
        (self_att): MultiheadAttention(
          (att): MultiheadAttention(
            (out_proj): NonDynamicallyQuantizableLinear(in_features=768, out_features=768, bias=True)
          )
        )
        (pos_ffn): PositionalwiseFeedForward(
          (ffn): Sequential(
            (0): Linear(in_features=768, out_features=3072, bias=True)
            (1): GELU(approximate='none')
            (2): Dropout(p=0.0, inplace=False)
            (3): Linear(in_features=3072, out_features=768, bias=True)
          )
        )
        (norm1): LayerNorm(
          (norm): LayerNorm((768,), eps=1e-06, elementwise_affine=True)
        )
        (norm2): LayerNorm(
          (norm): LayerNorm((768,), eps=1e-06, elementwise_affine=True)
        )
        (dropout1): Dropout(p=0.0, inplace=False)
        (dropout2): Dropout(p=0.0, inplace=False)
      )
    )
    (norm): LayerNorm(
      (norm): LayerNorm((768,), eps=1e-06, elementwise_affine=True)
    )
  )
  (custom_src_module): NormalizedEmbedding(
    (emb): Embedding(
      (Embedding): Embedding(5000, 768)
    )
  )
  (output_proj): ModuleList(
    (layers): ModuleList(
      (0): Linear(
        (w): Linear(in_features=768, out_features=768, bias=True)
      )
      (1): LayerNorm(
        (norm): LayerNorm((768,), eps=1e-06, elementwise_affine=True)
      )
      (2): Linear(
        (w): Linear(in_features=768, out_features=5000, bias=True)
      )
    )
  )
) loading from /scratch/flatala/speechbrain/transformer/results_no_lm/results_fold_5/conformer_small/7775/save/lm.ckpt, the transferred parameters did not have parameters for the key: encoder.layers.4.norm2.norm.weight
2025-03-21 00:25:50,628 - speechbrain.utils.checkpoints - WARNING - During parameter transfer to TransformerLM(
  (positional_encoding): PositionalEncoding()
  (encoder): TransformerEncoder(
    (layers): ModuleList(
      (0-11): 12 x TransformerEncoderLayer(
        (self_att): MultiheadAttention(
          (att): MultiheadAttention(
            (out_proj): NonDynamicallyQuantizableLinear(in_features=768, out_features=768, bias=True)
          )
        )
        (pos_ffn): PositionalwiseFeedForward(
          (ffn): Sequential(
            (0): Linear(in_features=768, out_features=3072, bias=True)
            (1): GELU(approximate='none')
            (2): Dropout(p=0.0, inplace=False)
            (3): Linear(in_features=3072, out_features=768, bias=True)
          )
        )
        (norm1): LayerNorm(
          (norm): LayerNorm((768,), eps=1e-06, elementwise_affine=True)
        )
        (norm2): LayerNorm(
          (norm): LayerNorm((768,), eps=1e-06, elementwise_affine=True)
        )
        (dropout1): Dropout(p=0.0, inplace=False)
        (dropout2): Dropout(p=0.0, inplace=False)
      )
    )
    (norm): LayerNorm(
      (norm): LayerNorm((768,), eps=1e-06, elementwise_affine=True)
    )
  )
  (custom_src_module): NormalizedEmbedding(
    (emb): Embedding(
      (Embedding): Embedding(5000, 768)
    )
  )
  (output_proj): ModuleList(
    (layers): ModuleList(
      (0): Linear(
        (w): Linear(in_features=768, out_features=768, bias=True)
      )
      (1): LayerNorm(
        (norm): LayerNorm((768,), eps=1e-06, elementwise_affine=True)
      )
      (2): Linear(
        (w): Linear(in_features=768, out_features=5000, bias=True)
      )
    )
  )
) loading from /scratch/flatala/speechbrain/transformer/results_no_lm/results_fold_5/conformer_small/7775/save/lm.ckpt, the transferred parameters did not have parameters for the key: encoder.layers.4.norm2.norm.bias
2025-03-21 00:25:50,629 - speechbrain.utils.checkpoints - WARNING - During parameter transfer to TransformerLM(
  (positional_encoding): PositionalEncoding()
  (encoder): TransformerEncoder(
    (layers): ModuleList(
      (0-11): 12 x TransformerEncoderLayer(
        (self_att): MultiheadAttention(
          (att): MultiheadAttention(
            (out_proj): NonDynamicallyQuantizableLinear(in_features=768, out_features=768, bias=True)
          )
        )
        (pos_ffn): PositionalwiseFeedForward(
          (ffn): Sequential(
            (0): Linear(in_features=768, out_features=3072, bias=True)
            (1): GELU(approximate='none')
            (2): Dropout(p=0.0, inplace=False)
            (3): Linear(in_features=3072, out_features=768, bias=True)
          )
        )
        (norm1): LayerNorm(
          (norm): LayerNorm((768,), eps=1e-06, elementwise_affine=True)
        )
        (norm2): LayerNorm(
          (norm): LayerNorm((768,), eps=1e-06, elementwise_affine=True)
        )
        (dropout1): Dropout(p=0.0, inplace=False)
        (dropout2): Dropout(p=0.0, inplace=False)
      )
    )
    (norm): LayerNorm(
      (norm): LayerNorm((768,), eps=1e-06, elementwise_affine=True)
    )
  )
  (custom_src_module): NormalizedEmbedding(
    (emb): Embedding(
      (Embedding): Embedding(5000, 768)
    )
  )
  (output_proj): ModuleList(
    (layers): ModuleList(
      (0): Linear(
        (w): Linear(in_features=768, out_features=768, bias=True)
      )
      (1): LayerNorm(
        (norm): LayerNorm((768,), eps=1e-06, elementwise_affine=True)
      )
      (2): Linear(
        (w): Linear(in_features=768, out_features=5000, bias=True)
      )
    )
  )
) loading from /scratch/flatala/speechbrain/transformer/results_no_lm/results_fold_5/conformer_small/7775/save/lm.ckpt, the transferred parameters did not have parameters for the key: encoder.layers.5.self_att.att.in_proj_weight
2025-03-21 00:25:50,629 - speechbrain.utils.checkpoints - WARNING - During parameter transfer to TransformerLM(
  (positional_encoding): PositionalEncoding()
  (encoder): TransformerEncoder(
    (layers): ModuleList(
      (0-11): 12 x TransformerEncoderLayer(
        (self_att): MultiheadAttention(
          (att): MultiheadAttention(
            (out_proj): NonDynamicallyQuantizableLinear(in_features=768, out_features=768, bias=True)
          )
        )
        (pos_ffn): PositionalwiseFeedForward(
          (ffn): Sequential(
            (0): Linear(in_features=768, out_features=3072, bias=True)
            (1): GELU(approximate='none')
            (2): Dropout(p=0.0, inplace=False)
            (3): Linear(in_features=3072, out_features=768, bias=True)
          )
        )
        (norm1): LayerNorm(
          (norm): LayerNorm((768,), eps=1e-06, elementwise_affine=True)
        )
        (norm2): LayerNorm(
          (norm): LayerNorm((768,), eps=1e-06, elementwise_affine=True)
        )
        (dropout1): Dropout(p=0.0, inplace=False)
        (dropout2): Dropout(p=0.0, inplace=False)
      )
    )
    (norm): LayerNorm(
      (norm): LayerNorm((768,), eps=1e-06, elementwise_affine=True)
    )
  )
  (custom_src_module): NormalizedEmbedding(
    (emb): Embedding(
      (Embedding): Embedding(5000, 768)
    )
  )
  (output_proj): ModuleList(
    (layers): ModuleList(
      (0): Linear(
        (w): Linear(in_features=768, out_features=768, bias=True)
      )
      (1): LayerNorm(
        (norm): LayerNorm((768,), eps=1e-06, elementwise_affine=True)
      )
      (2): Linear(
        (w): Linear(in_features=768, out_features=5000, bias=True)
      )
    )
  )
) loading from /scratch/flatala/speechbrain/transformer/results_no_lm/results_fold_5/conformer_small/7775/save/lm.ckpt, the transferred parameters did not have parameters for the key: encoder.layers.5.self_att.att.in_proj_bias
2025-03-21 00:25:50,630 - speechbrain.utils.checkpoints - WARNING - During parameter transfer to TransformerLM(
  (positional_encoding): PositionalEncoding()
  (encoder): TransformerEncoder(
    (layers): ModuleList(
      (0-11): 12 x TransformerEncoderLayer(
        (self_att): MultiheadAttention(
          (att): MultiheadAttention(
            (out_proj): NonDynamicallyQuantizableLinear(in_features=768, out_features=768, bias=True)
          )
        )
        (pos_ffn): PositionalwiseFeedForward(
          (ffn): Sequential(
            (0): Linear(in_features=768, out_features=3072, bias=True)
            (1): GELU(approximate='none')
            (2): Dropout(p=0.0, inplace=False)
            (3): Linear(in_features=3072, out_features=768, bias=True)
          )
        )
        (norm1): LayerNorm(
          (norm): LayerNorm((768,), eps=1e-06, elementwise_affine=True)
        )
        (norm2): LayerNorm(
          (norm): LayerNorm((768,), eps=1e-06, elementwise_affine=True)
        )
        (dropout1): Dropout(p=0.0, inplace=False)
        (dropout2): Dropout(p=0.0, inplace=False)
      )
    )
    (norm): LayerNorm(
      (norm): LayerNorm((768,), eps=1e-06, elementwise_affine=True)
    )
  )
  (custom_src_module): NormalizedEmbedding(
    (emb): Embedding(
      (Embedding): Embedding(5000, 768)
    )
  )
  (output_proj): ModuleList(
    (layers): ModuleList(
      (0): Linear(
        (w): Linear(in_features=768, out_features=768, bias=True)
      )
      (1): LayerNorm(
        (norm): LayerNorm((768,), eps=1e-06, elementwise_affine=True)
      )
      (2): Linear(
        (w): Linear(in_features=768, out_features=5000, bias=True)
      )
    )
  )
) loading from /scratch/flatala/speechbrain/transformer/results_no_lm/results_fold_5/conformer_small/7775/save/lm.ckpt, the transferred parameters did not have parameters for the key: encoder.layers.5.self_att.att.out_proj.weight
2025-03-21 00:25:50,630 - speechbrain.utils.checkpoints - WARNING - During parameter transfer to TransformerLM(
  (positional_encoding): PositionalEncoding()
  (encoder): TransformerEncoder(
    (layers): ModuleList(
      (0-11): 12 x TransformerEncoderLayer(
        (self_att): MultiheadAttention(
          (att): MultiheadAttention(
            (out_proj): NonDynamicallyQuantizableLinear(in_features=768, out_features=768, bias=True)
          )
        )
        (pos_ffn): PositionalwiseFeedForward(
          (ffn): Sequential(
            (0): Linear(in_features=768, out_features=3072, bias=True)
            (1): GELU(approximate='none')
            (2): Dropout(p=0.0, inplace=False)
            (3): Linear(in_features=3072, out_features=768, bias=True)
          )
        )
        (norm1): LayerNorm(
          (norm): LayerNorm((768,), eps=1e-06, elementwise_affine=True)
        )
        (norm2): LayerNorm(
          (norm): LayerNorm((768,), eps=1e-06, elementwise_affine=True)
        )
        (dropout1): Dropout(p=0.0, inplace=False)
        (dropout2): Dropout(p=0.0, inplace=False)
      )
    )
    (norm): LayerNorm(
      (norm): LayerNorm((768,), eps=1e-06, elementwise_affine=True)
    )
  )
  (custom_src_module): NormalizedEmbedding(
    (emb): Embedding(
      (Embedding): Embedding(5000, 768)
    )
  )
  (output_proj): ModuleList(
    (layers): ModuleList(
      (0): Linear(
        (w): Linear(in_features=768, out_features=768, bias=True)
      )
      (1): LayerNorm(
        (norm): LayerNorm((768,), eps=1e-06, elementwise_affine=True)
      )
      (2): Linear(
        (w): Linear(in_features=768, out_features=5000, bias=True)
      )
    )
  )
) loading from /scratch/flatala/speechbrain/transformer/results_no_lm/results_fold_5/conformer_small/7775/save/lm.ckpt, the transferred parameters did not have parameters for the key: encoder.layers.5.self_att.att.out_proj.bias
2025-03-21 00:25:50,631 - speechbrain.utils.checkpoints - WARNING - During parameter transfer to TransformerLM(
  (positional_encoding): PositionalEncoding()
  (encoder): TransformerEncoder(
    (layers): ModuleList(
      (0-11): 12 x TransformerEncoderLayer(
        (self_att): MultiheadAttention(
          (att): MultiheadAttention(
            (out_proj): NonDynamicallyQuantizableLinear(in_features=768, out_features=768, bias=True)
          )
        )
        (pos_ffn): PositionalwiseFeedForward(
          (ffn): Sequential(
            (0): Linear(in_features=768, out_features=3072, bias=True)
            (1): GELU(approximate='none')
            (2): Dropout(p=0.0, inplace=False)
            (3): Linear(in_features=3072, out_features=768, bias=True)
          )
        )
        (norm1): LayerNorm(
          (norm): LayerNorm((768,), eps=1e-06, elementwise_affine=True)
        )
        (norm2): LayerNorm(
          (norm): LayerNorm((768,), eps=1e-06, elementwise_affine=True)
        )
        (dropout1): Dropout(p=0.0, inplace=False)
        (dropout2): Dropout(p=0.0, inplace=False)
      )
    )
    (norm): LayerNorm(
      (norm): LayerNorm((768,), eps=1e-06, elementwise_affine=True)
    )
  )
  (custom_src_module): NormalizedEmbedding(
    (emb): Embedding(
      (Embedding): Embedding(5000, 768)
    )
  )
  (output_proj): ModuleList(
    (layers): ModuleList(
      (0): Linear(
        (w): Linear(in_features=768, out_features=768, bias=True)
      )
      (1): LayerNorm(
        (norm): LayerNorm((768,), eps=1e-06, elementwise_affine=True)
      )
      (2): Linear(
        (w): Linear(in_features=768, out_features=5000, bias=True)
      )
    )
  )
) loading from /scratch/flatala/speechbrain/transformer/results_no_lm/results_fold_5/conformer_small/7775/save/lm.ckpt, the transferred parameters did not have parameters for the key: encoder.layers.5.pos_ffn.ffn.0.weight
2025-03-21 00:25:50,632 - speechbrain.utils.checkpoints - WARNING - During parameter transfer to TransformerLM(
  (positional_encoding): PositionalEncoding()
  (encoder): TransformerEncoder(
    (layers): ModuleList(
      (0-11): 12 x TransformerEncoderLayer(
        (self_att): MultiheadAttention(
          (att): MultiheadAttention(
            (out_proj): NonDynamicallyQuantizableLinear(in_features=768, out_features=768, bias=True)
          )
        )
        (pos_ffn): PositionalwiseFeedForward(
          (ffn): Sequential(
            (0): Linear(in_features=768, out_features=3072, bias=True)
            (1): GELU(approximate='none')
            (2): Dropout(p=0.0, inplace=False)
            (3): Linear(in_features=3072, out_features=768, bias=True)
          )
        )
        (norm1): LayerNorm(
          (norm): LayerNorm((768,), eps=1e-06, elementwise_affine=True)
        )
        (norm2): LayerNorm(
          (norm): LayerNorm((768,), eps=1e-06, elementwise_affine=True)
        )
        (dropout1): Dropout(p=0.0, inplace=False)
        (dropout2): Dropout(p=0.0, inplace=False)
      )
    )
    (norm): LayerNorm(
      (norm): LayerNorm((768,), eps=1e-06, elementwise_affine=True)
    )
  )
  (custom_src_module): NormalizedEmbedding(
    (emb): Embedding(
      (Embedding): Embedding(5000, 768)
    )
  )
  (output_proj): ModuleList(
    (layers): ModuleList(
      (0): Linear(
        (w): Linear(in_features=768, out_features=768, bias=True)
      )
      (1): LayerNorm(
        (norm): LayerNorm((768,), eps=1e-06, elementwise_affine=True)
      )
      (2): Linear(
        (w): Linear(in_features=768, out_features=5000, bias=True)
      )
    )
  )
) loading from /scratch/flatala/speechbrain/transformer/results_no_lm/results_fold_5/conformer_small/7775/save/lm.ckpt, the transferred parameters did not have parameters for the key: encoder.layers.5.pos_ffn.ffn.0.bias
2025-03-21 00:25:50,632 - speechbrain.utils.checkpoints - WARNING - During parameter transfer to TransformerLM(
  (positional_encoding): PositionalEncoding()
  (encoder): TransformerEncoder(
    (layers): ModuleList(
      (0-11): 12 x TransformerEncoderLayer(
        (self_att): MultiheadAttention(
          (att): MultiheadAttention(
            (out_proj): NonDynamicallyQuantizableLinear(in_features=768, out_features=768, bias=True)
          )
        )
        (pos_ffn): PositionalwiseFeedForward(
          (ffn): Sequential(
            (0): Linear(in_features=768, out_features=3072, bias=True)
            (1): GELU(approximate='none')
            (2): Dropout(p=0.0, inplace=False)
            (3): Linear(in_features=3072, out_features=768, bias=True)
          )
        )
        (norm1): LayerNorm(
          (norm): LayerNorm((768,), eps=1e-06, elementwise_affine=True)
        )
        (norm2): LayerNorm(
          (norm): LayerNorm((768,), eps=1e-06, elementwise_affine=True)
        )
        (dropout1): Dropout(p=0.0, inplace=False)
        (dropout2): Dropout(p=0.0, inplace=False)
      )
    )
    (norm): LayerNorm(
      (norm): LayerNorm((768,), eps=1e-06, elementwise_affine=True)
    )
  )
  (custom_src_module): NormalizedEmbedding(
    (emb): Embedding(
      (Embedding): Embedding(5000, 768)
    )
  )
  (output_proj): ModuleList(
    (layers): ModuleList(
      (0): Linear(
        (w): Linear(in_features=768, out_features=768, bias=True)
      )
      (1): LayerNorm(
        (norm): LayerNorm((768,), eps=1e-06, elementwise_affine=True)
      )
      (2): Linear(
        (w): Linear(in_features=768, out_features=5000, bias=True)
      )
    )
  )
) loading from /scratch/flatala/speechbrain/transformer/results_no_lm/results_fold_5/conformer_small/7775/save/lm.ckpt, the transferred parameters did not have parameters for the key: encoder.layers.5.pos_ffn.ffn.3.weight
2025-03-21 00:25:50,633 - speechbrain.utils.checkpoints - WARNING - During parameter transfer to TransformerLM(
  (positional_encoding): PositionalEncoding()
  (encoder): TransformerEncoder(
    (layers): ModuleList(
      (0-11): 12 x TransformerEncoderLayer(
        (self_att): MultiheadAttention(
          (att): MultiheadAttention(
            (out_proj): NonDynamicallyQuantizableLinear(in_features=768, out_features=768, bias=True)
          )
        )
        (pos_ffn): PositionalwiseFeedForward(
          (ffn): Sequential(
            (0): Linear(in_features=768, out_features=3072, bias=True)
            (1): GELU(approximate='none')
            (2): Dropout(p=0.0, inplace=False)
            (3): Linear(in_features=3072, out_features=768, bias=True)
          )
        )
        (norm1): LayerNorm(
          (norm): LayerNorm((768,), eps=1e-06, elementwise_affine=True)
        )
        (norm2): LayerNorm(
          (norm): LayerNorm((768,), eps=1e-06, elementwise_affine=True)
        )
        (dropout1): Dropout(p=0.0, inplace=False)
        (dropout2): Dropout(p=0.0, inplace=False)
      )
    )
    (norm): LayerNorm(
      (norm): LayerNorm((768,), eps=1e-06, elementwise_affine=True)
    )
  )
  (custom_src_module): NormalizedEmbedding(
    (emb): Embedding(
      (Embedding): Embedding(5000, 768)
    )
  )
  (output_proj): ModuleList(
    (layers): ModuleList(
      (0): Linear(
        (w): Linear(in_features=768, out_features=768, bias=True)
      )
      (1): LayerNorm(
        (norm): LayerNorm((768,), eps=1e-06, elementwise_affine=True)
      )
      (2): Linear(
        (w): Linear(in_features=768, out_features=5000, bias=True)
      )
    )
  )
) loading from /scratch/flatala/speechbrain/transformer/results_no_lm/results_fold_5/conformer_small/7775/save/lm.ckpt, the transferred parameters did not have parameters for the key: encoder.layers.5.pos_ffn.ffn.3.bias
2025-03-21 00:25:50,633 - speechbrain.utils.checkpoints - WARNING - During parameter transfer to TransformerLM(
  (positional_encoding): PositionalEncoding()
  (encoder): TransformerEncoder(
    (layers): ModuleList(
      (0-11): 12 x TransformerEncoderLayer(
        (self_att): MultiheadAttention(
          (att): MultiheadAttention(
            (out_proj): NonDynamicallyQuantizableLinear(in_features=768, out_features=768, bias=True)
          )
        )
        (pos_ffn): PositionalwiseFeedForward(
          (ffn): Sequential(
            (0): Linear(in_features=768, out_features=3072, bias=True)
            (1): GELU(approximate='none')
            (2): Dropout(p=0.0, inplace=False)
            (3): Linear(in_features=3072, out_features=768, bias=True)
          )
        )
        (norm1): LayerNorm(
          (norm): LayerNorm((768,), eps=1e-06, elementwise_affine=True)
        )
        (norm2): LayerNorm(
          (norm): LayerNorm((768,), eps=1e-06, elementwise_affine=True)
        )
        (dropout1): Dropout(p=0.0, inplace=False)
        (dropout2): Dropout(p=0.0, inplace=False)
      )
    )
    (norm): LayerNorm(
      (norm): LayerNorm((768,), eps=1e-06, elementwise_affine=True)
    )
  )
  (custom_src_module): NormalizedEmbedding(
    (emb): Embedding(
      (Embedding): Embedding(5000, 768)
    )
  )
  (output_proj): ModuleList(
    (layers): ModuleList(
      (0): Linear(
        (w): Linear(in_features=768, out_features=768, bias=True)
      )
      (1): LayerNorm(
        (norm): LayerNorm((768,), eps=1e-06, elementwise_affine=True)
      )
      (2): Linear(
        (w): Linear(in_features=768, out_features=5000, bias=True)
      )
    )
  )
) loading from /scratch/flatala/speechbrain/transformer/results_no_lm/results_fold_5/conformer_small/7775/save/lm.ckpt, the transferred parameters did not have parameters for the key: encoder.layers.5.norm1.norm.weight
2025-03-21 00:25:50,634 - speechbrain.utils.checkpoints - WARNING - During parameter transfer to TransformerLM(
  (positional_encoding): PositionalEncoding()
  (encoder): TransformerEncoder(
    (layers): ModuleList(
      (0-11): 12 x TransformerEncoderLayer(
        (self_att): MultiheadAttention(
          (att): MultiheadAttention(
            (out_proj): NonDynamicallyQuantizableLinear(in_features=768, out_features=768, bias=True)
          )
        )
        (pos_ffn): PositionalwiseFeedForward(
          (ffn): Sequential(
            (0): Linear(in_features=768, out_features=3072, bias=True)
            (1): GELU(approximate='none')
            (2): Dropout(p=0.0, inplace=False)
            (3): Linear(in_features=3072, out_features=768, bias=True)
          )
        )
        (norm1): LayerNorm(
          (norm): LayerNorm((768,), eps=1e-06, elementwise_affine=True)
        )
        (norm2): LayerNorm(
          (norm): LayerNorm((768,), eps=1e-06, elementwise_affine=True)
        )
        (dropout1): Dropout(p=0.0, inplace=False)
        (dropout2): Dropout(p=0.0, inplace=False)
      )
    )
    (norm): LayerNorm(
      (norm): LayerNorm((768,), eps=1e-06, elementwise_affine=True)
    )
  )
  (custom_src_module): NormalizedEmbedding(
    (emb): Embedding(
      (Embedding): Embedding(5000, 768)
    )
  )
  (output_proj): ModuleList(
    (layers): ModuleList(
      (0): Linear(
        (w): Linear(in_features=768, out_features=768, bias=True)
      )
      (1): LayerNorm(
        (norm): LayerNorm((768,), eps=1e-06, elementwise_affine=True)
      )
      (2): Linear(
        (w): Linear(in_features=768, out_features=5000, bias=True)
      )
    )
  )
) loading from /scratch/flatala/speechbrain/transformer/results_no_lm/results_fold_5/conformer_small/7775/save/lm.ckpt, the transferred parameters did not have parameters for the key: encoder.layers.5.norm1.norm.bias
2025-03-21 00:25:50,634 - speechbrain.utils.checkpoints - WARNING - During parameter transfer to TransformerLM(
  (positional_encoding): PositionalEncoding()
  (encoder): TransformerEncoder(
    (layers): ModuleList(
      (0-11): 12 x TransformerEncoderLayer(
        (self_att): MultiheadAttention(
          (att): MultiheadAttention(
            (out_proj): NonDynamicallyQuantizableLinear(in_features=768, out_features=768, bias=True)
          )
        )
        (pos_ffn): PositionalwiseFeedForward(
          (ffn): Sequential(
            (0): Linear(in_features=768, out_features=3072, bias=True)
            (1): GELU(approximate='none')
            (2): Dropout(p=0.0, inplace=False)
            (3): Linear(in_features=3072, out_features=768, bias=True)
          )
        )
        (norm1): LayerNorm(
          (norm): LayerNorm((768,), eps=1e-06, elementwise_affine=True)
        )
        (norm2): LayerNorm(
          (norm): LayerNorm((768,), eps=1e-06, elementwise_affine=True)
        )
        (dropout1): Dropout(p=0.0, inplace=False)
        (dropout2): Dropout(p=0.0, inplace=False)
      )
    )
    (norm): LayerNorm(
      (norm): LayerNorm((768,), eps=1e-06, elementwise_affine=True)
    )
  )
  (custom_src_module): NormalizedEmbedding(
    (emb): Embedding(
      (Embedding): Embedding(5000, 768)
    )
  )
  (output_proj): ModuleList(
    (layers): ModuleList(
      (0): Linear(
        (w): Linear(in_features=768, out_features=768, bias=True)
      )
      (1): LayerNorm(
        (norm): LayerNorm((768,), eps=1e-06, elementwise_affine=True)
      )
      (2): Linear(
        (w): Linear(in_features=768, out_features=5000, bias=True)
      )
    )
  )
) loading from /scratch/flatala/speechbrain/transformer/results_no_lm/results_fold_5/conformer_small/7775/save/lm.ckpt, the transferred parameters did not have parameters for the key: encoder.layers.5.norm2.norm.weight
2025-03-21 00:25:50,635 - speechbrain.utils.checkpoints - WARNING - During parameter transfer to TransformerLM(
  (positional_encoding): PositionalEncoding()
  (encoder): TransformerEncoder(
    (layers): ModuleList(
      (0-11): 12 x TransformerEncoderLayer(
        (self_att): MultiheadAttention(
          (att): MultiheadAttention(
            (out_proj): NonDynamicallyQuantizableLinear(in_features=768, out_features=768, bias=True)
          )
        )
        (pos_ffn): PositionalwiseFeedForward(
          (ffn): Sequential(
            (0): Linear(in_features=768, out_features=3072, bias=True)
            (1): GELU(approximate='none')
            (2): Dropout(p=0.0, inplace=False)
            (3): Linear(in_features=3072, out_features=768, bias=True)
          )
        )
        (norm1): LayerNorm(
          (norm): LayerNorm((768,), eps=1e-06, elementwise_affine=True)
        )
        (norm2): LayerNorm(
          (norm): LayerNorm((768,), eps=1e-06, elementwise_affine=True)
        )
        (dropout1): Dropout(p=0.0, inplace=False)
        (dropout2): Dropout(p=0.0, inplace=False)
      )
    )
    (norm): LayerNorm(
      (norm): LayerNorm((768,), eps=1e-06, elementwise_affine=True)
    )
  )
  (custom_src_module): NormalizedEmbedding(
    (emb): Embedding(
      (Embedding): Embedding(5000, 768)
    )
  )
  (output_proj): ModuleList(
    (layers): ModuleList(
      (0): Linear(
        (w): Linear(in_features=768, out_features=768, bias=True)
      )
      (1): LayerNorm(
        (norm): LayerNorm((768,), eps=1e-06, elementwise_affine=True)
      )
      (2): Linear(
        (w): Linear(in_features=768, out_features=5000, bias=True)
      )
    )
  )
) loading from /scratch/flatala/speechbrain/transformer/results_no_lm/results_fold_5/conformer_small/7775/save/lm.ckpt, the transferred parameters did not have parameters for the key: encoder.layers.5.norm2.norm.bias
2025-03-21 00:25:50,635 - speechbrain.utils.checkpoints - WARNING - During parameter transfer to TransformerLM(
  (positional_encoding): PositionalEncoding()
  (encoder): TransformerEncoder(
    (layers): ModuleList(
      (0-11): 12 x TransformerEncoderLayer(
        (self_att): MultiheadAttention(
          (att): MultiheadAttention(
            (out_proj): NonDynamicallyQuantizableLinear(in_features=768, out_features=768, bias=True)
          )
        )
        (pos_ffn): PositionalwiseFeedForward(
          (ffn): Sequential(
            (0): Linear(in_features=768, out_features=3072, bias=True)
            (1): GELU(approximate='none')
            (2): Dropout(p=0.0, inplace=False)
            (3): Linear(in_features=3072, out_features=768, bias=True)
          )
        )
        (norm1): LayerNorm(
          (norm): LayerNorm((768,), eps=1e-06, elementwise_affine=True)
        )
        (norm2): LayerNorm(
          (norm): LayerNorm((768,), eps=1e-06, elementwise_affine=True)
        )
        (dropout1): Dropout(p=0.0, inplace=False)
        (dropout2): Dropout(p=0.0, inplace=False)
      )
    )
    (norm): LayerNorm(
      (norm): LayerNorm((768,), eps=1e-06, elementwise_affine=True)
    )
  )
  (custom_src_module): NormalizedEmbedding(
    (emb): Embedding(
      (Embedding): Embedding(5000, 768)
    )
  )
  (output_proj): ModuleList(
    (layers): ModuleList(
      (0): Linear(
        (w): Linear(in_features=768, out_features=768, bias=True)
      )
      (1): LayerNorm(
        (norm): LayerNorm((768,), eps=1e-06, elementwise_affine=True)
      )
      (2): Linear(
        (w): Linear(in_features=768, out_features=5000, bias=True)
      )
    )
  )
) loading from /scratch/flatala/speechbrain/transformer/results_no_lm/results_fold_5/conformer_small/7775/save/lm.ckpt, the transferred parameters did not have parameters for the key: encoder.layers.6.self_att.att.in_proj_weight
2025-03-21 00:25:50,635 - speechbrain.utils.checkpoints - WARNING - During parameter transfer to TransformerLM(
  (positional_encoding): PositionalEncoding()
  (encoder): TransformerEncoder(
    (layers): ModuleList(
      (0-11): 12 x TransformerEncoderLayer(
        (self_att): MultiheadAttention(
          (att): MultiheadAttention(
            (out_proj): NonDynamicallyQuantizableLinear(in_features=768, out_features=768, bias=True)
          )
        )
        (pos_ffn): PositionalwiseFeedForward(
          (ffn): Sequential(
            (0): Linear(in_features=768, out_features=3072, bias=True)
            (1): GELU(approximate='none')
            (2): Dropout(p=0.0, inplace=False)
            (3): Linear(in_features=3072, out_features=768, bias=True)
          )
        )
        (norm1): LayerNorm(
          (norm): LayerNorm((768,), eps=1e-06, elementwise_affine=True)
        )
        (norm2): LayerNorm(
          (norm): LayerNorm((768,), eps=1e-06, elementwise_affine=True)
        )
        (dropout1): Dropout(p=0.0, inplace=False)
        (dropout2): Dropout(p=0.0, inplace=False)
      )
    )
    (norm): LayerNorm(
      (norm): LayerNorm((768,), eps=1e-06, elementwise_affine=True)
    )
  )
  (custom_src_module): NormalizedEmbedding(
    (emb): Embedding(
      (Embedding): Embedding(5000, 768)
    )
  )
  (output_proj): ModuleList(
    (layers): ModuleList(
      (0): Linear(
        (w): Linear(in_features=768, out_features=768, bias=True)
      )
      (1): LayerNorm(
        (norm): LayerNorm((768,), eps=1e-06, elementwise_affine=True)
      )
      (2): Linear(
        (w): Linear(in_features=768, out_features=5000, bias=True)
      )
    )
  )
) loading from /scratch/flatala/speechbrain/transformer/results_no_lm/results_fold_5/conformer_small/7775/save/lm.ckpt, the transferred parameters did not have parameters for the key: encoder.layers.6.self_att.att.in_proj_bias
2025-03-21 00:25:50,636 - speechbrain.utils.checkpoints - WARNING - During parameter transfer to TransformerLM(
  (positional_encoding): PositionalEncoding()
  (encoder): TransformerEncoder(
    (layers): ModuleList(
      (0-11): 12 x TransformerEncoderLayer(
        (self_att): MultiheadAttention(
          (att): MultiheadAttention(
            (out_proj): NonDynamicallyQuantizableLinear(in_features=768, out_features=768, bias=True)
          )
        )
        (pos_ffn): PositionalwiseFeedForward(
          (ffn): Sequential(
            (0): Linear(in_features=768, out_features=3072, bias=True)
            (1): GELU(approximate='none')
            (2): Dropout(p=0.0, inplace=False)
            (3): Linear(in_features=3072, out_features=768, bias=True)
          )
        )
        (norm1): LayerNorm(
          (norm): LayerNorm((768,), eps=1e-06, elementwise_affine=True)
        )
        (norm2): LayerNorm(
          (norm): LayerNorm((768,), eps=1e-06, elementwise_affine=True)
        )
        (dropout1): Dropout(p=0.0, inplace=False)
        (dropout2): Dropout(p=0.0, inplace=False)
      )
    )
    (norm): LayerNorm(
      (norm): LayerNorm((768,), eps=1e-06, elementwise_affine=True)
    )
  )
  (custom_src_module): NormalizedEmbedding(
    (emb): Embedding(
      (Embedding): Embedding(5000, 768)
    )
  )
  (output_proj): ModuleList(
    (layers): ModuleList(
      (0): Linear(
        (w): Linear(in_features=768, out_features=768, bias=True)
      )
      (1): LayerNorm(
        (norm): LayerNorm((768,), eps=1e-06, elementwise_affine=True)
      )
      (2): Linear(
        (w): Linear(in_features=768, out_features=5000, bias=True)
      )
    )
  )
) loading from /scratch/flatala/speechbrain/transformer/results_no_lm/results_fold_5/conformer_small/7775/save/lm.ckpt, the transferred parameters did not have parameters for the key: encoder.layers.6.self_att.att.out_proj.weight
2025-03-21 00:25:50,636 - speechbrain.utils.checkpoints - WARNING - During parameter transfer to TransformerLM(
  (positional_encoding): PositionalEncoding()
  (encoder): TransformerEncoder(
    (layers): ModuleList(
      (0-11): 12 x TransformerEncoderLayer(
        (self_att): MultiheadAttention(
          (att): MultiheadAttention(
            (out_proj): NonDynamicallyQuantizableLinear(in_features=768, out_features=768, bias=True)
          )
        )
        (pos_ffn): PositionalwiseFeedForward(
          (ffn): Sequential(
            (0): Linear(in_features=768, out_features=3072, bias=True)
            (1): GELU(approximate='none')
            (2): Dropout(p=0.0, inplace=False)
            (3): Linear(in_features=3072, out_features=768, bias=True)
          )
        )
        (norm1): LayerNorm(
          (norm): LayerNorm((768,), eps=1e-06, elementwise_affine=True)
        )
        (norm2): LayerNorm(
          (norm): LayerNorm((768,), eps=1e-06, elementwise_affine=True)
        )
        (dropout1): Dropout(p=0.0, inplace=False)
        (dropout2): Dropout(p=0.0, inplace=False)
      )
    )
    (norm): LayerNorm(
      (norm): LayerNorm((768,), eps=1e-06, elementwise_affine=True)
    )
  )
  (custom_src_module): NormalizedEmbedding(
    (emb): Embedding(
      (Embedding): Embedding(5000, 768)
    )
  )
  (output_proj): ModuleList(
    (layers): ModuleList(
      (0): Linear(
        (w): Linear(in_features=768, out_features=768, bias=True)
      )
      (1): LayerNorm(
        (norm): LayerNorm((768,), eps=1e-06, elementwise_affine=True)
      )
      (2): Linear(
        (w): Linear(in_features=768, out_features=5000, bias=True)
      )
    )
  )
) loading from /scratch/flatala/speechbrain/transformer/results_no_lm/results_fold_5/conformer_small/7775/save/lm.ckpt, the transferred parameters did not have parameters for the key: encoder.layers.6.self_att.att.out_proj.bias
2025-03-21 00:25:50,637 - speechbrain.utils.checkpoints - WARNING - During parameter transfer to TransformerLM(
  (positional_encoding): PositionalEncoding()
  (encoder): TransformerEncoder(
    (layers): ModuleList(
      (0-11): 12 x TransformerEncoderLayer(
        (self_att): MultiheadAttention(
          (att): MultiheadAttention(
            (out_proj): NonDynamicallyQuantizableLinear(in_features=768, out_features=768, bias=True)
          )
        )
        (pos_ffn): PositionalwiseFeedForward(
          (ffn): Sequential(
            (0): Linear(in_features=768, out_features=3072, bias=True)
            (1): GELU(approximate='none')
            (2): Dropout(p=0.0, inplace=False)
            (3): Linear(in_features=3072, out_features=768, bias=True)
          )
        )
        (norm1): LayerNorm(
          (norm): LayerNorm((768,), eps=1e-06, elementwise_affine=True)
        )
        (norm2): LayerNorm(
          (norm): LayerNorm((768,), eps=1e-06, elementwise_affine=True)
        )
        (dropout1): Dropout(p=0.0, inplace=False)
        (dropout2): Dropout(p=0.0, inplace=False)
      )
    )
    (norm): LayerNorm(
      (norm): LayerNorm((768,), eps=1e-06, elementwise_affine=True)
    )
  )
  (custom_src_module): NormalizedEmbedding(
    (emb): Embedding(
      (Embedding): Embedding(5000, 768)
    )
  )
  (output_proj): ModuleList(
    (layers): ModuleList(
      (0): Linear(
        (w): Linear(in_features=768, out_features=768, bias=True)
      )
      (1): LayerNorm(
        (norm): LayerNorm((768,), eps=1e-06, elementwise_affine=True)
      )
      (2): Linear(
        (w): Linear(in_features=768, out_features=5000, bias=True)
      )
    )
  )
) loading from /scratch/flatala/speechbrain/transformer/results_no_lm/results_fold_5/conformer_small/7775/save/lm.ckpt, the transferred parameters did not have parameters for the key: encoder.layers.6.pos_ffn.ffn.0.weight
2025-03-21 00:25:50,637 - speechbrain.utils.checkpoints - WARNING - During parameter transfer to TransformerLM(
  (positional_encoding): PositionalEncoding()
  (encoder): TransformerEncoder(
    (layers): ModuleList(
      (0-11): 12 x TransformerEncoderLayer(
        (self_att): MultiheadAttention(
          (att): MultiheadAttention(
…
      (1): LayerNorm(
        (norm): LayerNorm((768,), eps=1e-06, elementwise_affine=True)
      )
      (2): Linear(
        (w): Linear(in_features=768, out_features=5000, bias=True)
      )
    )
  )
) loading from /scratch/flatala/speechbrain/transformer/results_no_lm/results_fold_5/conformer_small/7775/save/lm.ckpt, the transferred parameters did not have parameters for the key: encoder.layers.11.norm1.norm.bias
2025-03-21 00:25:50,670 - speechbrain.utils.checkpoints - WARNING - During parameter transfer to TransformerLM(
  (positional_encoding): PositionalEncoding()
  (encoder): TransformerEncoder(
    (layers): ModuleList(
      (0-11): 12 x TransformerEncoderLayer(
        (self_att): MultiheadAttention(
          (att): MultiheadAttention(
            (out_proj): NonDynamicallyQuantizableLinear(in_features=768, out_features=768, bias=True)
          )
        )
        (pos_ffn): PositionalwiseFeedForward(
          (ffn): Sequential(
            (0): Linear(in_features=768, out_features=3072, bias=True)
            (1): GELU(approximate='none')
            (2): Dropout(p=0.0, inplace=False)
            (3): Linear(in_features=3072, out_features=768, bias=True)
          )
        )
        (norm1): LayerNorm(
          (norm): LayerNorm((768,), eps=1e-06, elementwise_affine=True)
        )
        (norm2): LayerNorm(
          (norm): LayerNorm((768,), eps=1e-06, elementwise_affine=True)
        )
        (dropout1): Dropout(p=0.0, inplace=False)
        (dropout2): Dropout(p=0.0, inplace=False)
      )
    )
    (norm): LayerNorm(
      (norm): LayerNorm((768,), eps=1e-06, elementwise_affine=True)
    )
  )
  (custom_src_module): NormalizedEmbedding(
    (emb): Embedding(
      (Embedding): Embedding(5000, 768)
    )
  )
  (output_proj): ModuleList(
    (layers): ModuleList(
      (0): Linear(
        (w): Linear(in_features=768, out_features=768, bias=True)
      )
      (1): LayerNorm(
        (norm): LayerNorm((768,), eps=1e-06, elementwise_affine=True)
      )
      (2): Linear(
        (w): Linear(in_features=768, out_features=5000, bias=True)
      )
    )
  )
) loading from /scratch/flatala/speechbrain/transformer/results_no_lm/results_fold_5/conformer_small/7775/save/lm.ckpt, the transferred parameters did not have parameters for the key: encoder.layers.11.norm2.norm.weight
2025-03-21 00:25:50,671 - speechbrain.utils.checkpoints - WARNING - During parameter transfer to TransformerLM(
  (positional_encoding): PositionalEncoding()
  (encoder): TransformerEncoder(
    (layers): ModuleList(
      (0-11): 12 x TransformerEncoderLayer(
        (self_att): MultiheadAttention(
          (att): MultiheadAttention(
            (out_proj): NonDynamicallyQuantizableLinear(in_features=768, out_features=768, bias=True)
          )
        )
        (pos_ffn): PositionalwiseFeedForward(
          (ffn): Sequential(
            (0): Linear(in_features=768, out_features=3072, bias=True)
            (1): GELU(approximate='none')
            (2): Dropout(p=0.0, inplace=False)
            (3): Linear(in_features=3072, out_features=768, bias=True)
          )
        )
        (norm1): LayerNorm(
          (norm): LayerNorm((768,), eps=1e-06, elementwise_affine=True)
        )
        (norm2): LayerNorm(
          (norm): LayerNorm((768,), eps=1e-06, elementwise_affine=True)
        )
        (dropout1): Dropout(p=0.0, inplace=False)
        (dropout2): Dropout(p=0.0, inplace=False)
      )
    )
    (norm): LayerNorm(
      (norm): LayerNorm((768,), eps=1e-06, elementwise_affine=True)
    )
  )
  (custom_src_module): NormalizedEmbedding(
    (emb): Embedding(
      (Embedding): Embedding(5000, 768)
    )
  )
  (output_proj): ModuleList(
    (layers): ModuleList(
      (0): Linear(
        (w): Linear(in_features=768, out_features=768, bias=True)
      )
      (1): LayerNorm(
        (norm): LayerNorm((768,), eps=1e-06, elementwise_affine=True)
      )
      (2): Linear(
        (w): Linear(in_features=768, out_features=5000, bias=True)
      )
    )
  )
) loading from /scratch/flatala/speechbrain/transformer/results_no_lm/results_fold_5/conformer_small/7775/save/lm.ckpt, the transferred parameters did not have parameters for the key: encoder.layers.11.norm2.norm.bias
2025-03-21 00:25:50,671 - speechbrain.utils.checkpoints - WARNING - During parameter transfer to TransformerLM(
  (positional_encoding): PositionalEncoding()
  (encoder): TransformerEncoder(
    (layers): ModuleList(
      (0-11): 12 x TransformerEncoderLayer(
        (self_att): MultiheadAttention(
          (att): MultiheadAttention(
            (out_proj): NonDynamicallyQuantizableLinear(in_features=768, out_features=768, bias=True)
          )
        )
        (pos_ffn): PositionalwiseFeedForward(
          (ffn): Sequential(
            (0): Linear(in_features=768, out_features=3072, bias=True)
            (1): GELU(approximate='none')
            (2): Dropout(p=0.0, inplace=False)
            (3): Linear(in_features=3072, out_features=768, bias=True)
          )
        )
        (norm1): LayerNorm(
          (norm): LayerNorm((768,), eps=1e-06, elementwise_affine=True)
        )
        (norm2): LayerNorm(
          (norm): LayerNorm((768,), eps=1e-06, elementwise_affine=True)
        )
        (dropout1): Dropout(p=0.0, inplace=False)
        (dropout2): Dropout(p=0.0, inplace=False)
      )
    )
    (norm): LayerNorm(
      (norm): LayerNorm((768,), eps=1e-06, elementwise_affine=True)
    )
  )
  (custom_src_module): NormalizedEmbedding(
    (emb): Embedding(
      (Embedding): Embedding(5000, 768)
    )
  )
  (output_proj): ModuleList(
    (layers): ModuleList(
      (0): Linear(
        (w): Linear(in_features=768, out_features=768, bias=True)
      )
      (1): LayerNorm(
        (norm): LayerNorm((768,), eps=1e-06, elementwise_affine=True)
      )
      (2): Linear(
        (w): Linear(in_features=768, out_features=5000, bias=True)
      )
    )
  )
) loading from /scratch/flatala/speechbrain/transformer/results_no_lm/results_fold_5/conformer_small/7775/save/lm.ckpt, the transferred parameters did not have parameters for the key: encoder.norm.norm.weight
2025-03-21 00:25:50,672 - speechbrain.utils.checkpoints - WARNING - During parameter transfer to TransformerLM(
  (positional_encoding): PositionalEncoding()
  (encoder): TransformerEncoder(
    (layers): ModuleList(
      (0-11): 12 x TransformerEncoderLayer(
        (self_att): MultiheadAttention(
          (att): MultiheadAttention(
            (out_proj): NonDynamicallyQuantizableLinear(in_features=768, out_features=768, bias=True)
          )
        )
        (pos_ffn): PositionalwiseFeedForward(
          (ffn): Sequential(
            (0): Linear(in_features=768, out_features=3072, bias=True)
            (1): GELU(approximate='none')
            (2): Dropout(p=0.0, inplace=False)
            (3): Linear(in_features=3072, out_features=768, bias=True)
          )
        )
        (norm1): LayerNorm(
          (norm): LayerNorm((768,), eps=1e-06, elementwise_affine=True)
        )
        (norm2): LayerNorm(
          (norm): LayerNorm((768,), eps=1e-06, elementwise_affine=True)
        )
        (dropout1): Dropout(p=0.0, inplace=False)
        (dropout2): Dropout(p=0.0, inplace=False)
      )
    )
    (norm): LayerNorm(
      (norm): LayerNorm((768,), eps=1e-06, elementwise_affine=True)
    )
  )
  (custom_src_module): NormalizedEmbedding(
    (emb): Embedding(
      (Embedding): Embedding(5000, 768)
    )
  )
  (output_proj): ModuleList(
    (layers): ModuleList(
      (0): Linear(
        (w): Linear(in_features=768, out_features=768, bias=True)
      )
      (1): LayerNorm(
        (norm): LayerNorm((768,), eps=1e-06, elementwise_affine=True)
      )
      (2): Linear(
        (w): Linear(in_features=768, out_features=5000, bias=True)
      )
    )
  )
) loading from /scratch/flatala/speechbrain/transformer/results_no_lm/results_fold_5/conformer_small/7775/save/lm.ckpt, the transferred parameters did not have parameters for the key: encoder.norm.norm.bias
2025-03-21 00:25:50,672 - speechbrain.utils.checkpoints - WARNING - During parameter transfer to TransformerLM(
  (positional_encoding): PositionalEncoding()
  (encoder): TransformerEncoder(
    (layers): ModuleList(
      (0-11): 12 x TransformerEncoderLayer(
        (self_att): MultiheadAttention(
          (att): MultiheadAttention(
            (out_proj): NonDynamicallyQuantizableLinear(in_features=768, out_features=768, bias=True)
          )
        )
        (pos_ffn): PositionalwiseFeedForward(
          (ffn): Sequential(
            (0): Linear(in_features=768, out_features=3072, bias=True)
            (1): GELU(approximate='none')
            (2): Dropout(p=0.0, inplace=False)
            (3): Linear(in_features=3072, out_features=768, bias=True)
          )
        )
        (norm1): LayerNorm(
          (norm): LayerNorm((768,), eps=1e-06, elementwise_affine=True)
        )
        (norm2): LayerNorm(
          (norm): LayerNorm((768,), eps=1e-06, elementwise_affine=True)
        )
        (dropout1): Dropout(p=0.0, inplace=False)
        (dropout2): Dropout(p=0.0, inplace=False)
      )
    )
    (norm): LayerNorm(
      (norm): LayerNorm((768,), eps=1e-06, elementwise_affine=True)
    )
  )
  (custom_src_module): NormalizedEmbedding(
    (emb): Embedding(
      (Embedding): Embedding(5000, 768)
    )
  )
  (output_proj): ModuleList(
    (layers): ModuleList(
      (0): Linear(
        (w): Linear(in_features=768, out_features=768, bias=True)
      )
      (1): LayerNorm(
        (norm): LayerNorm((768,), eps=1e-06, elementwise_affine=True)
      )
      (2): Linear(
        (w): Linear(in_features=768, out_features=5000, bias=True)
      )
    )
  )
) loading from /scratch/flatala/speechbrain/transformer/results_no_lm/results_fold_5/conformer_small/7775/save/lm.ckpt, the transferred parameters did not have parameters for the key: custom_src_module.emb.Embedding.weight
2025-03-21 00:25:50,673 - speechbrain.utils.checkpoints - WARNING - During parameter transfer to TransformerLM(
  (positional_encoding): PositionalEncoding()
  (encoder): TransformerEncoder(
    (layers): ModuleList(
      (0-11): 12 x TransformerEncoderLayer(
        (self_att): MultiheadAttention(
          (att): MultiheadAttention(
            (out_proj): NonDynamicallyQuantizableLinear(in_features=768, out_features=768, bias=True)
          )
        )
        (pos_ffn): PositionalwiseFeedForward(
          (ffn): Sequential(
            (0): Linear(in_features=768, out_features=3072, bias=True)
            (1): GELU(approximate='none')
            (2): Dropout(p=0.0, inplace=False)
            (3): Linear(in_features=3072, out_features=768, bias=True)
          )
        )
        (norm1): LayerNorm(
          (norm): LayerNorm((768,), eps=1e-06, elementwise_affine=True)
        )
        (norm2): LayerNorm(
          (norm): LayerNorm((768,), eps=1e-06, elementwise_affine=True)
        )
        (dropout1): Dropout(p=0.0, inplace=False)
        (dropout2): Dropout(p=0.0, inplace=False)
      )
    )
    (norm): LayerNorm(
      (norm): LayerNorm((768,), eps=1e-06, elementwise_affine=True)
    )
  )
  (custom_src_module): NormalizedEmbedding(
    (emb): Embedding(
      (Embedding): Embedding(5000, 768)
    )
  )
  (output_proj): ModuleList(
    (layers): ModuleList(
      (0): Linear(
        (w): Linear(in_features=768, out_features=768, bias=True)
      )
      (1): LayerNorm(
        (norm): LayerNorm((768,), eps=1e-06, elementwise_affine=True)
      )
      (2): Linear(
        (w): Linear(in_features=768, out_features=5000, bias=True)
      )
    )
  )
) loading from /scratch/flatala/speechbrain/transformer/results_no_lm/results_fold_5/conformer_small/7775/save/lm.ckpt, the transferred parameters did not have parameters for the key: output_proj.layers.0.w.weight
2025-03-21 00:25:50,673 - speechbrain.utils.checkpoints - WARNING - During parameter transfer to TransformerLM(
  (positional_encoding): PositionalEncoding()
  (encoder): TransformerEncoder(
    (layers): ModuleList(
      (0-11): 12 x TransformerEncoderLayer(
        (self_att): MultiheadAttention(
          (att): MultiheadAttention(
            (out_proj): NonDynamicallyQuantizableLinear(in_features=768, out_features=768, bias=True)
          )
        )
        (pos_ffn): PositionalwiseFeedForward(
          (ffn): Sequential(
            (0): Linear(in_features=768, out_features=3072, bias=True)
            (1): GELU(approximate='none')
            (2): Dropout(p=0.0, inplace=False)
            (3): Linear(in_features=3072, out_features=768, bias=True)
          )
        )
        (norm1): LayerNorm(
          (norm): LayerNorm((768,), eps=1e-06, elementwise_affine=True)
        )
        (norm2): LayerNorm(
          (norm): LayerNorm((768,), eps=1e-06, elementwise_affine=True)
        )
        (dropout1): Dropout(p=0.0, inplace=False)
        (dropout2): Dropout(p=0.0, inplace=False)
      )
    )
    (norm): LayerNorm(
      (norm): LayerNorm((768,), eps=1e-06, elementwise_affine=True)
    )
  )
  (custom_src_module): NormalizedEmbedding(
    (emb): Embedding(
      (Embedding): Embedding(5000, 768)
    )
  )
  (output_proj): ModuleList(
    (layers): ModuleList(
      (0): Linear(
        (w): Linear(in_features=768, out_features=768, bias=True)
      )
      (1): LayerNorm(
        (norm): LayerNorm((768,), eps=1e-06, elementwise_affine=True)
      )
      (2): Linear(
        (w): Linear(in_features=768, out_features=5000, bias=True)
      )
    )
  )
) loading from /scratch/flatala/speechbrain/transformer/results_no_lm/results_fold_5/conformer_small/7775/save/lm.ckpt, the transferred parameters did not have parameters for the key: output_proj.layers.0.w.bias
2025-03-21 00:25:50,674 - speechbrain.utils.checkpoints - WARNING - During parameter transfer to TransformerLM(
  (positional_encoding): PositionalEncoding()
  (encoder): TransformerEncoder(
    (layers): ModuleList(
      (0-11): 12 x TransformerEncoderLayer(
        (self_att): MultiheadAttention(
          (att): MultiheadAttention(
            (out_proj): NonDynamicallyQuantizableLinear(in_features=768, out_features=768, bias=True)
          )
        )
        (pos_ffn): PositionalwiseFeedForward(
          (ffn): Sequential(
            (0): Linear(in_features=768, out_features=3072, bias=True)
            (1): GELU(approximate='none')
            (2): Dropout(p=0.0, inplace=False)
            (3): Linear(in_features=3072, out_features=768, bias=True)
          )
        )
        (norm1): LayerNorm(
          (norm): LayerNorm((768,), eps=1e-06, elementwise_affine=True)
        )
        (norm2): LayerNorm(
          (norm): LayerNorm((768,), eps=1e-06, elementwise_affine=True)
        )
        (dropout1): Dropout(p=0.0, inplace=False)
        (dropout2): Dropout(p=0.0, inplace=False)
      )
    )
    (norm): LayerNorm(
      (norm): LayerNorm((768,), eps=1e-06, elementwise_affine=True)
    )
  )
  (custom_src_module): NormalizedEmbedding(
    (emb): Embedding(
      (Embedding): Embedding(5000, 768)
    )
  )
  (output_proj): ModuleList(
    (layers): ModuleList(
      (0): Linear(
        (w): Linear(in_features=768, out_features=768, bias=True)
      )
      (1): LayerNorm(
        (norm): LayerNorm((768,), eps=1e-06, elementwise_affine=True)
      )
      (2): Linear(
        (w): Linear(in_features=768, out_features=5000, bias=True)
      )
    )
  )
) loading from /scratch/flatala/speechbrain/transformer/results_no_lm/results_fold_5/conformer_small/7775/save/lm.ckpt, the transferred parameters did not have parameters for the key: output_proj.layers.1.norm.weight
2025-03-21 00:25:50,674 - speechbrain.utils.checkpoints - WARNING - During parameter transfer to TransformerLM(
  (positional_encoding): PositionalEncoding()
  (encoder): TransformerEncoder(
    (layers): ModuleList(
      (0-11): 12 x TransformerEncoderLayer(
        (self_att): MultiheadAttention(
          (att): MultiheadAttention(
            (out_proj): NonDynamicallyQuantizableLinear(in_features=768, out_features=768, bias=True)
          )
        )
        (pos_ffn): PositionalwiseFeedForward(
          (ffn): Sequential(
            (0): Linear(in_features=768, out_features=3072, bias=True)
            (1): GELU(approximate='none')
            (2): Dropout(p=0.0, inplace=False)
            (3): Linear(in_features=3072, out_features=768, bias=True)
          )
        )
        (norm1): LayerNorm(
          (norm): LayerNorm((768,), eps=1e-06, elementwise_affine=True)
        )
        (norm2): LayerNorm(
          (norm): LayerNorm((768,), eps=1e-06, elementwise_affine=True)
        )
        (dropout1): Dropout(p=0.0, inplace=False)
        (dropout2): Dropout(p=0.0, inplace=False)
      )
    )
    (norm): LayerNorm(
      (norm): LayerNorm((768,), eps=1e-06, elementwise_affine=True)
    )
  )
  (custom_src_module): NormalizedEmbedding(
    (emb): Embedding(
      (Embedding): Embedding(5000, 768)
    )
  )
  (output_proj): ModuleList(
    (layers): ModuleList(
      (0): Linear(
        (w): Linear(in_features=768, out_features=768, bias=True)
      )
      (1): LayerNorm(
        (norm): LayerNorm((768,), eps=1e-06, elementwise_affine=True)
      )
      (2): Linear(
        (w): Linear(in_features=768, out_features=5000, bias=True)
      )
    )
  )
) loading from /scratch/flatala/speechbrain/transformer/results_no_lm/results_fold_5/conformer_small/7775/save/lm.ckpt, the transferred parameters did not have parameters for the key: output_proj.layers.1.norm.bias
2025-03-21 00:25:50,675 - speechbrain.utils.checkpoints - WARNING - During parameter transfer to TransformerLM(
  (positional_encoding): PositionalEncoding()
  (encoder): TransformerEncoder(
    (layers): ModuleList(
      (0-11): 12 x TransformerEncoderLayer(
        (self_att): MultiheadAttention(
          (att): MultiheadAttention(
            (out_proj): NonDynamicallyQuantizableLinear(in_features=768, out_features=768, bias=True)
          )
        )
        (pos_ffn): PositionalwiseFeedForward(
          (ffn): Sequential(
            (0): Linear(in_features=768, out_features=3072, bias=True)
            (1): GELU(approximate='none')
            (2): Dropout(p=0.0, inplace=False)
            (3): Linear(in_features=3072, out_features=768, bias=True)
          )
        )
        (norm1): LayerNorm(
          (norm): LayerNorm((768,), eps=1e-06, elementwise_affine=True)
        )
        (norm2): LayerNorm(
          (norm): LayerNorm((768,), eps=1e-06, elementwise_affine=True)
        )
        (dropout1): Dropout(p=0.0, inplace=False)
        (dropout2): Dropout(p=0.0, inplace=False)
      )
    )
    (norm): LayerNorm(
      (norm): LayerNorm((768,), eps=1e-06, elementwise_affine=True)
    )
  )
  (custom_src_module): NormalizedEmbedding(
    (emb): Embedding(
      (Embedding): Embedding(5000, 768)
    )
  )
  (output_proj): ModuleList(
    (layers): ModuleList(
      (0): Linear(
        (w): Linear(in_features=768, out_features=768, bias=True)
      )
      (1): LayerNorm(
        (norm): LayerNorm((768,), eps=1e-06, elementwise_affine=True)
      )
      (2): Linear(
        (w): Linear(in_features=768, out_features=5000, bias=True)
      )
    )
  )
) loading from /scratch/flatala/speechbrain/transformer/results_no_lm/results_fold_5/conformer_small/7775/save/lm.ckpt, the transferred parameters did not have parameters for the key: output_proj.layers.2.w.weight
2025-03-21 00:25:50,675 - speechbrain.utils.checkpoints - WARNING - During parameter transfer to TransformerLM(
  (positional_encoding): PositionalEncoding()
  (encoder): TransformerEncoder(
    (layers): ModuleList(
      (0-11): 12 x TransformerEncoderLayer(
        (self_att): MultiheadAttention(
          (att): MultiheadAttention(
            (out_proj): NonDynamicallyQuantizableLinear(in_features=768, out_features=768, bias=True)
          )
        )
        (pos_ffn): PositionalwiseFeedForward(
          (ffn): Sequential(
            (0): Linear(in_features=768, out_features=3072, bias=True)
            (1): GELU(approximate='none')
            (2): Dropout(p=0.0, inplace=False)
            (3): Linear(in_features=3072, out_features=768, bias=True)
          )
        )
        (norm1): LayerNorm(
          (norm): LayerNorm((768,), eps=1e-06, elementwise_affine=True)
        )
        (norm2): LayerNorm(
          (norm): LayerNorm((768,), eps=1e-06, elementwise_affine=True)
        )
        (dropout1): Dropout(p=0.0, inplace=False)
        (dropout2): Dropout(p=0.0, inplace=False)
      )
    )
    (norm): LayerNorm(
      (norm): LayerNorm((768,), eps=1e-06, elementwise_affine=True)
    )
  )
  (custom_src_module): NormalizedEmbedding(
    (emb): Embedding(
      (Embedding): Embedding(5000, 768)
    )
  )
  (output_proj): ModuleList(
    (layers): ModuleList(
      (0): Linear(
        (w): Linear(in_features=768, out_features=768, bias=True)
      )
      (1): LayerNorm(
        (norm): LayerNorm((768,), eps=1e-06, elementwise_affine=True)
      )
      (2): Linear(
        (w): Linear(in_features=768, out_features=5000, bias=True)
      )
    )
  )
) loading from /scratch/flatala/speechbrain/transformer/results_no_lm/results_fold_5/conformer_small/7775/save/lm.ckpt, the transferred parameters did not have parameters for the key: output_proj.layers.2.w.bias
2025-03-21 00:25:50,676 - speechbrain.utils.checkpoints - WARNING - During parameter transfer to TransformerLM(
  (positional_encoding): PositionalEncoding()
  (encoder): TransformerEncoder(
    (layers): ModuleList(
      (0-11): 12 x TransformerEncoderLayer(
        (self_att): MultiheadAttention(
          (att): MultiheadAttention(
            (out_proj): NonDynamicallyQuantizableLinear(in_features=768, out_features=768, bias=True)
          )
        )
        (pos_ffn): PositionalwiseFeedForward(
          (ffn): Sequential(
            (0): Linear(in_features=768, out_features=3072, bias=True)
            (1): GELU(approximate='none')
            (2): Dropout(p=0.0, inplace=False)
            (3): Linear(in_features=3072, out_features=768, bias=True)
          )
        )
        (norm1): LayerNorm(
          (norm): LayerNorm((768,), eps=1e-06, elementwise_affine=True)
        )
        (norm2): LayerNorm(
          (norm): LayerNorm((768,), eps=1e-06, elementwise_affine=True)
        )
        (dropout1): Dropout(p=0.0, inplace=False)
        (dropout2): Dropout(p=0.0, inplace=False)
      )
    )
    (norm): LayerNorm(
      (norm): LayerNorm((768,), eps=1e-06, elementwise_affine=True)
    )
  )
  (custom_src_module): NormalizedEmbedding(
    (emb): Embedding(
      (Embedding): Embedding(5000, 768)
    )
  )
  (output_proj): ModuleList(
    (layers): ModuleList(
      (0): Linear(
        (w): Linear(in_features=768, out_features=768, bias=True)
      )
      (1): LayerNorm(
        (norm): LayerNorm((768,), eps=1e-06, elementwise_affine=True)
      )
      (2): Linear(
        (w): Linear(in_features=768, out_features=5000, bias=True)
      )
    )
  )
) loading from /scratch/flatala/speechbrain/transformer/results_no_lm/results_fold_5/conformer_small/7775/save/lm.ckpt, the object could not use the parameters loaded with the key: embedding.Embedding.weight
2025-03-21 00:25:50,676 - speechbrain.utils.checkpoints - WARNING - During parameter transfer to TransformerLM(
  (positional_encoding): PositionalEncoding()
  (encoder): TransformerEncoder(
    (layers): ModuleList(
      (0-11): 12 x TransformerEncoderLayer(
        (self_att): MultiheadAttention(
          (att): MultiheadAttention(
            (out_proj): NonDynamicallyQuantizableLinear(in_features=768, out_features=768, bias=True)
          )
        )
        (pos_ffn): PositionalwiseFeedForward(
          (ffn): Sequential(
            (0): Linear(in_features=768, out_features=3072, bias=True)
            (1): GELU(approximate='none')
            (2): Dropout(p=0.0, inplace=False)
            (3): Linear(in_features=3072, out_features=768, bias=True)
          )
        )
        (norm1): LayerNorm(
          (norm): LayerNorm((768,), eps=1e-06, elementwise_affine=True)
        )
        (norm2): LayerNorm(
          (norm): LayerNorm((768,), eps=1e-06, elementwise_affine=True)
        )
        (dropout1): Dropout(p=0.0, inplace=False)
        (dropout2): Dropout(p=0.0, inplace=False)
      )
    )
    (norm): LayerNorm(
      (norm): LayerNorm((768,), eps=1e-06, elementwise_affine=True)
    )
  )
  (custom_src_module): NormalizedEmbedding(
    (emb): Embedding(
      (Embedding): Embedding(5000, 768)
    )
  )
  (output_proj): ModuleList(
    (layers): ModuleList(
      (0): Linear(
        (w): Linear(in_features=768, out_features=768, bias=True)
      )
      (1): LayerNorm(
        (norm): LayerNorm((768,), eps=1e-06, elementwise_affine=True)
      )
      (2): Linear(
        (w): Linear(in_features=768, out_features=5000, bias=True)
      )
    )
  )
) loading from /scratch/flatala/speechbrain/transformer/results_no_lm/results_fold_5/conformer_small/7775/save/lm.ckpt, the object could not use the parameters loaded with the key: rnn.rnn.weight_ih_l0
2025-03-21 00:25:50,677 - speechbrain.utils.checkpoints - WARNING - During parameter transfer to TransformerLM(
  (positional_encoding): PositionalEncoding()
  (encoder): TransformerEncoder(
    (layers): ModuleList(
      (0-11): 12 x TransformerEncoderLayer(
        (self_att): MultiheadAttention(
          (att): MultiheadAttention(
            (out_proj): NonDynamicallyQuantizableLinear(in_features=768, out_features=768, bias=True)
          )
        )
        (pos_ffn): PositionalwiseFeedForward(
          (ffn): Sequential(
            (0): Linear(in_features=768, out_features=3072, bias=True)
            (1): GELU(approximate='none')
            (2): Dropout(p=0.0, inplace=False)
            (3): Linear(in_features=3072, out_features=768, bias=True)
          )
        )
        (norm1): LayerNorm(
          (norm): LayerNorm((768,), eps=1e-06, elementwise_affine=True)
        )
        (norm2): LayerNorm(
          (norm): LayerNorm((768,), eps=1e-06, elementwise_affine=True)
        )
        (dropout1): Dropout(p=0.0, inplace=False)
        (dropout2): Dropout(p=0.0, inplace=False)
      )
    )
    (norm): LayerNorm(
      (norm): LayerNorm((768,), eps=1e-06, elementwise_affine=True)
    )
  )
  (custom_src_module): NormalizedEmbedding(
    (emb): Embedding(
      (Embedding): Embedding(5000, 768)
    )
  )
  (output_proj): ModuleList(
    (layers): ModuleList(
      (0): Linear(
        (w): Linear(in_features=768, out_features=768, bias=True)
      )
      (1): LayerNorm(
        (norm): LayerNorm((768,), eps=1e-06, elementwise_affine=True)
      )
      (2): Linear(
        (w): Linear(in_features=768, out_features=5000, bias=True)
      )
    )
  )
) loading from /scratch/flatala/speechbrain/transformer/results_no_lm/results_fold_5/conformer_small/7775/save/lm.ckpt, the object could not use the parameters loaded with the key: rnn.rnn.weight_hh_l0
2025-03-21 00:25:50,677 - speechbrain.utils.checkpoints - WARNING - During parameter transfer to TransformerLM(
  (positional_encoding): PositionalEncoding()
  (encoder): TransformerEncoder(
    (layers): ModuleList(
      (0-11): 12 x TransformerEncoderLayer(
        (self_att): MultiheadAttention(
          (att): MultiheadAttention(
            (out_proj): NonDynamicallyQuantizableLinear(in_features=768, out_features=768, bias=True)
          )
        )
        (pos_ffn): PositionalwiseFeedForward(
          (ffn): Sequential(
            (0): Linear(in_features=768, out_features=3072, bias=True)
            (1): GELU(approximate='none')
            (2): Dropout(p=0.0, inplace=False)
            (3): Linear(in_features=3072, out_features=768, bias=True)
          )
        )
        (norm1): LayerNorm(
          (norm): LayerNorm((768,), eps=1e-06, elementwise_affine=True)
        )
        (norm2): LayerNorm(
          (norm): LayerNorm((768,), eps=1e-06, elementwise_affine=True)
        )
        (dropout1): Dropout(p=0.0, inplace=False)
        (dropout2): Dropout(p=0.0, inplace=False)
      )
    )
    (norm): LayerNorm(
      (norm): LayerNorm((768,), eps=1e-06, elementwise_affine=True)
    )
  )
  (custom_src_module): NormalizedEmbedding(
    (emb): Embedding(
      (Embedding): Embedding(5000, 768)
    )
  )
  (output_proj): ModuleList(
    (layers): ModuleList(
      (0): Linear(
        (w): Linear(in_features=768, out_features=768, bias=True)
      )
      (1): LayerNorm(
        (norm): LayerNorm((768,), eps=1e-06, elementwise_affine=True)
      )
      (2): Linear(
        (w): Linear(in_features=768, out_features=5000, bias=True)
      )
    )
  )
) loading from /scratch/flatala/speechbrain/transformer/results_no_lm/results_fold_5/conformer_small/7775/save/lm.ckpt, the object could not use the parameters loaded with the key: rnn.rnn.bias_ih_l0
2025-03-21 00:25:50,678 - speechbrain.utils.checkpoints - WARNING - During parameter transfer to TransformerLM(
  (positional_encoding): PositionalEncoding()
  (encoder): TransformerEncoder(
    (layers): ModuleList(
      (0-11): 12 x TransformerEncoderLayer(
        (self_att): MultiheadAttention(
          (att): MultiheadAttention(
            (out_proj): NonDynamicallyQuantizableLinear(in_features=768, out_features=768, bias=True)
          )
        )
        (pos_ffn): PositionalwiseFeedForward(
          (ffn): Sequential(
            (0): Linear(in_features=768, out_features=3072, bias=True)
            (1): GELU(approximate='none')
            (2): Dropout(p=0.0, inplace=False)
            (3): Linear(in_features=3072, out_features=768, bias=True)
          )
        )
        (norm1): LayerNorm(
          (norm): LayerNorm((768,), eps=1e-06, elementwise_affine=True)
        )
        (norm2): LayerNorm(
          (norm): LayerNorm((768,), eps=1e-06, elementwise_affine=True)
        )
        (dropout1): Dropout(p=0.0, inplace=False)
        (dropout2): Dropout(p=0.0, inplace=False)
      )
    )
    (norm): LayerNorm(
      (norm): LayerNorm((768,), eps=1e-06, elementwise_affine=True)
    )
  )
  (custom_src_module): NormalizedEmbedding(
    (emb): Embedding(
      (Embedding): Embedding(5000, 768)
    )
  )
  (output_proj): ModuleList(
    (layers): ModuleList(
      (0): Linear(
        (w): Linear(in_features=768, out_features=768, bias=True)
      )
      (1): LayerNorm(
        (norm): LayerNorm((768,), eps=1e-06, elementwise_affine=True)
      )
      (2): Linear(
        (w): Linear(in_features=768, out_features=5000, bias=True)
      )
    )
  )
) loading from /scratch/flatala/speechbrain/transformer/results_no_lm/results_fold_5/conformer_small/7775/save/lm.ckpt, the object could not use the parameters loaded with the key: rnn.rnn.bias_hh_l0
2025-03-21 00:25:50,678 - speechbrain.utils.checkpoints - WARNING - During parameter transfer to TransformerLM(
  (positional_encoding): PositionalEncoding()
  (encoder): TransformerEncoder(
    (layers): ModuleList(
      (0-11): 12 x TransformerEncoderLayer(
        (self_att): MultiheadAttention(
          (att): MultiheadAttention(
            (out_proj): NonDynamicallyQuantizableLinear(in_features=768, out_features=768, bias=True)
          )
        )
        (pos_ffn): PositionalwiseFeedForward(
          (ffn): Sequential(
            (0): Linear(in_features=768, out_features=3072, bias=True)
            (1): GELU(approximate='none')
            (2): Dropout(p=0.0, inplace=False)
            (3): Linear(in_features=3072, out_features=768, bias=True)
          )
        )
        (norm1): LayerNorm(
          (norm): LayerNorm((768,), eps=1e-06, elementwise_affine=True)
        )
        (norm2): LayerNorm(
          (norm): LayerNorm((768,), eps=1e-06, elementwise_affine=True)
        )
        (dropout1): Dropout(p=0.0, inplace=False)
        (dropout2): Dropout(p=0.0, inplace=False)
      )
    )
    (norm): LayerNorm(
      (norm): LayerNorm((768,), eps=1e-06, elementwise_affine=True)
    )
  )
  (custom_src_module): NormalizedEmbedding(
    (emb): Embedding(
      (Embedding): Embedding(5000, 768)
    )
  )
  (output_proj): ModuleList(
    (layers): ModuleList(
      (0): Linear(
        (w): Linear(in_features=768, out_features=768, bias=True)
      )
      (1): LayerNorm(
        (norm): LayerNorm((768,), eps=1e-06, elementwise_affine=True)
      )
      (2): Linear(
        (w): Linear(in_features=768, out_features=5000, bias=True)
      )
    )
  )
) loading from /scratch/flatala/speechbrain/transformer/results_no_lm/results_fold_5/conformer_small/7775/save/lm.ckpt, the object could not use the parameters loaded with the key: rnn.rnn.weight_ih_l1
2025-03-21 00:25:50,678 - speechbrain.utils.checkpoints - WARNING - During parameter transfer to TransformerLM(
  (positional_encoding): PositionalEncoding()
  (encoder): TransformerEncoder(
    (layers): ModuleList(
      (0-11): 12 x TransformerEncoderLayer(
        (self_att): MultiheadAttention(
          (att): MultiheadAttention(
            (out_proj): NonDynamicallyQuantizableLinear(in_features=768, out_features=768, bias=True)
          )
        )
        (pos_ffn): PositionalwiseFeedForward(
          (ffn): Sequential(
            (0): Linear(in_features=768, out_features=3072, bias=True)
            (1): GELU(approximate='none')
            (2): Dropout(p=0.0, inplace=False)
            (3): Linear(in_features=3072, out_features=768, bias=True)
          )
        )
        (norm1): LayerNorm(
          (norm): LayerNorm((768,), eps=1e-06, elementwise_affine=True)
        )
        (norm2): LayerNorm(
          (norm): LayerNorm((768,), eps=1e-06, elementwise_affine=True)
        )
        (dropout1): Dropout(p=0.0, inplace=False)
        (dropout2): Dropout(p=0.0, inplace=False)
      )
    )
    (norm): LayerNorm(
      (norm): LayerNorm((768,), eps=1e-06, elementwise_affine=True)
    )
  )
  (custom_src_module): NormalizedEmbedding(
    (emb): Embedding(
      (Embedding): Embedding(5000, 768)
    )
  )
  (output_proj): ModuleList(
    (layers): ModuleList(
      (0): Linear(
        (w): Linear(in_features=768, out_features=768, bias=True)
      )
      (1): LayerNorm(
        (norm): LayerNorm((768,), eps=1e-06, elementwise_affine=True)
      )
      (2): Linear(
        (w): Linear(in_features=768, out_features=5000, bias=True)
      )
    )
  )
) loading from /scratch/flatala/speechbrain/transformer/results_no_lm/results_fold_5/conformer_small/7775/save/lm.ckpt, the object could not use the parameters loaded with the key: rnn.rnn.weight_hh_l1
2025-03-21 00:25:50,679 - speechbrain.utils.checkpoints - WARNING - During parameter transfer to TransformerLM(
  (positional_encoding): PositionalEncoding()
  (encoder): TransformerEncoder(
    (layers): ModuleList(
      (0-11): 12 x TransformerEncoderLayer(
        (self_att): MultiheadAttention(
          (att): MultiheadAttention(
            (out_proj): NonDynamicallyQuantizableLinear(in_features=768, out_features=768, bias=True)
          )
        )
        (pos_ffn): PositionalwiseFeedForward(
          (ffn): Sequential(
            (0): Linear(in_features=768, out_features=3072, bias=True)
            (1): GELU(approximate='none')
            (2): Dropout(p=0.0, inplace=False)
            (3): Linear(in_features=3072, out_features=768, bias=True)
          )
        )
        (norm1): LayerNorm(
          (norm): LayerNorm((768,), eps=1e-06, elementwise_affine=True)
        )
        (norm2): LayerNorm(
          (norm): LayerNorm((768,), eps=1e-06, elementwise_affine=True)
        )
        (dropout1): Dropout(p=0.0, inplace=False)
        (dropout2): Dropout(p=0.0, inplace=False)
      )
    )
    (norm): LayerNorm(
      (norm): LayerNorm((768,), eps=1e-06, elementwise_affine=True)
    )
  )
  (custom_src_module): NormalizedEmbedding(
    (emb): Embedding(
      (Embedding): Embedding(5000, 768)
    )
  )
  (output_proj): ModuleList(
    (layers): ModuleList(
      (0): Linear(
        (w): Linear(in_features=768, out_features=768, bias=True)
      )
      (1): LayerNorm(
        (norm): LayerNorm((768,), eps=1e-06, elementwise_affine=True)
      )
      (2): Linear(
        (w): Linear(in_features=768, out_features=5000, bias=True)
      )
    )
  )
) loading from /scratch/flatala/speechbrain/transformer/results_no_lm/results_fold_5/conformer_small/7775/save/lm.ckpt, the object could not use the parameters loaded with the key: rnn.rnn.bias_ih_l1
2025-03-21 00:25:50,679 - speechbrain.utils.checkpoints - WARNING - During parameter transfer to TransformerLM(
  (positional_encoding): PositionalEncoding()
  (encoder): TransformerEncoder(
    (layers): ModuleList(
      (0-11): 12 x TransformerEncoderLayer(
        (self_att): MultiheadAttention(
          (att): MultiheadAttention(
            (out_proj): NonDynamicallyQuantizableLinear(in_features=768, out_features=768, bias=True)
          )
        )
        (pos_ffn): PositionalwiseFeedForward(
          (ffn): Sequential(
            (0): Linear(in_features=768, out_features=3072, bias=True)
            (1): GELU(approximate='none')
            (2): Dropout(p=0.0, inplace=False)
            (3): Linear(in_features=3072, out_features=768, bias=True)
          )
        )
        (norm1): LayerNorm(
          (norm): LayerNorm((768,), eps=1e-06, elementwise_affine=True)
        )
        (norm2): LayerNorm(
          (norm): LayerNorm((768,), eps=1e-06, elementwise_affine=True)
        )
        (dropout1): Dropout(p=0.0, inplace=False)
        (dropout2): Dropout(p=0.0, inplace=False)
      )
    )
    (norm): LayerNorm(
      (norm): LayerNorm((768,), eps=1e-06, elementwise_affine=True)
    )
  )
  (custom_src_module): NormalizedEmbedding(
    (emb): Embedding(
      (Embedding): Embedding(5000, 768)
    )
  )
  (output_proj): ModuleList(
    (layers): ModuleList(
      (0): Linear(
        (w): Linear(in_features=768, out_features=768, bias=True)
      )
      (1): LayerNorm(
        (norm): LayerNorm((768,), eps=1e-06, elementwise_affine=True)
      )
      (2): Linear(
        (w): Linear(in_features=768, out_features=5000, bias=True)
      )
    )
  )
) loading from /scratch/flatala/speechbrain/transformer/results_no_lm/results_fold_5/conformer_small/7775/save/lm.ckpt, the object could not use the parameters loaded with the key: rnn.rnn.bias_hh_l1
2025-03-21 00:25:50,680 - speechbrain.utils.checkpoints - WARNING - During parameter transfer to TransformerLM(
  (positional_encoding): PositionalEncoding()
  (encoder): TransformerEncoder(
    (layers): ModuleList(
      (0-11): 12 x TransformerEncoderLayer(
        (self_att): MultiheadAttention(
          (att): MultiheadAttention(
            (out_proj): NonDynamicallyQuantizableLinear(in_features=768, out_features=768, bias=True)
          )
        )
        (pos_ffn): PositionalwiseFeedForward(
          (ffn): Sequential(
            (0): Linear(in_features=768, out_features=3072, bias=True)
            (1): GELU(approximate='none')
            (2): Dropout(p=0.0, inplace=False)
            (3): Linear(in_features=3072, out_features=768, bias=True)
          )
        )
        (norm1): LayerNorm(
          (norm): LayerNorm((768,), eps=1e-06, elementwise_affine=True)
        )
        (norm2): LayerNorm(
          (norm): LayerNorm((768,), eps=1e-06, elementwise_affine=True)
        )
        (dropout1): Dropout(p=0.0, inplace=False)
        (dropout2): Dropout(p=0.0, inplace=False)
      )
    )
    (norm): LayerNorm(
      (norm): LayerNorm((768,), eps=1e-06, elementwise_affine=True)
    )
  )
  (custom_src_module): NormalizedEmbedding(
    (emb): Embedding(
      (Embedding): Embedding(5000, 768)
    )
  )
  (output_proj): ModuleList(
    (layers): ModuleList(
      (0): Linear(
        (w): Linear(in_features=768, out_features=768, bias=True)
      )
      (1): LayerNorm(
        (norm): LayerNorm((768,), eps=1e-06, elementwise_affine=True)
      )
      (2): Linear(
        (w): Linear(in_features=768, out_features=5000, bias=True)
      )
    )
  )
) loading from /scratch/flatala/speechbrain/transformer/results_no_lm/results_fold_5/conformer_small/7775/save/lm.ckpt, the object could not use the parameters loaded with the key: dnn.linear.w.weight
2025-03-21 00:25:50,680 - speechbrain.utils.checkpoints - WARNING - During parameter transfer to TransformerLM(
  (positional_encoding): PositionalEncoding()
  (encoder): TransformerEncoder(
    (layers): ModuleList(
      (0-11): 12 x TransformerEncoderLayer(
        (self_att): MultiheadAttention(
          (att): MultiheadAttention(
            (out_proj): NonDynamicallyQuantizableLinear(in_features=768, out_features=768, bias=True)
          )
        )
        (pos_ffn): PositionalwiseFeedForward(
          (ffn): Sequential(
            (0): Linear(in_features=768, out_features=3072, bias=True)
            (1): GELU(approximate='none')
            (2): Dropout(p=0.0, inplace=False)
            (3): Linear(in_features=3072, out_features=768, bias=True)
          )
        )
        (norm1): LayerNorm(
          (norm): LayerNorm((768,), eps=1e-06, elementwise_affine=True)
        )
        (norm2): LayerNorm(
          (norm): LayerNorm((768,), eps=1e-06, elementwise_affine=True)
        )
        (dropout1): Dropout(p=0.0, inplace=False)
        (dropout2): Dropout(p=0.0, inplace=False)
      )
    )
    (norm): LayerNorm(
      (norm): LayerNorm((768,), eps=1e-06, elementwise_affine=True)
    )
  )
  (custom_src_module): NormalizedEmbedding(
    (emb): Embedding(
      (Embedding): Embedding(5000, 768)
    )
  )
  (output_proj): ModuleList(
    (layers): ModuleList(
      (0): Linear(
        (w): Linear(in_features=768, out_features=768, bias=True)
      )
      (1): LayerNorm(
        (norm): LayerNorm((768,), eps=1e-06, elementwise_affine=True)
      )
      (2): Linear(
        (w): Linear(in_features=768, out_features=5000, bias=True)
      )
    )
  )
) loading from /scratch/flatala/speechbrain/transformer/results_no_lm/results_fold_5/conformer_small/7775/save/lm.ckpt, the object could not use the parameters loaded with the key: dnn.linear.w.bias
2025-03-21 00:25:50,681 - speechbrain.utils.checkpoints - WARNING - During parameter transfer to TransformerLM(
  (positional_encoding): PositionalEncoding()
  (encoder): TransformerEncoder(
    (layers): ModuleList(
      (0-11): 12 x TransformerEncoderLayer(
        (self_att): MultiheadAttention(
          (att): MultiheadAttention(
            (out_proj): NonDynamicallyQuantizableLinear(in_features=768, out_features=768, bias=True)
          )
        )
        (pos_ffn): PositionalwiseFeedForward(
          (ffn): Sequential(
            (0): Linear(in_features=768, out_features=3072, bias=True)
            (1): GELU(approximate='none')
            (2): Dropout(p=0.0, inplace=False)
            (3): Linear(in_features=3072, out_features=768, bias=True)
          )
        )
        (norm1): LayerNorm(
          (norm): LayerNorm((768,), eps=1e-06, elementwise_affine=True)
        )
        (norm2): LayerNorm(
          (norm): LayerNorm((768,), eps=1e-06, elementwise_affine=True)
        )
        (dropout1): Dropout(p=0.0, inplace=False)
        (dropout2): Dropout(p=0.0, inplace=False)
      )
    )
    (norm): LayerNorm(
      (norm): LayerNorm((768,), eps=1e-06, elementwise_affine=True)
    )
  )
  (custom_src_module): NormalizedEmbedding(
    (emb): Embedding(
      (Embedding): Embedding(5000, 768)
    )
  )
  (output_proj): ModuleList(
    (layers): ModuleList(
      (0): Linear(
        (w): Linear(in_features=768, out_features=768, bias=True)
      )
      (1): LayerNorm(
        (norm): LayerNorm((768,), eps=1e-06, elementwise_affine=True)
      )
      (2): Linear(
        (w): Linear(in_features=768, out_features=5000, bias=True)
      )
    )
  )
) loading from /scratch/flatala/speechbrain/transformer/results_no_lm/results_fold_5/conformer_small/7775/save/lm.ckpt, the object could not use the parameters loaded with the key: dnn.norm.norm.weight
2025-03-21 00:25:50,681 - speechbrain.utils.checkpoints - WARNING - During parameter transfer to TransformerLM(
  (positional_encoding): PositionalEncoding()
  (encoder): TransformerEncoder(
    (layers): ModuleList(
      (0-11): 12 x TransformerEncoderLayer(
        (self_att): MultiheadAttention(
          (att): MultiheadAttention(
            (out_proj): NonDynamicallyQuantizableLinear(in_features=768, out_features=768, bias=True)
          )
        )
        (pos_ffn): PositionalwiseFeedForward(
          (ffn): Sequential(
            (0): Linear(in_features=768, out_features=3072, bias=True)
            (1): GELU(approximate='none')
            (2): Dropout(p=0.0, inplace=False)
            (3): Linear(in_features=3072, out_features=768, bias=True)
          )
        )
        (norm1): LayerNorm(
          (norm): LayerNorm((768,), eps=1e-06, elementwise_affine=True)
        )
        (norm2): LayerNorm(
          (norm): LayerNorm((768,), eps=1e-06, elementwise_affine=True)
        )
        (dropout1): Dropout(p=0.0, inplace=False)
        (dropout2): Dropout(p=0.0, inplace=False)
      )
    )
    (norm): LayerNorm(
      (norm): LayerNorm((768,), eps=1e-06, elementwise_affine=True)
    )
  )
  (custom_src_module): NormalizedEmbedding(
    (emb): Embedding(
      (Embedding): Embedding(5000, 768)
    )
  )
  (output_proj): ModuleList(
    (layers): ModuleList(
      (0): Linear(
        (w): Linear(in_features=768, out_features=768, bias=True)
      )
      (1): LayerNorm(
        (norm): LayerNorm((768,), eps=1e-06, elementwise_affine=True)
      )
      (2): Linear(
        (w): Linear(in_features=768, out_features=5000, bias=True)
      )
    )
  )
) loading from /scratch/flatala/speechbrain/transformer/results_no_lm/results_fold_5/conformer_small/7775/save/lm.ckpt, the object could not use the parameters loaded with the key: dnn.norm.norm.bias
2025-03-21 00:25:50,682 - speechbrain.utils.checkpoints - WARNING - During parameter transfer to TransformerLM(
  (positional_encoding): PositionalEncoding()
  (encoder): TransformerEncoder(
    (layers): ModuleList(
      (0-11): 12 x TransformerEncoderLayer(
        (self_att): MultiheadAttention(
          (att): MultiheadAttention(
            (out_proj): NonDynamicallyQuantizableLinear(in_features=768, out_features=768, bias=True)
          )
        )
        (pos_ffn): PositionalwiseFeedForward(
          (ffn): Sequential(
            (0): Linear(in_features=768, out_features=3072, bias=True)
            (1): GELU(approximate='none')
            (2): Dropout(p=0.0, inplace=False)
            (3): Linear(in_features=3072, out_features=768, bias=True)
          )
        )
        (norm1): LayerNorm(
          (norm): LayerNorm((768,), eps=1e-06, elementwise_affine=True)
        )
        (norm2): LayerNorm(
          (norm): LayerNorm((768,), eps=1e-06, elementwise_affine=True)
        )
        (dropout1): Dropout(p=0.0, inplace=False)
        (dropout2): Dropout(p=0.0, inplace=False)
      )
    )
    (norm): LayerNorm(
      (norm): LayerNorm((768,), eps=1e-06, elementwise_affine=True)
    )
  )
  (custom_src_module): NormalizedEmbedding(
    (emb): Embedding(
      (Embedding): Embedding(5000, 768)
    )
  )
  (output_proj): ModuleList(
    (layers): ModuleList(
      (0): Linear(
        (w): Linear(in_features=768, out_features=768, bias=True)
      )
      (1): LayerNorm(
        (norm): LayerNorm((768,), eps=1e-06, elementwise_affine=True)
      )
      (2): Linear(
        (w): Linear(in_features=768, out_features=5000, bias=True)
      )
    )
  )
) loading from /scratch/flatala/speechbrain/transformer/results_no_lm/results_fold_5/conformer_small/7775/save/lm.ckpt, the object could not use the parameters loaded with the key: out.w.weight
2025-03-21 00:25:50,682 - speechbrain.utils.checkpoints - WARNING - During parameter transfer to TransformerLM(
  (positional_encoding): PositionalEncoding()
  (encoder): TransformerEncoder(
    (layers): ModuleList(
      (0-11): 12 x TransformerEncoderLayer(
        (self_att): MultiheadAttention(
          (att): MultiheadAttention(
            (out_proj): NonDynamicallyQuantizableLinear(in_features=768, out_features=768, bias=True)
          )
        )
        (pos_ffn): PositionalwiseFeedForward(
          (ffn): Sequential(
            (0): Linear(in_features=768, out_features=3072, bias=True)
            (1): GELU(approximate='none')
            (2): Dropout(p=0.0, inplace=False)
            (3): Linear(in_features=3072, out_features=768, bias=True)
          )
        )
        (norm1): LayerNorm(
          (norm): LayerNorm((768,), eps=1e-06, elementwise_affine=True)
        )
        (norm2): LayerNorm(
          (norm): LayerNorm((768,), eps=1e-06, elementwise_affine=True)
        )
        (dropout1): Dropout(p=0.0, inplace=False)
        (dropout2): Dropout(p=0.0, inplace=False)
      )
    )
    (norm): LayerNorm(
      (norm): LayerNorm((768,), eps=1e-06, elementwise_affine=True)
    )
  )
  (custom_src_module): NormalizedEmbedding(
    (emb): Embedding(
      (Embedding): Embedding(5000, 768)
    )
  )
  (output_proj): ModuleList(
    (layers): ModuleList(
      (0): Linear(
        (w): Linear(in_features=768, out_features=768, bias=True)
      )
      (1): LayerNorm(
        (norm): LayerNorm((768,), eps=1e-06, elementwise_affine=True)
      )
      (2): Linear(
        (w): Linear(in_features=768, out_features=5000, bias=True)
      )
    )
  )
) loading from /scratch/flatala/speechbrain/transformer/results_no_lm/results_fold_5/conformer_small/7775/save/lm.ckpt, the object could not use the parameters loaded with the key: out.w.bias
2025-03-21 00:25:50,734 - speechbrain.core - INFO - Info: precision arg from hparam file is used
2025-03-21 00:25:50,734 - speechbrain.core - INFO - Info: max_grad_norm arg from hparam file is used
…
