…
2025-03-20 14:26:27,300 - speechbrain.utils.parameter_transfer - DEBUG - Redirecting (loading from local path): tokenizer -> /scratch/flatala/speechbrain/transformer/results_fold_1/conformer_small/7775/save/tokenizer.ckpt
2025-03-20 14:26:27,381 - speechbrain.utils.checkpoints - WARNING - During parameter transfer to TransformerLM(
  (positional_encoding): PositionalEncoding()
  (encoder): TransformerEncoder(
    (layers): ModuleList(
      (0-11): 12 x TransformerEncoderLayer(
        (self_att): MultiheadAttention(
          (att): MultiheadAttention(
            (out_proj): NonDynamicallyQuantizableLinear(in_features=768, out_features=768, bias=True)
          )
        )
        (pos_ffn): PositionalwiseFeedForward(
          (ffn): Sequential(
            (0): Linear(in_features=768, out_features=3072, bias=True)
            (1): GELU(approximate='none')
            (2): Dropout(p=0.0, inplace=False)
            (3): Linear(in_features=3072, out_features=768, bias=True)
          )
        )
        (norm1): LayerNorm(
          (norm): LayerNorm((768,), eps=1e-06, elementwise_affine=True)
        )
        (norm2): LayerNorm(
          (norm): LayerNorm((768,), eps=1e-06, elementwise_affine=True)
        )
        (dropout1): Dropout(p=0.0, inplace=False)
        (dropout2): Dropout(p=0.0, inplace=False)
      )
    )
    (norm): LayerNorm(
      (norm): LayerNorm((768,), eps=1e-06, elementwise_affine=True)
    )
  )
  (custom_src_module): NormalizedEmbedding(
    (emb): Embedding(
      (Embedding): Embedding(5000, 768)
    )
  )
  (output_proj): ModuleList(
    (layers): ModuleList(
      (0): Linear(
        (w): Linear(in_features=768, out_features=768, bias=True)
      )
      (1): LayerNorm(
        (norm): LayerNorm((768,), eps=1e-06, elementwise_affine=True)
      )
      (2): Linear(
        (w): Linear(in_features=768, out_features=5000, bias=True)
      )
    )
  )
) loading from /scratch/flatala/speechbrain/transformer/results_fold_1/conformer_small/7775/save/lm.ckpt, the transferred parameters did not have parameters for the key: positional_encoding.pe
2025-03-20 14:26:27,382 - speechbrain.utils.checkpoints - WARNING - During parameter transfer to TransformerLM(
  (positional_encoding): PositionalEncoding()
  (encoder): TransformerEncoder(
    (layers): ModuleList(
      (0-11): 12 x TransformerEncoderLayer(
        (self_att): MultiheadAttention(
          (att): MultiheadAttention(
            (out_proj): NonDynamicallyQuantizableLinear(in_features=768, out_features=768, bias=True)
          )
        )
        (pos_ffn): PositionalwiseFeedForward(
          (ffn): Sequential(
            (0): Linear(in_features=768, out_features=3072, bias=True)
            (1): GELU(approximate='none')
            (2): Dropout(p=0.0, inplace=False)
            (3): Linear(in_features=3072, out_features=768, bias=True)
          )
        )
        (norm1): LayerNorm(
          (norm): LayerNorm((768,), eps=1e-06, elementwise_affine=True)
        )
        (norm2): LayerNorm(
          (norm): LayerNorm((768,), eps=1e-06, elementwise_affine=True)
        )
        (dropout1): Dropout(p=0.0, inplace=False)
        (dropout2): Dropout(p=0.0, inplace=False)
      )
    )
    (norm): LayerNorm(
      (norm): LayerNorm((768,), eps=1e-06, elementwise_affine=True)
    )
  )
  (custom_src_module): NormalizedEmbedding(
    (emb): Embedding(
      (Embedding): Embedding(5000, 768)
    )
  )
  (output_proj): ModuleList(
    (layers): ModuleList(
      (0): Linear(
        (w): Linear(in_features=768, out_features=768, bias=True)
      )
      (1): LayerNorm(
        (norm): LayerNorm((768,), eps=1e-06, elementwise_affine=True)
      )
      (2): Linear(
        (w): Linear(in_features=768, out_features=5000, bias=True)
      )
    )
  )
) loading from /scratch/flatala/speechbrain/transformer/results_fold_1/conformer_small/7775/save/lm.ckpt, the transferred parameters did not have parameters for the key: encoder.layers.0.self_att.att.in_proj_weight
2025-03-20 14:26:27,383 - speechbrain.utils.checkpoints - WARNING - During parameter transfer to TransformerLM(
  (positional_encoding): PositionalEncoding()
  (encoder): TransformerEncoder(
    (layers): ModuleList(
      (0-11): 12 x TransformerEncoderLayer(
        (self_att): MultiheadAttention(
          (att): MultiheadAttention(
            (out_proj): NonDynamicallyQuantizableLinear(in_features=768, out_features=768, bias=True)
          )
        )
        (pos_ffn): PositionalwiseFeedForward(
          (ffn): Sequential(
            (0): Linear(in_features=768, out_features=3072, bias=True)
            (1): GELU(approximate='none')
            (2): Dropout(p=0.0, inplace=False)
            (3): Linear(in_features=3072, out_features=768, bias=True)
          )
        )
        (norm1): LayerNorm(
          (norm): LayerNorm((768,), eps=1e-06, elementwise_affine=True)
        )
        (norm2): LayerNorm(
          (norm): LayerNorm((768,), eps=1e-06, elementwise_affine=True)
        )
        (dropout1): Dropout(p=0.0, inplace=False)
        (dropout2): Dropout(p=0.0, inplace=False)
      )
    )
    (norm): LayerNorm(
      (norm): LayerNorm((768,), eps=1e-06, elementwise_affine=True)
    )
  )
  (custom_src_module): NormalizedEmbedding(
    (emb): Embedding(
      (Embedding): Embedding(5000, 768)
    )
  )
  (output_proj): ModuleList(
    (layers): ModuleList(
      (0): Linear(
        (w): Linear(in_features=768, out_features=768, bias=True)
      )
      (1): LayerNorm(
        (norm): LayerNorm((768,), eps=1e-06, elementwise_affine=True)
      )
      (2): Linear(
        (w): Linear(in_features=768, out_features=5000, bias=True)
      )
    )
  )
) loading from /scratch/flatala/speechbrain/transformer/results_fold_1/conformer_small/7775/save/lm.ckpt, the transferred parameters did not have parameters for the key: encoder.layers.0.self_att.att.in_proj_bias
2025-03-20 14:26:27,384 - speechbrain.utils.checkpoints - WARNING - During parameter transfer to TransformerLM(
  (positional_encoding): PositionalEncoding()
  (encoder): TransformerEncoder(
    (layers): ModuleList(
      (0-11): 12 x TransformerEncoderLayer(
        (self_att): MultiheadAttention(
          (att): MultiheadAttention(
            (out_proj): NonDynamicallyQuantizableLinear(in_features=768, out_features=768, bias=True)
          )
        )
        (pos_ffn): PositionalwiseFeedForward(
          (ffn): Sequential(
            (0): Linear(in_features=768, out_features=3072, bias=True)
            (1): GELU(approximate='none')
            (2): Dropout(p=0.0, inplace=False)
            (3): Linear(in_features=3072, out_features=768, bias=True)
          )
        )
        (norm1): LayerNorm(
          (norm): LayerNorm((768,), eps=1e-06, elementwise_affine=True)
        )
        (norm2): LayerNorm(
          (norm): LayerNorm((768,), eps=1e-06, elementwise_affine=True)
        )
        (dropout1): Dropout(p=0.0, inplace=False)
        (dropout2): Dropout(p=0.0, inplace=False)
      )
    )
    (norm): LayerNorm(
      (norm): LayerNorm((768,), eps=1e-06, elementwise_affine=True)
    )
  )
  (custom_src_module): NormalizedEmbedding(
    (emb): Embedding(
      (Embedding): Embedding(5000, 768)
    )
  )
  (output_proj): ModuleList(
    (layers): ModuleList(
      (0): Linear(
        (w): Linear(in_features=768, out_features=768, bias=True)
      )
      (1): LayerNorm(
        (norm): LayerNorm((768,), eps=1e-06, elementwise_affine=True)
      )
      (2): Linear(
        (w): Linear(in_features=768, out_features=5000, bias=True)
      )
    )
  )
) loading from /scratch/flatala/speechbrain/transformer/results_fold_1/conformer_small/7775/save/lm.ckpt, the transferred parameters did not have parameters for the key: encoder.layers.0.self_att.att.out_proj.weight
2025-03-20 14:26:27,385 - speechbrain.utils.checkpoints - WARNING - During parameter transfer to TransformerLM(
  (positional_encoding): PositionalEncoding()
  (encoder): TransformerEncoder(
    (layers): ModuleList(
      (0-11): 12 x TransformerEncoderLayer(
        (self_att): MultiheadAttention(
          (att): MultiheadAttention(
            (out_proj): NonDynamicallyQuantizableLinear(in_features=768, out_features=768, bias=True)
          )
        )
        (pos_ffn): PositionalwiseFeedForward(
          (ffn): Sequential(
            (0): Linear(in_features=768, out_features=3072, bias=True)
            (1): GELU(approximate='none')
            (2): Dropout(p=0.0, inplace=False)
            (3): Linear(in_features=3072, out_features=768, bias=True)
          )
        )
        (norm1): LayerNorm(
          (norm): LayerNorm((768,), eps=1e-06, elementwise_affine=True)
        )
        (norm2): LayerNorm(
          (norm): LayerNorm((768,), eps=1e-06, elementwise_affine=True)
        )
        (dropout1): Dropout(p=0.0, inplace=False)
        (dropout2): Dropout(p=0.0, inplace=False)
      )
    )
    (norm): LayerNorm(
      (norm): LayerNorm((768,), eps=1e-06, elementwise_affine=True)
    )
  )
  (custom_src_module): NormalizedEmbedding(
    (emb): Embedding(
      (Embedding): Embedding(5000, 768)
    )
  )
  (output_proj): ModuleList(
    (layers): ModuleList(
      (0): Linear(
        (w): Linear(in_features=768, out_features=768, bias=True)
      )
      (1): LayerNorm(
        (norm): LayerNorm((768,), eps=1e-06, elementwise_affine=True)
      )
      (2): Linear(
        (w): Linear(in_features=768, out_features=5000, bias=True)
      )
    )
  )
) loading from /scratch/flatala/speechbrain/transformer/results_fold_1/conformer_small/7775/save/lm.ckpt, the transferred parameters did not have parameters for the key: encoder.layers.0.self_att.att.out_proj.bias
2025-03-20 14:26:27,387 - speechbrain.utils.checkpoints - WARNING - During parameter transfer to TransformerLM(
  (positional_encoding): PositionalEncoding()
  (encoder): TransformerEncoder(
    (layers): ModuleList(
      (0-11): 12 x TransformerEncoderLayer(
        (self_att): MultiheadAttention(
          (att): MultiheadAttention(
            (out_proj): NonDynamicallyQuantizableLinear(in_features=768, out_features=768, bias=True)
          )
        )
        (pos_ffn): PositionalwiseFeedForward(
          (ffn): Sequential(
            (0): Linear(in_features=768, out_features=3072, bias=True)
            (1): GELU(approximate='none')
            (2): Dropout(p=0.0, inplace=False)
            (3): Linear(in_features=3072, out_features=768, bias=True)
          )
        )
        (norm1): LayerNorm(
          (norm): LayerNorm((768,), eps=1e-06, elementwise_affine=True)
        )
        (norm2): LayerNorm(
          (norm): LayerNorm((768,), eps=1e-06, elementwise_affine=True)
        )
        (dropout1): Dropout(p=0.0, inplace=False)
        (dropout2): Dropout(p=0.0, inplace=False)
      )
    )
    (norm): LayerNorm(
      (norm): LayerNorm((768,), eps=1e-06, elementwise_affine=True)
    )
  )
  (custom_src_module): NormalizedEmbedding(
    (emb): Embedding(
      (Embedding): Embedding(5000, 768)
    )
  )
  (output_proj): ModuleList(
    (layers): ModuleList(
      (0): Linear(
        (w): Linear(in_features=768, out_features=768, bias=True)
      )
      (1): LayerNorm(
        (norm): LayerNorm((768,), eps=1e-06, elementwise_affine=True)
      )
      (2): Linear(
        (w): Linear(in_features=768, out_features=5000, bias=True)
      )
    )
  )
) loading from /scratch/flatala/speechbrain/transformer/results_fold_1/conformer_small/7775/save/lm.ckpt, the transferred parameters did not have parameters for the key: encoder.layers.0.pos_ffn.ffn.0.weight
2025-03-20 14:26:27,388 - speechbrain.utils.checkpoints - WARNING - During parameter transfer to TransformerLM(
  (positional_encoding): PositionalEncoding()
  (encoder): TransformerEncoder(
    (layers): ModuleList(
      (0-11): 12 x TransformerEncoderLayer(
        (self_att): MultiheadAttention(
          (att): MultiheadAttention(
            (out_proj): NonDynamicallyQuantizableLinear(in_features=768, out_features=768, bias=True)
          )
        )
        (pos_ffn): PositionalwiseFeedForward(
          (ffn): Sequential(
            (0): Linear(in_features=768, out_features=3072, bias=True)
            (1): GELU(approximate='none')
            (2): Dropout(p=0.0, inplace=False)
            (3): Linear(in_features=3072, out_features=768, bias=True)
          )
        )
        (norm1): LayerNorm(
          (norm): LayerNorm((768,), eps=1e-06, elementwise_affine=True)
        )
        (norm2): LayerNorm(
          (norm): LayerNorm((768,), eps=1e-06, elementwise_affine=True)
        )
        (dropout1): Dropout(p=0.0, inplace=False)
        (dropout2): Dropout(p=0.0, inplace=False)
      )
    )
    (norm): LayerNorm(
      (norm): LayerNorm((768,), eps=1e-06, elementwise_affine=True)
    )
  )
  (custom_src_module): NormalizedEmbedding(
    (emb): Embedding(
      (Embedding): Embedding(5000, 768)
    )
  )
  (output_proj): ModuleList(
    (layers): ModuleList(
      (0): Linear(
        (w): Linear(in_features=768, out_features=768, bias=True)
      )
      (1): LayerNorm(
        (norm): LayerNorm((768,), eps=1e-06, elementwise_affine=True)
      )
      (2): Linear(
        (w): Linear(in_features=768, out_features=5000, bias=True)
      )
    )
  )
) loading from /scratch/flatala/speechbrain/transformer/results_fold_1/conformer_small/7775/save/lm.ckpt, the transferred parameters did not have parameters for the key: encoder.layers.0.pos_ffn.ffn.0.bias
2025-03-20 14:26:27,389 - speechbrain.utils.checkpoints - WARNING - During parameter transfer to TransformerLM(
  (positional_encoding): PositionalEncoding()
  (encoder): TransformerEncoder(
    (layers): ModuleList(
      (0-11): 12 x TransformerEncoderLayer(
        (self_att): MultiheadAttention(
          (att): MultiheadAttention(
            (out_proj): NonDynamicallyQuantizableLinear(in_features=768, out_features=768, bias=True)
          )
        )
        (pos_ffn): PositionalwiseFeedForward(
          (ffn): Sequential(
            (0): Linear(in_features=768, out_features=3072, bias=True)
            (1): GELU(approximate='none')
            (2): Dropout(p=0.0, inplace=False)
            (3): Linear(in_features=3072, out_features=768, bias=True)
          )
        )
        (norm1): LayerNorm(
          (norm): LayerNorm((768,), eps=1e-06, elementwise_affine=True)
        )
        (norm2): LayerNorm(
          (norm): LayerNorm((768,), eps=1e-06, elementwise_affine=True)
        )
        (dropout1): Dropout(p=0.0, inplace=False)
        (dropout2): Dropout(p=0.0, inplace=False)
      )
    )
    (norm): LayerNorm(
      (norm): LayerNorm((768,), eps=1e-06, elementwise_affine=True)
    )
  )
  (custom_src_module): NormalizedEmbedding(
    (emb): Embedding(
      (Embedding): Embedding(5000, 768)
    )
  )
  (output_proj): ModuleList(
    (layers): ModuleList(
      (0): Linear(
        (w): Linear(in_features=768, out_features=768, bias=True)
      )
      (1): LayerNorm(
        (norm): LayerNorm((768,), eps=1e-06, elementwise_affine=True)
      )
      (2): Linear(
        (w): Linear(in_features=768, out_features=5000, bias=True)
      )
    )
  )
) loading from /scratch/flatala/speechbrain/transformer/results_fold_1/conformer_small/7775/save/lm.ckpt, the transferred parameters did not have parameters for the key: encoder.layers.0.pos_ffn.ffn.3.weight
2025-03-20 14:26:27,390 - speechbrain.utils.checkpoints - WARNING - During parameter transfer to TransformerLM(
  (positional_encoding): PositionalEncoding()
  (encoder): TransformerEncoder(
    (layers): ModuleList(
      (0-11): 12 x TransformerEncoderLayer(
        (self_att): MultiheadAttention(
          (att): MultiheadAttention(
            (out_proj): NonDynamicallyQuantizableLinear(in_features=768, out_features=768, bias=True)
          )
        )
        (pos_ffn): PositionalwiseFeedForward(
          (ffn): Sequential(
            (0): Linear(in_features=768, out_features=3072, bias=True)
            (1): GELU(approximate='none')
            (2): Dropout(p=0.0, inplace=False)
            (3): Linear(in_features=3072, out_features=768, bias=True)
          )
        )
        (norm1): LayerNorm(
          (norm): LayerNorm((768,), eps=1e-06, elementwise_affine=True)
        )
        (norm2): LayerNorm(
          (norm): LayerNorm((768,), eps=1e-06, elementwise_affine=True)
        )
        (dropout1): Dropout(p=0.0, inplace=False)
        (dropout2): Dropout(p=0.0, inplace=False)
      )
    )
    (norm): LayerNorm(
      (norm): LayerNorm((768,), eps=1e-06, elementwise_affine=True)
    )
  )
  (custom_src_module): NormalizedEmbedding(
    (emb): Embedding(
      (Embedding): Embedding(5000, 768)
    )
  )
  (output_proj): ModuleList(
    (layers): ModuleList(
      (0): Linear(
        (w): Linear(in_features=768, out_features=768, bias=True)
      )
      (1): LayerNorm(
        (norm): LayerNorm((768,), eps=1e-06, elementwise_affine=True)
      )
      (2): Linear(
        (w): Linear(in_features=768, out_features=5000, bias=True)
      )
    )
  )
) loading from /scratch/flatala/speechbrain/transformer/results_fold_1/conformer_small/7775/save/lm.ckpt, the transferred parameters did not have parameters for the key: encoder.layers.0.pos_ffn.ffn.3.bias
2025-03-20 14:26:27,391 - speechbrain.utils.checkpoints - WARNING - During parameter transfer to TransformerLM(
  (positional_encoding): PositionalEncoding()
  (encoder): TransformerEncoder(
    (layers): ModuleList(
      (0-11): 12 x TransformerEncoderLayer(
        (self_att): MultiheadAttention(
          (att): MultiheadAttention(
            (out_proj): NonDynamicallyQuantizableLinear(in_features=768, out_features=768, bias=True)
          )
        )
        (pos_ffn): PositionalwiseFeedForward(
          (ffn): Sequential(
            (0): Linear(in_features=768, out_features=3072, bias=True)
            (1): GELU(approximate='none')
            (2): Dropout(p=0.0, inplace=False)
            (3): Linear(in_features=3072, out_features=768, bias=True)
          )
        )
        (norm1): LayerNorm(
          (norm): LayerNorm((768,), eps=1e-06, elementwise_affine=True)
        )
        (norm2): LayerNorm(
          (norm): LayerNorm((768,), eps=1e-06, elementwise_affine=True)
        )
        (dropout1): Dropout(p=0.0, inplace=False)
        (dropout2): Dropout(p=0.0, inplace=False)
      )
    )
    (norm): LayerNorm(
      (norm): LayerNorm((768,), eps=1e-06, elementwise_affine=True)
    )
  )
  (custom_src_module): NormalizedEmbedding(
    (emb): Embedding(
      (Embedding): Embedding(5000, 768)
    )
  )
  (output_proj): ModuleList(
    (layers): ModuleList(
      (0): Linear(
        (w): Linear(in_features=768, out_features=768, bias=True)
      )
      (1): LayerNorm(
        (norm): LayerNorm((768,), eps=1e-06, elementwise_affine=True)
      )
      (2): Linear(
        (w): Linear(in_features=768, out_features=5000, bias=True)
      )
    )
  )
) loading from /scratch/flatala/speechbrain/transformer/results_fold_1/conformer_small/7775/save/lm.ckpt, the transferred parameters did not have parameters for the key: encoder.layers.0.norm1.norm.weight
2025-03-20 14:26:27,392 - speechbrain.utils.checkpoints - WARNING - During parameter transfer to TransformerLM(
  (positional_encoding): PositionalEncoding()
  (encoder): TransformerEncoder(
    (layers): ModuleList(
      (0-11): 12 x TransformerEncoderLayer(
        (self_att): MultiheadAttention(
          (att): MultiheadAttention(
            (out_proj): NonDynamicallyQuantizableLinear(in_features=768, out_features=768, bias=True)
          )
        )
        (pos_ffn): PositionalwiseFeedForward(
          (ffn): Sequential(
            (0): Linear(in_features=768, out_features=3072, bias=True)
            (1): GELU(approximate='none')
            (2): Dropout(p=0.0, inplace=False)
            (3): Linear(in_features=3072, out_features=768, bias=True)
          )
        )
        (norm1): LayerNorm(
          (norm): LayerNorm((768,), eps=1e-06, elementwise_affine=True)
        )
        (norm2): LayerNorm(
          (norm): LayerNorm((768,), eps=1e-06, elementwise_affine=True)
        )
        (dropout1): Dropout(p=0.0, inplace=False)
        (dropout2): Dropout(p=0.0, inplace=False)
      )
    )
    (norm): LayerNorm(
      (norm): LayerNorm((768,), eps=1e-06, elementwise_affine=True)
    )
  )
  (custom_src_module): NormalizedEmbedding(
    (emb): Embedding(
      (Embedding): Embedding(5000, 768)
    )
  )
  (output_proj): ModuleList(
    (layers): ModuleList(
      (0): Linear(
        (w): Linear(in_features=768, out_features=768, bias=True)
      )
      (1): LayerNorm(
        (norm): LayerNorm((768,), eps=1e-06, elementwise_affine=True)
      )
      (2): Linear(
        (w): Linear(in_features=768, out_features=5000, bias=True)
      )
    )
  )
) loading from /scratch/flatala/speechbrain/transformer/results_fold_1/conformer_small/7775/save/lm.ckpt, the transferred parameters did not have parameters for the key: encoder.layers.0.norm1.norm.bias
2025-03-20 14:26:27,393 - speechbrain.utils.checkpoints - WARNING - During parameter transfer to TransformerLM(
  (positional_encoding): PositionalEncoding()
  (encoder): TransformerEncoder(
    (layers): ModuleList(
      (0-11): 12 x TransformerEncoderLayer(
        (self_att): MultiheadAttention(
          (att): MultiheadAttention(
            (out_proj): NonDynamicallyQuantizableLinear(in_features=768, out_features=768, bias=True)
          )
        )
        (pos_ffn): PositionalwiseFeedForward(
          (ffn): Sequential(
            (0): Linear(in_features=768, out_features=3072, bias=True)
            (1): GELU(approximate='none')
            (2): Dropout(p=0.0, inplace=False)
            (3): Linear(in_features=3072, out_features=768, bias=True)
          )
        )
        (norm1): LayerNorm(
          (norm): LayerNorm((768,), eps=1e-06, elementwise_affine=True)
        )
        (norm2): LayerNorm(
          (norm): LayerNorm((768,), eps=1e-06, elementwise_affine=True)
        )
        (dropout1): Dropout(p=0.0, inplace=False)
        (dropout2): Dropout(p=0.0, inplace=False)
      )
    )
    (norm): LayerNorm(
      (norm): LayerNorm((768,), eps=1e-06, elementwise_affine=True)
    )
  )
  (custom_src_module): NormalizedEmbedding(
    (emb): Embedding(
      (Embedding): Embedding(5000, 768)
    )
  )
  (output_proj): ModuleList(
    (layers): ModuleList(
      (0): Linear(
        (w): Linear(in_features=768, out_features=768, bias=True)
      )
      (1): LayerNorm(
        (norm): LayerNorm((768,), eps=1e-06, elementwise_affine=True)
      )
      (2): Linear(
        (w): Linear(in_features=768, out_features=5000, bias=True)
      )
    )
  )
) loading from /scratch/flatala/speechbrain/transformer/results_fold_1/conformer_small/7775/save/lm.ckpt, the transferred parameters did not have parameters for the key: encoder.layers.0.norm2.norm.weight
2025-03-20 14:26:27,394 - speechbrain.utils.checkpoints - WARNING - During parameter transfer to TransformerLM(
  (positional_encoding): PositionalEncoding()
  (encoder): TransformerEncoder(
    (layers): ModuleList(
      (0-11): 12 x TransformerEncoderLayer(
        (self_att): MultiheadAttention(
          (att): MultiheadAttention(
            (out_proj): NonDynamicallyQuantizableLinear(in_features=768, out_features=768, bias=True)
          )
        )
        (pos_ffn): PositionalwiseFeedForward(
          (ffn): Sequential(
            (0): Linear(in_features=768, out_features=3072, bias=True)
            (1): GELU(approximate='none')
            (2): Dropout(p=0.0, inplace=False)
            (3): Linear(in_features=3072, out_features=768, bias=True)
          )
        )
        (norm1): LayerNorm(
          (norm): LayerNorm((768,), eps=1e-06, elementwise_affine=True)
        )
        (norm2): LayerNorm(
          (norm): LayerNorm((768,), eps=1e-06, elementwise_affine=True)
        )
        (dropout1): Dropout(p=0.0, inplace=False)
        (dropout2): Dropout(p=0.0, inplace=False)
      )
    )
    (norm): LayerNorm(
      (norm): LayerNorm((768,), eps=1e-06, elementwise_affine=True)
    )
  )
  (custom_src_module): NormalizedEmbedding(
    (emb): Embedding(
      (Embedding): Embedding(5000, 768)
    )
  )
  (output_proj): ModuleList(
    (layers): ModuleList(
      (0): Linear(
        (w): Linear(in_features=768, out_features=768, bias=True)
      )
      (1): LayerNorm(
        (norm): LayerNorm((768,), eps=1e-06, elementwise_affine=True)
      )
      (2): Linear(
        (w): Linear(in_features=768, out_features=5000, bias=True)
      )
    )
  )
) loading from /scratch/flatala/speechbrain/transformer/results_fold_1/conformer_small/7775/save/lm.ckpt, the transferred parameters did not have parameters for the key: encoder.layers.0.norm2.norm.bias
2025-03-20 14:26:27,395 - speechbrain.utils.checkpoints - WARNING - During parameter transfer to TransformerLM(
  (positional_encoding): PositionalEncoding()
  (encoder): TransformerEncoder(
    (layers): ModuleList(
      (0-11): 12 x TransformerEncoderLayer(
        (self_att): MultiheadAttention(
          (att): MultiheadAttention(
            (out_proj): NonDynamicallyQuantizableLinear(in_features=768, out_features=768, bias=True)
          )
        )
        (pos_ffn): PositionalwiseFeedForward(
          (ffn): Sequential(
            (0): Linear(in_features=768, out_features=3072, bias=True)
            (1): GELU(approximate='none')
            (2): Dropout(p=0.0, inplace=False)
            (3): Linear(in_features=3072, out_features=768, bias=True)
          )
        )
        (norm1): LayerNorm(
          (norm): LayerNorm((768,), eps=1e-06, elementwise_affine=True)
        )
        (norm2): LayerNorm(
          (norm): LayerNorm((768,), eps=1e-06, elementwise_affine=True)
        )
        (dropout1): Dropout(p=0.0, inplace=False)
        (dropout2): Dropout(p=0.0, inplace=False)
      )
    )
    (norm): LayerNorm(
      (norm): LayerNorm((768,), eps=1e-06, elementwise_affine=True)
    )
  )
  (custom_src_module): NormalizedEmbedding(
    (emb): Embedding(
      (Embedding): Embedding(5000, 768)
    )
  )
  (output_proj): ModuleList(
    (layers): ModuleList(
      (0): Linear(
        (w): Linear(in_features=768, out_features=768, bias=True)
      )
      (1): LayerNorm(
        (norm): LayerNorm((768,), eps=1e-06, elementwise_affine=True)
      )
      (2): Linear(
        (w): Linear(in_features=768, out_features=5000, bias=True)
      )
    )
  )
) loading from /scratch/flatala/speechbrain/transformer/results_fold_1/conformer_small/7775/save/lm.ckpt, the transferred parameters did not have parameters for the key: encoder.layers.1.self_att.att.in_proj_weight
2025-03-20 14:26:27,396 - speechbrain.utils.checkpoints - WARNING - During parameter transfer to TransformerLM(
  (positional_encoding): PositionalEncoding()
  (encoder): TransformerEncoder(
    (layers): ModuleList(
      (0-11): 12 x TransformerEncoderLayer(
        (self_att): MultiheadAttention(
          (att): MultiheadAttention(
            (out_proj): NonDynamicallyQuantizableLinear(in_features=768, out_features=768, bias=True)
          )
        )
        (pos_ffn): PositionalwiseFeedForward(
          (ffn): Sequential(
            (0): Linear(in_features=768, out_features=3072, bias=True)
            (1): GELU(approximate='none')
            (2): Dropout(p=0.0, inplace=False)
            (3): Linear(in_features=3072, out_features=768, bias=True)
          )
        )
        (norm1): LayerNorm(
          (norm): LayerNorm((768,), eps=1e-06, elementwise_affine=True)
        )
        (norm2): LayerNorm(
          (norm): LayerNorm((768,), eps=1e-06, elementwise_affine=True)
        )
        (dropout1): Dropout(p=0.0, inplace=False)
        (dropout2): Dropout(p=0.0, inplace=False)
      )
    )
    (norm): LayerNorm(
      (norm): LayerNorm((768,), eps=1e-06, elementwise_affine=True)
    )
  )
  (custom_src_module): NormalizedEmbedding(
    (emb): Embedding(
      (Embedding): Embedding(5000, 768)
    )
  )
  (output_proj): ModuleList(
    (layers): ModuleList(
      (0): Linear(
        (w): Linear(in_features=768, out_features=768, bias=True)
      )
      (1): LayerNorm(
        (norm): LayerNorm((768,), eps=1e-06, elementwise_affine=True)
      )
      (2): Linear(
        (w): Linear(in_features=768, out_features=5000, bias=True)
      )
    )
  )
) loading from /scratch/flatala/speechbrain/transformer/results_fold_1/conformer_small/7775/save/lm.ckpt, the transferred parameters did not have parameters for the key: encoder.layers.1.self_att.att.in_proj_bias
2025-03-20 14:26:27,396 - speechbrain.utils.checkpoints - WARNING - During parameter transfer to TransformerLM(
  (positional_encoding): PositionalEncoding()
  (encoder): TransformerEncoder(
    (layers): ModuleList(
      (0-11): 12 x TransformerEncoderLayer(
        (self_att): MultiheadAttention(
          (att): MultiheadAttention(
            (out_proj): NonDynamicallyQuantizableLinear(in_features=768, out_features=768, bias=True)
          )
        )
        (pos_ffn): PositionalwiseFeedForward(
          (ffn): Sequential(
            (0): Linear(in_features=768, out_features=3072, bias=True)
            (1): GELU(approximate='none')
            (2): Dropout(p=0.0, inplace=False)
            (3): Linear(in_features=3072, out_features=768, bias=True)
          )
        )
        (norm1): LayerNorm(
          (norm): LayerNorm((768,), eps=1e-06, elementwise_affine=True)
        )
        (norm2): LayerNorm(
          (norm): LayerNorm((768,), eps=1e-06, elementwise_affine=True)
        )
        (dropout1): Dropout(p=0.0, inplace=False)
        (dropout2): Dropout(p=0.0, inplace=False)
      )
    )
    (norm): LayerNorm(
      (norm): LayerNorm((768,), eps=1e-06, elementwise_affine=True)
    )
  )
  (custom_src_module): NormalizedEmbedding(
    (emb): Embedding(
      (Embedding): Embedding(5000, 768)
    )
  )
  (output_proj): ModuleList(
    (layers): ModuleList(
      (0): Linear(
        (w): Linear(in_features=768, out_features=768, bias=True)
      )
      (1): LayerNorm(
        (norm): LayerNorm((768,), eps=1e-06, elementwise_affine=True)
      )
      (2): Linear(
        (w): Linear(in_features=768, out_features=5000, bias=True)
      )
    )
  )
) loading from /scratch/flatala/speechbrain/transformer/results_fold_1/conformer_small/7775/save/lm.ckpt, the transferred parameters did not have parameters for the key: encoder.layers.1.self_att.att.out_proj.weight
2025-03-20 14:26:27,398 - speechbrain.utils.checkpoints - WARNING - During parameter transfer to TransformerLM(
  (positional_encoding): PositionalEncoding()
  (encoder): TransformerEncoder(
    (layers): ModuleList(
      (0-11): 12 x TransformerEncoderLayer(
        (self_att): MultiheadAttention(
          (att): MultiheadAttention(
            (out_proj): NonDynamicallyQuantizableLinear(in_features=768, out_features=768, bias=True)
          )
        )
        (pos_ffn): PositionalwiseFeedForward(
          (ffn): Sequential(
            (0): Linear(in_features=768, out_features=3072, bias=True)
            (1): GELU(approximate='none')
            (2): Dropout(p=0.0, inplace=False)
            (3): Linear(in_features=3072, out_features=768, bias=True)
          )
        )
        (norm1): LayerNorm(
          (norm): LayerNorm((768,), eps=1e-06, elementwise_affine=True)
        )
        (norm2): LayerNorm(
          (norm): LayerNorm((768,), eps=1e-06, elementwise_affine=True)
        )
        (dropout1): Dropout(p=0.0, inplace=False)
        (dropout2): Dropout(p=0.0, inplace=False)
      )
    )
    (norm): LayerNorm(
      (norm): LayerNorm((768,), eps=1e-06, elementwise_affine=True)
    )
  )
  (custom_src_module): NormalizedEmbedding(
    (emb): Embedding(
      (Embedding): Embedding(5000, 768)
    )
  )
  (output_proj): ModuleList(
    (layers): ModuleList(
      (0): Linear(
        (w): Linear(in_features=768, out_features=768, bias=True)
      )
      (1): LayerNorm(
        (norm): LayerNorm((768,), eps=1e-06, elementwise_affine=True)
      )
      (2): Linear(
        (w): Linear(in_features=768, out_features=5000, bias=True)
      )
    )
  )
) loading from /scratch/flatala/speechbrain/transformer/results_fold_1/conformer_small/7775/save/lm.ckpt, the transferred parameters did not have parameters for the key: encoder.layers.1.self_att.att.out_proj.bias
2025-03-20 14:26:27,399 - speechbrain.utils.checkpoints - WARNING - During parameter transfer to TransformerLM(
  (positional_encoding): PositionalEncoding()
  (encoder): TransformerEncoder(
    (layers): ModuleList(
      (0-11): 12 x TransformerEncoderLayer(
        (self_att): MultiheadAttention(
          (att): MultiheadAttention(
            (out_proj): NonDynamicallyQuantizableLinear(in_features=768, out_features=768, bias=True)
          )
        )
        (pos_ffn): PositionalwiseFeedForward(
          (ffn): Sequential(
            (0): Linear(in_features=768, out_features=3072, bias=True)
            (1): GELU(approximate='none')
            (2): Dropout(p=0.0, inplace=False)
            (3): Linear(in_features=3072, out_features=768, bias=True)
          )
        )
        (norm1): LayerNorm(
          (norm): LayerNorm((768,), eps=1e-06, elementwise_affine=True)
        )
        (norm2): LayerNorm(
          (norm): LayerNorm((768,), eps=1e-06, elementwise_affine=True)
        )
        (dropout1): Dropout(p=0.0, inplace=False)
        (dropout2): Dropout(p=0.0, inplace=False)
      )
    )
    (norm): LayerNorm(
      (norm): LayerNorm((768,), eps=1e-06, elementwise_affine=True)
    )
  )
  (custom_src_module): NormalizedEmbedding(
    (emb): Embedding(
      (Embedding): Embedding(5000, 768)
    )
  )
  (output_proj): ModuleList(
    (layers): ModuleList(
      (0): Linear(
        (w): Linear(in_features=768, out_features=768, bias=True)
      )
      (1): LayerNorm(
        (norm): LayerNorm((768,), eps=1e-06, elementwise_affine=True)
      )
      (2): Linear(
        (w): Linear(in_features=768, out_features=5000, bias=True)
      )
    )
  )
) loading from /scratch/flatala/speechbrain/transformer/results_fold_1/conformer_small/7775/save/lm.ckpt, the transferred parameters did not have parameters for the key: encoder.layers.1.pos_ffn.ffn.0.weight
2025-03-20 14:26:27,400 - speechbrain.utils.checkpoints - WARNING - During parameter transfer to TransformerLM(
  (positional_encoding): PositionalEncoding()
  (encoder): TransformerEncoder(
    (layers): ModuleList(
      (0-11): 12 x TransformerEncoderLayer(
        (self_att): MultiheadAttention(
          (att): MultiheadAttention(
            (out_proj): NonDynamicallyQuantizableLinear(in_features=768, out_features=768, bias=True)
          )
        )
        (pos_ffn): PositionalwiseFeedForward(
          (ffn): Sequential(
            (0): Linear(in_features=768, out_features=3072, bias=True)
            (1): GELU(approximate='none')
            (2): Dropout(p=0.0, inplace=False)
            (3): Linear(in_features=3072, out_features=768, bias=True)
          )
        )
        (norm1): LayerNorm(
          (norm): LayerNorm((768,), eps=1e-06, elementwise_affine=True)
        )
        (norm2): LayerNorm(
          (norm): LayerNorm((768,), eps=1e-06, elementwise_affine=True)
        )
        (dropout1): Dropout(p=0.0, inplace=False)
        (dropout2): Dropout(p=0.0, inplace=False)
      )
    )
    (norm): LayerNorm(
      (norm): LayerNorm((768,), eps=1e-06, elementwise_affine=True)
    )
  )
  (custom_src_module): NormalizedEmbedding(
    (emb): Embedding(
      (Embedding): Embedding(5000, 768)
    )
  )
  (output_proj): ModuleList(
    (layers): ModuleList(
      (0): Linear(
        (w): Linear(in_features=768, out_features=768, bias=True)
      )
      (1): LayerNorm(
        (norm): LayerNorm((768,), eps=1e-06, elementwise_affine=True)
      )
      (2): Linear(
        (w): Linear(in_features=768, out_features=5000, bias=True)
      )
    )
  )
) loading from /scratch/flatala/speechbrain/transformer/results_fold_1/conformer_small/7775/save/lm.ckpt, the transferred parameters did not have parameters for the key: encoder.layers.1.pos_ffn.ffn.0.bias
2025-03-20 14:26:27,401 - speechbrain.utils.checkpoints - WARNING - During parameter transfer to TransformerLM(
  (positional_encoding): PositionalEncoding()
  (encoder): TransformerEncoder(
    (layers): ModuleList(
      (0-11): 12 x TransformerEncoderLayer(
        (self_att): MultiheadAttention(
          (att): MultiheadAttention(
            (out_proj): NonDynamicallyQuantizableLinear(in_features=768, out_features=768, bias=True)
          )
        )
        (pos_ffn): PositionalwiseFeedForward(
          (ffn): Sequential(
            (0): Linear(in_features=768, out_features=3072, bias=True)
            (1): GELU(approximate='none')
            (2): Dropout(p=0.0, inplace=False)
            (3): Linear(in_features=3072, out_features=768, bias=True)
          )
        )
        (norm1): LayerNorm(
          (norm): LayerNorm((768,), eps=1e-06, elementwise_affine=True)
        )
        (norm2): LayerNorm(
          (norm): LayerNorm((768,), eps=1e-06, elementwise_affine=True)
        )
        (dropout1): Dropout(p=0.0, inplace=False)
        (dropout2): Dropout(p=0.0, inplace=False)
      )
    )
    (norm): LayerNorm(
      (norm): LayerNorm((768,), eps=1e-06, elementwise_affine=True)
    )
  )
  (custom_src_module): NormalizedEmbedding(
    (emb): Embedding(
      (Embedding): Embedding(5000, 768)
    )
  )
  (output_proj): ModuleList(
    (layers): ModuleList(
      (0): Linear(
        (w): Linear(in_features=768, out_features=768, bias=True)
      )
      (1): LayerNorm(
        (norm): LayerNorm((768,), eps=1e-06, elementwise_affine=True)
      )
      (2): Linear(
        (w): Linear(in_features=768, out_features=5000, bias=True)
      )
    )
  )
) loading from /scratch/flatala/speechbrain/transformer/results_fold_1/conformer_small/7775/save/lm.ckpt, the transferred parameters did not have parameters for the key: encoder.layers.1.pos_ffn.ffn.3.weight
2025-03-20 14:26:27,402 - speechbrain.utils.checkpoints - WARNING - During parameter transfer to TransformerLM(
  (positional_encoding): PositionalEncoding()
  (encoder): TransformerEncoder(
    (layers): ModuleList(
      (0-11): 12 x TransformerEncoderLayer(
        (self_att): MultiheadAttention(
          (att): MultiheadAttention(
            (out_proj): NonDynamicallyQuantizableLinear(in_features=768, out_features=768, bias=True)
          )
        )
        (pos_ffn): PositionalwiseFeedForward(
          (ffn): Sequential(
            (0): Linear(in_features=768, out_features=3072, bias=True)
            (1): GELU(approximate='none')
            (2): Dropout(p=0.0, inplace=False)
            (3): Linear(in_features=3072, out_features=768, bias=True)
          )
        )
        (norm1): LayerNorm(
          (norm): LayerNorm((768,), eps=1e-06, elementwise_affine=True)
        )
        (norm2): LayerNorm(
          (norm): LayerNorm((768,), eps=1e-06, elementwise_affine=True)
        )
        (dropout1): Dropout(p=0.0, inplace=False)
        (dropout2): Dropout(p=0.0, inplace=False)
      )
    )
    (norm): LayerNorm(
      (norm): LayerNorm((768,), eps=1e-06, elementwise_affine=True)
    )
  )
  (custom_src_module): NormalizedEmbedding(
    (emb): Embedding(
      (Embedding): Embedding(5000, 768)
    )
  )
  (output_proj): ModuleList(
    (layers): ModuleList(
      (0): Linear(
        (w): Linear(in_features=768, out_features=768, bias=True)
      )
      (1): LayerNorm(
        (norm): LayerNorm((768,), eps=1e-06, elementwise_affine=True)
      )
      (2): Linear(
        (w): Linear(in_features=768, out_features=5000, bias=True)
      )
    )
  )
) loading from /scratch/flatala/speechbrain/transformer/results_fold_1/conformer_small/7775/save/lm.ckpt, the transferred parameters did not have parameters for the key: encoder.layers.1.pos_ffn.ffn.3.bias
2025-03-20 14:26:27,403 - speechbrain.utils.checkpoints - WARNING - During parameter transfer to TransformerLM(
  (positional_encoding): PositionalEncoding()
  (encoder): TransformerEncoder(
    (layers): ModuleList(
      (0-11): 12 x TransformerEncoderLayer(
        (self_att): MultiheadAttention(
          (att): MultiheadAttention(
            (out_proj): NonDynamicallyQuantizableLinear(in_features=768, out_features=768, bias=True)
          )
        )
        (pos_ffn): PositionalwiseFeedForward(
          (ffn): Sequential(
            (0): Linear(in_features=768, out_features=3072, bias=True)
            (1): GELU(approximate='none')
            (2): Dropout(p=0.0, inplace=False)
            (3): Linear(in_features=3072, out_features=768, bias=True)
          )
        )
        (norm1): LayerNorm(
          (norm): LayerNorm((768,), eps=1e-06, elementwise_affine=True)
        )
        (norm2): LayerNorm(
          (norm): LayerNorm((768,), eps=1e-06, elementwise_affine=True)
        )
        (dropout1): Dropout(p=0.0, inplace=False)
        (dropout2): Dropout(p=0.0, inplace=False)
      )
    )
    (norm): LayerNorm(
      (norm): LayerNorm((768,), eps=1e-06, elementwise_affine=True)
    )
  )
  (custom_src_module): NormalizedEmbedding(
    (emb): Embedding(
      (Embedding): Embedding(5000, 768)
    )
  )
  (output_proj): ModuleList(
    (layers): ModuleList(
      (0): Linear(
        (w): Linear(in_features=768, out_features=768, bias=True)
      )
      (1): LayerNorm(
        (norm): LayerNorm((768,), eps=1e-06, elementwise_affine=True)
      )
      (2): Linear(
        (w): Linear(in_features=768, out_features=5000, bias=True)
      )
    )
  )
) loading from /scratch/flatala/speechbrain/transformer/results_fold_1/conformer_small/7775/save/lm.ckpt, the transferred parameters did not have parameters for the key: encoder.layers.1.norm1.norm.weight
2025-03-20 14:26:27,404 - speechbrain.utils.checkpoints - WARNING - During parameter transfer to TransformerLM(
  (positional_encoding): PositionalEncoding()
  (encoder): TransformerEncoder(
    (layers): ModuleList(
      (0-11): 12 x TransformerEncoderLayer(
        (self_att): MultiheadAttention(
          (att): MultiheadAttention(
            (out_proj): NonDynamicallyQuantizableLinear(in_features=768, out_features=768, bias=True)
          )
        )
        (pos_ffn): PositionalwiseFeedForward(
          (ffn): Sequential(
            (0): Linear(in_features=768, out_features=3072, bias=True)
            (1): GELU(approximate='none')
            (2): Dropout(p=0.0, inplace=False)
            (3): Linear(in_features=3072, out_features=768, bias=True)
          )
        )
        (norm1): LayerNorm(
          (norm): LayerNorm((768,), eps=1e-06, elementwise_affine=True)
        )
        (norm2): LayerNorm(
          (norm): LayerNorm((768,), eps=1e-06, elementwise_affine=True)
        )
        (dropout1): Dropout(p=0.0, inplace=False)
        (dropout2): Dropout(p=0.0, inplace=False)
      )
    )
    (norm): LayerNorm(
      (norm): LayerNorm((768,), eps=1e-06, elementwise_affine=True)
    )
  )
  (custom_src_module): NormalizedEmbedding(
    (emb): Embedding(
      (Embedding): Embedding(5000, 768)
    )
  )
  (output_proj): ModuleList(
    (layers): ModuleList(
      (0): Linear(
        (w): Linear(in_features=768, out_features=768, bias=True)
      )
      (1): LayerNorm(
        (norm): LayerNorm((768,), eps=1e-06, elementwise_affine=True)
      )
      (2): Linear(
        (w): Linear(in_features=768, out_features=5000, bias=True)
      )
    )
  )
) loading from /scratch/flatala/speechbrain/transformer/results_fold_1/conformer_small/7775/save/lm.ckpt, the transferred parameters did not have parameters for the key: encoder.layers.1.norm1.norm.bias
2025-03-20 14:26:27,405 - speechbrain.utils.checkpoints - WARNING - During parameter transfer to TransformerLM(
  (positional_encoding): PositionalEncoding()
  (encoder): TransformerEncoder(
    (layers): ModuleList(
      (0-11): 12 x TransformerEncoderLayer(
        (self_att): MultiheadAttention(
          (att): MultiheadAttention(
            (out_proj): NonDynamicallyQuantizableLinear(in_features=768, out_features=768, bias=True)
          )
        )
        (pos_ffn): PositionalwiseFeedForward(
          (ffn): Sequential(
            (0): Linear(in_features=768, out_features=3072, bias=True)
            (1): GELU(approximate='none')
            (2): Dropout(p=0.0, inplace=False)
            (3): Linear(in_features=3072, out_features=768, bias=True)
          )
        )
        (norm1): LayerNorm(
          (norm): LayerNorm((768,), eps=1e-06, elementwise_affine=True)
        )
        (norm2): LayerNorm(
          (norm): LayerNorm((768,), eps=1e-06, elementwise_affine=True)
        )
        (dropout1): Dropout(p=0.0, inplace=False)
        (dropout2): Dropout(p=0.0, inplace=False)
      )
    )
    (norm): LayerNorm(
      (norm): LayerNorm((768,), eps=1e-06, elementwise_affine=True)
    )
  )
  (custom_src_module): NormalizedEmbedding(
    (emb): Embedding(
      (Embedding): Embedding(5000, 768)
    )
  )
  (output_proj): ModuleList(
    (layers): ModuleList(
      (0): Linear(
        (w): Linear(in_features=768, out_features=768, bias=True)
      )
      (1): LayerNorm(
        (norm): LayerNorm((768,), eps=1e-06, elementwise_affine=True)
      )
      (2): Linear(
        (w): Linear(in_features=768, out_features=5000, bias=True)
      )
    )
  )
) loading from /scratch/flatala/speechbrain/transformer/results_fold_1/conformer_small/7775/save/lm.ckpt, the transferred parameters did not have parameters for the key: encoder.layers.1.norm2.norm.weight
2025-03-20 14:26:27,407 - speechbrain.utils.checkpoints - WARNING - During parameter transfer to TransformerLM(
  (positional_encoding): PositionalEncoding()
  (encoder): TransformerEncoder(
    (layers): ModuleList(
      (0-11): 12 x TransformerEncoderLayer(
        (self_att): MultiheadAttention(
          (att): MultiheadAttention(
            (out_proj): NonDynamicallyQuantizableLinear(in_features=768, out_features=768, bias=True)
          )
        )
        (pos_ffn): PositionalwiseFeedForward(
          (ffn): Sequential(
            (0): Linear(in_features=768, out_features=3072, bias=True)
            (1): GELU(approximate='none')
            (2): Dropout(p=0.0, inplace=False)
            (3): Linear(in_features=3072, out_features=768, bias=True)
          )
        )
        (norm1): LayerNorm(
          (norm): LayerNorm((768,), eps=1e-06, elementwise_affine=True)
        )
        (norm2): LayerNorm(
          (norm): LayerNorm((768,), eps=1e-06, elementwise_affine=True)
        )
        (dropout1): Dropout(p=0.0, inplace=False)
        (dropout2): Dropout(p=0.0, inplace=False)
      )
    )
    (norm): LayerNorm(
      (norm): LayerNorm((768,), eps=1e-06, elementwise_affine=True)
    )
  )
  (custom_src_module): NormalizedEmbedding(
    (emb): Embedding(
      (Embedding): Embedding(5000, 768)
    )
  )
  (output_proj): ModuleList(
    (layers): ModuleList(
      (0): Linear(
        (w): Linear(in_features=768, out_features=768, bias=True)
      )
      (1): LayerNorm(
        (norm): LayerNorm((768,), eps=1e-06, elementwise_affine=True)
      )
      (2): Linear(
        (w): Linear(in_features=768, out_features=5000, bias=True)
      )
    )
  )
) loading from /scratch/flatala/speechbrain/transformer/results_fold_1/conformer_small/7775/save/lm.ckpt, the transferred parameters did not have parameters for the key: encoder.layers.1.norm2.norm.bias
2025-03-20 14:26:27,407 - speechbrain.utils.checkpoints - WARNING - During parameter transfer to TransformerLM(
  (positional_encoding): PositionalEncoding()
  (encoder): TransformerEncoder(
    (layers): ModuleList(
      (0-11): 12 x TransformerEncoderLayer(
        (self_att): MultiheadAttention(
          (att): MultiheadAttention(
            (out_proj): NonDynamicallyQuantizableLinear(in_features=768, out_features=768, bias=True)
          )
        )
        (pos_ffn): PositionalwiseFeedForward(
          (ffn): Sequential(
            (0): Linear(in_features=768, out_features=3072, bias=True)
            (1): GELU(approximate='none')
            (2): Dropout(p=0.0, inplace=False)
            (3): Linear(in_features=3072, out_features=768, bias=True)
          )
        )
        (norm1): LayerNorm(
          (norm): LayerNorm((768,), eps=1e-06, elementwise_affine=True)
        )
        (norm2): LayerNorm(
          (norm): LayerNorm((768,), eps=1e-06, elementwise_affine=True)
        )
        (dropout1): Dropout(p=0.0, inplace=False)
        (dropout2): Dropout(p=0.0, inplace=False)
      )
    )
    (norm): LayerNorm(
      (norm): LayerNorm((768,), eps=1e-06, elementwise_affine=True)
    )
  )
  (custom_src_module): NormalizedEmbedding(
    (emb): Embedding(
      (Embedding): Embedding(5000, 768)
    )
  )
  (output_proj): ModuleList(
    (layers): ModuleList(
      (0): Linear(
        (w): Linear(in_features=768, out_features=768, bias=True)
      )
      (1): LayerNorm(
        (norm): LayerNorm((768,), eps=1e-06, elementwise_affine=True)
      )
      (2): Linear(
        (w): Linear(in_features=768, out_features=5000, bias=True)
      )
    )
  )
) loading from /scratch/flatala/speechbrain/transformer/results_fold_1/conformer_small/7775/save/lm.ckpt, the transferred parameters did not have parameters for the key: encoder.layers.2.self_att.att.in_proj_weight
2025-03-20 14:26:27,408 - speechbrain.utils.checkpoints - WARNING - During parameter transfer to TransformerLM(
  (positional_encoding): PositionalEncoding()
  (encoder): TransformerEncoder(
    (layers): ModuleList(
      (0-11): 12 x TransformerEncoderLayer(
        (self_att): MultiheadAttention(
          (att): MultiheadAttention(
            (out_proj): NonDynamicallyQuantizableLinear(in_features=768, out_features=768, bias=True)
          )
        )
        (pos_ffn): PositionalwiseFeedForward(
          (ffn): Sequential(
            (0): Linear(in_features=768, out_features=3072, bias=True)
            (1): GELU(approximate='none')
            (2): Dropout(p=0.0, inplace=False)
            (3): Linear(in_features=3072, out_features=768, bias=True)
          )
        )
        (norm1): LayerNorm(
          (norm): LayerNorm((768,), eps=1e-06, elementwise_affine=True)
        )
        (norm2): LayerNorm(
          (norm): LayerNorm((768,), eps=1e-06, elementwise_affine=True)
        )
        (dropout1): Dropout(p=0.0, inplace=False)
        (dropout2): Dropout(p=0.0, inplace=False)
      )
    )
    (norm): LayerNorm(
      (norm): LayerNorm((768,), eps=1e-06, elementwise_affine=True)
    )
  )
  (custom_src_module): NormalizedEmbedding(
    (emb): Embedding(
      (Embedding): Embedding(5000, 768)
    )
  )
  (output_proj): ModuleList(
    (layers): ModuleList(
      (0): Linear(
        (w): Linear(in_features=768, out_features=768, bias=True)
      )
      (1): LayerNorm(
        (norm): LayerNorm((768,), eps=1e-06, elementwise_affine=True)
      )
      (2): Linear(
        (w): Linear(in_features=768, out_features=5000, bias=True)
      )
    )
  )
) loading from /scratch/flatala/speechbrain/transformer/results_fold_1/conformer_small/7775/save/lm.ckpt, the transferred parameters did not have parameters for the key: encoder.layers.2.self_att.att.in_proj_bias
2025-03-20 14:26:27,409 - speechbrain.utils.checkpoints - WARNING - During parameter transfer to TransformerLM(
  (positional_encoding): PositionalEncoding()
  (encoder): TransformerEncoder(
    (layers): ModuleList(
      (0-11): 12 x TransformerEncoderLayer(
        (self_att): MultiheadAttention(
          (att): MultiheadAttention(
            (out_proj): NonDynamicallyQuantizableLinear(in_features=768, out_features=768, bias=True)
          )
        )
        (pos_ffn): PositionalwiseFeedForward(
          (ffn): Sequential(
            (0): Linear(in_features=768, out_features=3072, bias=True)
            (1): GELU(approximate='none')
            (2): Dropout(p=0.0, inplace=False)
            (3): Linear(in_features=3072, out_features=768, bias=True)
          )
        )
        (norm1): LayerNorm(
          (norm): LayerNorm((768,), eps=1e-06, elementwise_affine=True)
        )
        (norm2): LayerNorm(
          (norm): LayerNorm((768,), eps=1e-06, elementwise_affine=True)
        )
        (dropout1): Dropout(p=0.0, inplace=False)
        (dropout2): Dropout(p=0.0, inplace=False)
      )
    )
    (norm): LayerNorm(
      (norm): LayerNorm((768,), eps=1e-06, elementwise_affine=True)
    )
  )
  (custom_src_module): NormalizedEmbedding(
    (emb): Embedding(
      (Embedding): Embedding(5000, 768)
    )
  )
  (output_proj): ModuleList(
    (layers): ModuleList(
      (0): Linear(
        (w): Linear(in_features=768, out_features=768, bias=True)
      )
      (1): LayerNorm(
        (norm): LayerNorm((768,), eps=1e-06, elementwise_affine=True)
      )
      (2): Linear(
        (w): Linear(in_features=768, out_features=5000, bias=True)
      )
    )
  )
) loading from /scratch/flatala/speechbrain/transformer/results_fold_1/conformer_small/7775/save/lm.ckpt, the transferred parameters did not have parameters for the key: encoder.layers.2.self_att.att.out_proj.weight
2025-03-20 14:26:27,410 - speechbrain.utils.checkpoints - WARNING - During parameter transfer to TransformerLM(
  (positional_encoding): PositionalEncoding()
  (encoder): TransformerEncoder(
    (layers): ModuleList(
      (0-11): 12 x TransformerEncoderLayer(
        (self_att): MultiheadAttention(
          (att): MultiheadAttention(
            (out_proj): NonDynamicallyQuantizableLinear(in_features=768, out_features=768, bias=True)
          )
        )
        (pos_ffn): PositionalwiseFeedForward(
          (ffn): Sequential(
            (0): Linear(in_features=768, out_features=3072, bias=True)
            (1): GELU(approximate='none')
            (2): Dropout(p=0.0, inplace=False)
            (3): Linear(in_features=3072, out_features=768, bias=True)
          )
        )
        (norm1): LayerNorm(
          (norm): LayerNorm((768,), eps=1e-06, elementwise_affine=True)
        )
        (norm2): LayerNorm(
          (norm): LayerNorm((768,), eps=1e-06, elementwise_affine=True)
        )
        (dropout1): Dropout(p=0.0, inplace=False)
        (dropout2): Dropout(p=0.0, inplace=False)
      )
    )
    (norm): LayerNorm(
      (norm): LayerNorm((768,), eps=1e-06, elementwise_affine=True)
    )
  )
  (custom_src_module): NormalizedEmbedding(
    (emb): Embedding(
      (Embedding): Embedding(5000, 768)
    )
  )
  (output_proj): ModuleList(
    (layers): ModuleList(
      (0): Linear(
        (w): Linear(in_features=768, out_features=768, bias=True)
      )
      (1): LayerNorm(
        (norm): LayerNorm((768,), eps=1e-06, elementwise_affine=True)
      )
      (2): Linear(
        (w): Linear(in_features=768, out_features=5000, bias=True)
      )
    )
  )
) loading from /scratch/flatala/speechbrain/transformer/results_fold_1/conformer_small/7775/save/lm.ckpt, the transferred parameters did not have parameters for the key: encoder.layers.2.self_att.att.out_proj.bias
2025-03-20 14:26:27,411 - speechbrain.utils.checkpoints - WARNING - During parameter transfer to TransformerLM(
  (positional_encoding): PositionalEncoding()
  (encoder): TransformerEncoder(
    (layers): ModuleList(
      (0-11): 12 x TransformerEncoderLayer(
        (self_att): MultiheadAttention(
          (att): MultiheadAttention(
            (out_proj): NonDynamicallyQuantizableLinear(in_features=768, out_features=768, bias=True)
          )
        )
        (pos_ffn): PositionalwiseFeedForward(
          (ffn): Sequential(
            (0): Linear(in_features=768, out_features=3072, bias=True)
            (1): GELU(approximate='none')
            (2): Dropout(p=0.0, inplace=False)
            (3): Linear(in_features=3072, out_features=768, bias=True)
          )
        )
        (norm1): LayerNorm(
          (norm): LayerNorm((768,), eps=1e-06, elementwise_affine=True)
        )
        (norm2): LayerNorm(
          (norm): LayerNorm((768,), eps=1e-06, elementwise_affine=True)
        )
        (dropout1): Dropout(p=0.0, inplace=False)
        (dropout2): Dropout(p=0.0, inplace=False)
      )
    )
    (norm): LayerNorm(
      (norm): LayerNorm((768,), eps=1e-06, elementwise_affine=True)
    )
  )
  (custom_src_module): NormalizedEmbedding(
    (emb): Embedding(
      (Embedding): Embedding(5000, 768)
    )
  )
  (output_proj): ModuleList(
    (layers): ModuleList(
      (0): Linear(
        (w): Linear(in_features=768, out_features=768, bias=True)
      )
      (1): LayerNorm(
        (norm): LayerNorm((768,), eps=1e-06, elementwise_affine=True)
      )
      (2): Linear(
        (w): Linear(in_features=768, out_features=5000, bias=True)
      )
    )
  )
) loading from /scratch/flatala/speechbrain/transformer/results_fold_1/conformer_small/7775/save/lm.ckpt, the transferred parameters did not have parameters for the key: encoder.layers.2.pos_ffn.ffn.0.weight
2025-03-20 14:26:27,412 - speechbrain.utils.checkpoints - WARNING - During parameter transfer to TransformerLM(
  (positional_encoding): PositionalEncoding()
  (encoder): TransformerEncoder(
    (layers): ModuleList(
      (0-11): 12 x TransformerEncoderLayer(
        (self_att): MultiheadAttention(
          (att): MultiheadAttention(
            (out_proj): NonDynamicallyQuantizableLinear(in_features=768, out_features=768, bias=True)
          )
        )
        (pos_ffn): PositionalwiseFeedForward(
          (ffn): Sequential(
            (0): Linear(in_features=768, out_features=3072, bias=True)
            (1): GELU(approximate='none')
            (2): Dropout(p=0.0, inplace=False)
            (3): Linear(in_features=3072, out_features=768, bias=True)
          )
        )
        (norm1): LayerNorm(
          (norm): LayerNorm((768,), eps=1e-06, elementwise_affine=True)
        )
        (norm2): LayerNorm(
          (norm): LayerNorm((768,), eps=1e-06, elementwise_affine=True)
        )
        (dropout1): Dropout(p=0.0, inplace=False)
        (dropout2): Dropout(p=0.0, inplace=False)
      )
    )
    (norm): LayerNorm(
      (norm): LayerNorm((768,), eps=1e-06, elementwise_affine=True)
    )
  )
  (custom_src_module): NormalizedEmbedding(
    (emb): Embedding(
      (Embedding): Embedding(5000, 768)
    )
  )
  (output_proj): ModuleList(
    (layers): ModuleList(
      (0): Linear(
        (w): Linear(in_features=768, out_features=768, bias=True)
      )
      (1): LayerNorm(
        (norm): LayerNorm((768,), eps=1e-06, elementwise_affine=True)
      )
      (2): Linear(
        (w): Linear(in_features=768, out_features=5000, bias=True)
      )
    )
  )
) loading from /scratch/flatala/speechbrain/transformer/results_fold_1/conformer_small/7775/save/lm.ckpt, the transferred parameters did not have parameters for the key: encoder.layers.2.pos_ffn.ffn.0.bias
2025-03-20 14:26:27,413 - speechbrain.utils.checkpoints - WARNING - During parameter transfer to TransformerLM(
  (positional_encoding): PositionalEncoding()
  (encoder): TransformerEncoder(
    (layers): ModuleList(
      (0-11): 12 x TransformerEncoderLayer(
        (self_att): MultiheadAttention(
          (att): MultiheadAttention(
            (out_proj): NonDynamicallyQuantizableLinear(in_features=768, out_features=768, bias=True)
          )
        )
        (pos_ffn): PositionalwiseFeedForward(
          (ffn): Sequential(
            (0): Linear(in_features=768, out_features=3072, bias=True)
            (1): GELU(approximate='none')
            (2): Dropout(p=0.0, inplace=False)
            (3): Linear(in_features=3072, out_features=768, bias=True)
          )
        )
        (norm1): LayerNorm(
          (norm): LayerNorm((768,), eps=1e-06, elementwise_affine=True)
        )
        (norm2): LayerNorm(
          (norm): LayerNorm((768,), eps=1e-06, elementwise_affine=True)
        )
        (dropout1): Dropout(p=0.0, inplace=False)
        (dropout2): Dropout(p=0.0, inplace=False)
      )
    )
    (norm): LayerNorm(
      (norm): LayerNorm((768,), eps=1e-06, elementwise_affine=True)
    )
  )
  (custom_src_module): NormalizedEmbedding(
    (emb): Embedding(
      (Embedding): Embedding(5000, 768)
    )
  )
  (output_proj): ModuleList(
    (layers): ModuleList(
      (0): Linear(
        (w): Linear(in_features=768, out_features=768, bias=True)
      )
      (1): LayerNorm(
        (norm): LayerNorm((768,), eps=1e-06, elementwise_affine=True)
      )
      (2): Linear(
        (w): Linear(in_features=768, out_features=5000, bias=True)
      )
    )
  )
) loading from /scratch/flatala/speechbrain/transformer/results_fold_1/conformer_small/7775/save/lm.ckpt, the transferred parameters did not have parameters for the key: encoder.layers.2.pos_ffn.ffn.3.weight
2025-03-20 14:26:27,414 - speechbrain.utils.checkpoints - WARNING - During parameter transfer to TransformerLM(
  (positional_encoding): PositionalEncoding()
  (encoder): TransformerEncoder(
    (layers): ModuleList(
      (0-11): 12 x TransformerEncoderLayer(
        (self_att): MultiheadAttention(
          (att): MultiheadAttention(
            (out_proj): NonDynamicallyQuantizableLinear(in_features=768, out_features=768, bias=True)
          )
        )
        (pos_ffn): PositionalwiseFeedForward(
          (ffn): Sequential(
            (0): Linear(in_features=768, out_features=3072, bias=True)
            (1): GELU(approximate='none')
            (2): Dropout(p=0.0, inplace=False)
            (3): Linear(in_features=3072, out_features=768, bias=True)
          )
        )
        (norm1): LayerNorm(
          (norm): LayerNorm((768,), eps=1e-06, elementwise_affine=True)
        )
        (norm2): LayerNorm(
          (norm): LayerNorm((768,), eps=1e-06, elementwise_affine=True)
        )
        (dropout1): Dropout(p=0.0, inplace=False)
        (dropout2): Dropout(p=0.0, inplace=False)
      )
    )
    (norm): LayerNorm(
      (norm): LayerNorm((768,), eps=1e-06, elementwise_affine=True)
    )
  )
  (custom_src_module): NormalizedEmbedding(
    (emb): Embedding(
      (Embedding): Embedding(5000, 768)
    )
  )
  (output_proj): ModuleList(
    (layers): ModuleList(
      (0): Linear(
        (w): Linear(in_features=768, out_features=768, bias=True)
      )
      (1): LayerNorm(
        (norm): LayerNorm((768,), eps=1e-06, elementwise_affine=True)
      )
      (2): Linear(
        (w): Linear(in_features=768, out_features=5000, bias=True)
      )
    )
  )
) loading from /scratch/flatala/speechbrain/transformer/results_fold_1/conformer_small/7775/save/lm.ckpt, the transferred parameters did not have parameters for the key: encoder.layers.2.pos_ffn.ffn.3.bias
2025-03-20 14:26:27,414 - speechbrain.utils.checkpoints - WARNING - During parameter transfer to TransformerLM(
  (positional_encoding): PositionalEncoding()
  (encoder): TransformerEncoder(
    (layers): ModuleList(
      (0-11): 12 x TransformerEncoderLayer(
        (self_att): MultiheadAttention(
          (att): MultiheadAttention(
            (out_proj): NonDynamicallyQuantizableLinear(in_features=768, out_features=768, bias=True)
          )
        )
        (pos_ffn): PositionalwiseFeedForward(
          (ffn): Sequential(
            (0): Linear(in_features=768, out_features=3072, bias=True)
            (1): GELU(approximate='none')
            (2): Dropout(p=0.0, inplace=False)
            (3): Linear(in_features=3072, out_features=768, bias=True)
          )
        )
        (norm1): LayerNorm(
          (norm): LayerNorm((768,), eps=1e-06, elementwise_affine=True)
        )
        (norm2): LayerNorm(
          (norm): LayerNorm((768,), eps=1e-06, elementwise_affine=True)
        )
        (dropout1): Dropout(p=0.0, inplace=False)
        (dropout2): Dropout(p=0.0, inplace=False)
      )
    )
    (norm): LayerNorm(
      (norm): LayerNorm((768,), eps=1e-06, elementwise_affine=True)
    )
  )
  (custom_src_module): NormalizedEmbedding(
    (emb): Embedding(
      (Embedding): Embedding(5000, 768)
    )
  )
  (output_proj): ModuleList(
    (layers): ModuleList(
      (0): Linear(
        (w): Linear(in_features=768, out_features=768, bias=True)
      )
      (1): LayerNorm(
        (norm): LayerNorm((768,), eps=1e-06, elementwise_affine=True)
      )
      (2): Linear(
        (w): Linear(in_features=768, out_features=5000, bias=True)
      )
    )
  )
) loading from /scratch/flatala/speechbrain/transformer/results_fold_1/conformer_small/7775/save/lm.ckpt, the transferred parameters did not have parameters for the key: encoder.layers.2.norm1.norm.weight
2025-03-20 14:26:27,415 - speechbrain.utils.checkpoints - WARNING - During parameter transfer to TransformerLM(
  (positional_encoding): PositionalEncoding()
  (encoder): TransformerEncoder(
    (layers): ModuleList(
      (0-11): 12 x TransformerEncoderLayer(
        (self_att): MultiheadAttention(
          (att): MultiheadAttention(
            (out_proj): NonDynamicallyQuantizableLinear(in_features=768, out_features=768, bias=True)
          )
        )
        (pos_ffn): PositionalwiseFeedForward(
          (ffn): Sequential(
            (0): Linear(in_features=768, out_features=3072, bias=True)
            (1): GELU(approximate='none')
            (2): Dropout(p=0.0, inplace=False)
            (3): Linear(in_features=3072, out_features=768, bias=True)
          )
        )
        (norm1): LayerNorm(
          (norm): LayerNorm((768,), eps=1e-06, elementwise_affine=True)
        )
        (norm2): LayerNorm(
          (norm): LayerNorm((768,), eps=1e-06, elementwise_affine=True)
        )
        (dropout1): Dropout(p=0.0, inplace=False)
        (dropout2): Dropout(p=0.0, inplace=False)
      )
    )
    (norm): LayerNorm(
      (norm): LayerNorm((768,), eps=1e-06, elementwise_affine=True)
    )
  )
  (custom_src_module): NormalizedEmbedding(
    (emb): Embedding(
      (Embedding): Embedding(5000, 768)
    )
  )
  (output_proj): ModuleList(
    (layers): ModuleList(
      (0): Linear(
        (w): Linear(in_features=768, out_features=768, bias=True)
      )
      (1): LayerNorm(
        (norm): LayerNorm((768,), eps=1e-06, elementwise_affine=True)
      )
      (2): Linear(
        (w): Linear(in_features=768, out_features=5000, bias=True)
      )
    )
  )
) loading from /scratch/flatala/speechbrain/transformer/results_fold_1/conformer_small/7775/save/lm.ckpt, the transferred parameters did not have parameters for the key: encoder.layers.2.norm1.norm.bias
2025-03-20 14:26:27,416 - speechbrain.utils.checkpoints - WARNING - During parameter transfer to TransformerLM(
  (positional_encoding): PositionalEncoding()
  (encoder): TransformerEncoder(
    (layers): ModuleList(
      (0-11): 12 x TransformerEncoderLayer(
        (self_att): MultiheadAttention(
          (att): MultiheadAttention(
            (out_proj): NonDynamicallyQuantizableLinear(in_features=768, out_features=768, bias=True)
          )
        )
        (pos_ffn): PositionalwiseFeedForward(
          (ffn): Sequential(
            (0): Linear(in_features=768, out_features=3072, bias=True)
            (1): GELU(approximate='none')
            (2): Dropout(p=0.0, inplace=False)
            (3): Linear(in_features=3072, out_features=768, bias=True)
          )
        )
        (norm1): LayerNorm(
          (norm): LayerNorm((768,), eps=1e-06, elementwise_affine=True)
        )
        (norm2): LayerNorm(
          (norm): LayerNorm((768,), eps=1e-06, elementwise_affine=True)
        )
        (dropout1): Dropout(p=0.0, inplace=False)
        (dropout2): Dropout(p=0.0, inplace=False)
      )
    )
    (norm): LayerNorm(
      (norm): LayerNorm((768,), eps=1e-06, elementwise_affine=True)
    )
  )
  (custom_src_module): NormalizedEmbedding(
    (emb): Embedding(
      (Embedding): Embedding(5000, 768)
    )
  )
  (output_proj): ModuleList(
    (layers): ModuleList(
      (0): Linear(
        (w): Linear(in_features=768, out_features=768, bias=True)
      )
      (1): LayerNorm(
        (norm): LayerNorm((768,), eps=1e-06, elementwise_affine=True)
      )
      (2): Linear(
        (w): Linear(in_features=768, out_features=5000, bias=True)
      )
    )
  )
) loading from /scratch/flatala/speechbrain/transformer/results_fold_1/conformer_small/7775/save/lm.ckpt, the transferred parameters did not have parameters for the key: encoder.layers.2.norm2.norm.weight
2025-03-20 14:26:27,417 - speechbrain.utils.checkpoints - WARNING - During parameter transfer to TransformerLM(
  (positional_encoding): PositionalEncoding()
  (encoder): TransformerEncoder(
    (layers): ModuleList(
      (0-11): 12 x TransformerEncoderLayer(
        (self_att): MultiheadAttention(
          (att): MultiheadAttention(
            (out_proj): NonDynamicallyQuantizableLinear(in_features=768, out_features=768, bias=True)
          )
        )
        (pos_ffn): PositionalwiseFeedForward(
          (ffn): Sequential(
            (0): Linear(in_features=768, out_features=3072, bias=True)
            (1): GELU(approximate='none')
            (2): Dropout(p=0.0, inplace=False)
            (3): Linear(in_features=3072, out_features=768, bias=True)
          )
        )
        (norm1): LayerNorm(
          (norm): LayerNorm((768,), eps=1e-06, elementwise_affine=True)
        )
        (norm2): LayerNorm(
          (norm): LayerNorm((768,), eps=1e-06, elementwise_affine=True)
        )
        (dropout1): Dropout(p=0.0, inplace=False)
        (dropout2): Dropout(p=0.0, inplace=False)
      )
    )
    (norm): LayerNorm(
      (norm): LayerNorm((768,), eps=1e-06, elementwise_affine=True)
    )
  )
  (custom_src_module): NormalizedEmbedding(
    (emb): Embedding(
      (Embedding): Embedding(5000, 768)
    )
  )
  (output_proj): ModuleList(
    (layers): ModuleList(
      (0): Linear(
        (w): Linear(in_features=768, out_features=768, bias=True)
      )
      (1): LayerNorm(
        (norm): LayerNorm((768,), eps=1e-06, elementwise_affine=True)
      )
      (2): Linear(
        (w): Linear(in_features=768, out_features=5000, bias=True)
      )
    )
  )
) loading from /scratch/flatala/speechbrain/transformer/results_fold_1/conformer_small/7775/save/lm.ckpt, the transferred parameters did not have parameters for the key: encoder.layers.2.norm2.norm.bias
2025-03-20 14:26:27,417 - speechbrain.utils.checkpoints - WARNING - During parameter transfer to TransformerLM(
  (positional_encoding): PositionalEncoding()
  (encoder): TransformerEncoder(
    (layers): ModuleList(
      (0-11): 12 x TransformerEncoderLayer(
        (self_att): MultiheadAttention(
          (att): MultiheadAttention(
            (out_proj): NonDynamicallyQuantizableLinear(in_features=768, out_features=768, bias=True)
          )
        )
        (pos_ffn): PositionalwiseFeedForward(
          (ffn): Sequential(
            (0): Linear(in_features=768, out_features=3072, bias=True)
            (1): GELU(approximate='none')
            (2): Dropout(p=0.0, inplace=False)
            (3): Linear(in_features=3072, out_features=768, bias=True)
          )
        )
        (norm1): LayerNorm(
          (norm): LayerNorm((768,), eps=1e-06, elementwise_affine=True)
        )
        (norm2): LayerNorm(
          (norm): LayerNorm((768,), eps=1e-06, elementwise_affine=True)
        )
        (dropout1): Dropout(p=0.0, inplace=False)
        (dropout2): Dropout(p=0.0, inplace=False)
      )
    )
    (norm): LayerNorm(
      (norm): LayerNorm((768,), eps=1e-06, elementwise_affine=True)
    )
  )
  (custom_src_module): NormalizedEmbedding(
    (emb): Embedding(
      (Embedding): Embedding(5000, 768)
    )
  )
  (output_proj): ModuleList(
    (layers): ModuleList(
      (0): Linear(
        (w): Linear(in_features=768, out_features=768, bias=True)
      )
      (1): LayerNorm(
        (norm): LayerNorm((768,), eps=1e-06, elementwise_affine=True)
      )
      (2): Linear(
        (w): Linear(in_features=768, out_features=5000, bias=True)
      )
    )
  )
) loading from /scratch/flatala/speechbrain/transformer/results_fold_1/conformer_small/7775/save/lm.ckpt, the transferred parameters did not have parameters for the key: encoder.layers.3.self_att.att.in_proj_weight
2025-03-20 14:26:27,418 - speechbrain.utils.checkpoints - WARNING - During parameter transfer to TransformerLM(
  (positional_encoding): PositionalEncoding()
  (encoder): TransformerEncoder(
    (layers): ModuleList(
      (0-11): 12 x TransformerEncoderLayer(
        (self_att): MultiheadAttention(
          (att): MultiheadAttention(
            (out_proj): NonDynamicallyQuantizableLinear(in_features=768, out_features=768, bias=True)
          )
        )
        (pos_ffn): PositionalwiseFeedForward(
          (ffn): Sequential(
            (0): Linear(in_features=768, out_features=3072, bias=True)
            (1): GELU(approximate='none')
            (2): Dropout(p=0.0, inplace=False)
            (3): Linear(in_features=3072, out_features=768, bias=True)
          )
        )
        (norm1): LayerNorm(
          (norm): LayerNorm((768,), eps=1e-06, elementwise_affine=True)
        )
        (norm2): LayerNorm(
          (norm): LayerNorm((768,), eps=1e-06, elementwise_affine=True)
        )
        (dropout1): Dropout(p=0.0, inplace=False)
        (dropout2): Dropout(p=0.0, inplace=False)
      )
    )
    (norm): LayerNorm(
      (norm): LayerNorm((768,), eps=1e-06, elementwise_affine=True)
    )
  )
  (custom_src_module): NormalizedEmbedding(
    (emb): Embedding(
      (Embedding): Embedding(5000, 768)
    )
  )
  (output_proj): ModuleList(
    (layers): ModuleList(
      (0): Linear(
        (w): Linear(in_features=768, out_features=768, bias=True)
      )
      (1): LayerNorm(
        (norm): LayerNorm((768,), eps=1e-06, elementwise_affine=True)
      )
      (2): Linear(
        (w): Linear(in_features=768, out_features=5000, bias=True)
      )
    )
  )
) loading from /scratch/flatala/speechbrain/transformer/results_fold_1/conformer_small/7775/save/lm.ckpt, the transferred parameters did not have parameters for the key: encoder.layers.3.self_att.att.in_proj_bias
2025-03-20 14:26:27,419 - speechbrain.utils.checkpoints - WARNING - During parameter transfer to TransformerLM(
  (positional_encoding): PositionalEncoding()
  (encoder): TransformerEncoder(
    (layers): ModuleList(
      (0-11): 12 x TransformerEncoderLayer(
        (self_att): MultiheadAttention(
          (att): MultiheadAttention(
            (out_proj): NonDynamicallyQuantizableLinear(in_features=768, out_features=768, bias=True)
          )
        )
        (pos_ffn): PositionalwiseFeedForward(
          (ffn): Sequential(
            (0): Linear(in_features=768, out_features=3072, bias=True)
            (1): GELU(approximate='none')
            (2): Dropout(p=0.0, inplace=False)
            (3): Linear(in_features=3072, out_features=768, bias=True)
          )
        )
        (norm1): LayerNorm(
          (norm): LayerNorm((768,), eps=1e-06, elementwise_affine=True)
        )
        (norm2): LayerNorm(
          (norm): LayerNorm((768,), eps=1e-06, elementwise_affine=True)
        )
        (dropout1): Dropout(p=0.0, inplace=False)
        (dropout2): Dropout(p=0.0, inplace=False)
      )
    )
    (norm): LayerNorm(
      (norm): LayerNorm((768,), eps=1e-06, elementwise_affine=True)
    )
  )
  (custom_src_module): NormalizedEmbedding(
    (emb): Embedding(
      (Embedding): Embedding(5000, 768)
    )
  )
  (output_proj): ModuleList(
    (layers): ModuleList(
      (0): Linear(
        (w): Linear(in_features=768, out_features=768, bias=True)
      )
      (1): LayerNorm(
        (norm): LayerNorm((768,), eps=1e-06, elementwise_affine=True)
      )
      (2): Linear(
        (w): Linear(in_features=768, out_features=5000, bias=True)
      )
    )
  )
) loading from /scratch/flatala/speechbrain/transformer/results_fold_1/conformer_small/7775/save/lm.ckpt, the transferred parameters did not have parameters for the key: encoder.layers.3.self_att.att.out_proj.weight
2025-03-20 14:26:27,420 - speechbrain.utils.checkpoints - WARNING - During parameter transfer to TransformerLM(
  (positional_encoding): PositionalEncoding()
  (encoder): TransformerEncoder(
    (layers): ModuleList(
      (0-11): 12 x TransformerEncoderLayer(
        (self_att): MultiheadAttention(
          (att): MultiheadAttention(
            (out_proj): NonDynamicallyQuantizableLinear(in_features=768, out_features=768, bias=True)
          )
        )
        (pos_ffn): PositionalwiseFeedForward(
          (ffn): Sequential(
            (0): Linear(in_features=768, out_features=3072, bias=True)
            (1): GELU(approximate='none')
            (2): Dropout(p=0.0, inplace=False)
            (3): Linear(in_features=3072, out_features=768, bias=True)
          )
        )
        (norm1): LayerNorm(
          (norm): LayerNorm((768,), eps=1e-06, elementwise_affine=True)
        )
        (norm2): LayerNorm(
          (norm): LayerNorm((768,), eps=1e-06, elementwise_affine=True)
        )
        (dropout1): Dropout(p=0.0, inplace=False)
        (dropout2): Dropout(p=0.0, inplace=False)
      )
    )
    (norm): LayerNorm(
      (norm): LayerNorm((768,), eps=1e-06, elementwise_affine=True)
    )
  )
  (custom_src_module): NormalizedEmbedding(
    (emb): Embedding(
      (Embedding): Embedding(5000, 768)
    )
  )
  (output_proj): ModuleList(
    (layers): ModuleList(
      (0): Linear(
        (w): Linear(in_features=768, out_features=768, bias=True)
      )
      (1): LayerNorm(
        (norm): LayerNorm((768,), eps=1e-06, elementwise_affine=True)
      )
      (2): Linear(
        (w): Linear(in_features=768, out_features=5000, bias=True)
      )
    )
  )
) loading from /scratch/flatala/speechbrain/transformer/results_fold_1/conformer_small/7775/save/lm.ckpt, the transferred parameters did not have parameters for the key: encoder.layers.3.self_att.att.out_proj.bias
2025-03-20 14:26:27,420 - speechbrain.utils.checkpoints - WARNING - During parameter transfer to TransformerLM(
  (positional_encoding): PositionalEncoding()
  (encoder): TransformerEncoder(
    (layers): ModuleList(
      (0-11): 12 x TransformerEncoderLayer(
        (self_att): MultiheadAttention(
          (att): MultiheadAttention(
            (out_proj): NonDynamicallyQuantizableLinear(in_features=768, out_features=768, bias=True)
          )
        )
        (pos_ffn): PositionalwiseFeedForward(
          (ffn): Sequential(
            (0): Linear(in_features=768, out_features=3072, bias=True)
            (1): GELU(approximate='none')
            (2): Dropout(p=0.0, inplace=False)
            (3): Linear(in_features=3072, out_features=768, bias=True)
          )
        )
        (norm1): LayerNorm(
          (norm): LayerNorm((768,), eps=1e-06, elementwise_affine=True)
        )
        (norm2): LayerNorm(
          (norm): LayerNorm((768,), eps=1e-06, elementwise_affine=True)
        )
        (dropout1): Dropout(p=0.0, inplace=False)
        (dropout2): Dropout(p=0.0, inplace=False)
      )
    )
    (norm): LayerNorm(
      (norm): LayerNorm((768,), eps=1e-06, elementwise_affine=True)
    )
  )
  (custom_src_module): NormalizedEmbedding(
    (emb): Embedding(
      (Embedding): Embedding(5000, 768)
    )
  )
  (output_proj): ModuleList(
    (layers): ModuleList(
      (0): Linear(
        (w): Linear(in_features=768, out_features=768, bias=True)
      )
      (1): LayerNorm(
        (norm): LayerNorm((768,), eps=1e-06, elementwise_affine=True)
      )
      (2): Linear(
        (w): Linear(in_features=768, out_features=5000, bias=True)
      )
    )
  )
) loading from /scratch/flatala/speechbrain/transformer/results_fold_1/conformer_small/7775/save/lm.ckpt, the transferred parameters did not have parameters for the key: encoder.layers.3.pos_ffn.ffn.0.weight
2025-03-20 14:26:27,421 - speechbrain.utils.checkpoints - WARNING - During parameter transfer to TransformerLM(
  (positional_encoding): PositionalEncoding()
  (encoder): TransformerEncoder(
    (layers): ModuleList(
      (0-11): 12 x TransformerEncoderLayer(
        (self_att): MultiheadAttention(
          (att): MultiheadAttention(
            (out_proj): NonDynamicallyQuantizableLinear(in_features=768, out_features=768, bias=True)
          )
        )
        (pos_ffn): PositionalwiseFeedForward(
          (ffn): Sequential(
            (0): Linear(in_features=768, out_features=3072, bias=True)
            (1): GELU(approximate='none')
            (2): Dropout(p=0.0, inplace=False)
            (3): Linear(in_features=3072, out_features=768, bias=True)
          )
        )
        (norm1): LayerNorm(
          (norm): LayerNorm((768,), eps=1e-06, elementwise_affine=True)
        )
        (norm2): LayerNorm(
          (norm): LayerNorm((768,), eps=1e-06, elementwise_affine=True)
        )
        (dropout1): Dropout(p=0.0, inplace=False)
        (dropout2): Dropout(p=0.0, inplace=False)
      )
    )
    (norm): LayerNorm(
      (norm): LayerNorm((768,), eps=1e-06, elementwise_affine=True)
    )
  )
  (custom_src_module): NormalizedEmbedding(
    (emb): Embedding(
      (Embedding): Embedding(5000, 768)
    )
  )
  (output_proj): ModuleList(
    (layers): ModuleList(
      (0): Linear(
        (w): Linear(in_features=768, out_features=768, bias=True)
      )
      (1): LayerNorm(
        (norm): LayerNorm((768,), eps=1e-06, elementwise_affine=True)
      )
      (2): Linear(
        (w): Linear(in_features=768, out_features=5000, bias=True)
      )
    )
  )
) loading from /scratch/flatala/speechbrain/transformer/results_fold_1/conformer_small/7775/save/lm.ckpt, the transferred parameters did not have parameters for the key: encoder.layers.3.pos_ffn.ffn.0.bias
2025-03-20 14:26:27,421 - speechbrain.utils.checkpoints - WARNING - During parameter transfer to TransformerLM(
  (positional_encoding): PositionalEncoding()
  (encoder): TransformerEncoder(
    (layers): ModuleList(
      (0-11): 12 x TransformerEncoderLayer(
        (self_att): MultiheadAttention(
          (att): MultiheadAttention(
            (out_proj): NonDynamicallyQuantizableLinear(in_features=768, out_features=768, bias=True)
          )
        )
        (pos_ffn): PositionalwiseFeedForward(
          (ffn): Sequential(
            (0): Linear(in_features=768, out_features=3072, bias=True)
            (1): GELU(approximate='none')
            (2): Dropout(p=0.0, inplace=False)
            (3): Linear(in_features=3072, out_features=768, bias=True)
          )
        )
        (norm1): LayerNorm(
          (norm): LayerNorm((768,), eps=1e-06, elementwise_affine=True)
        )
        (norm2): LayerNorm(
          (norm): LayerNorm((768,), eps=1e-06, elementwise_affine=True)
        )
        (dropout1): Dropout(p=0.0, inplace=False)
        (dropout2): Dropout(p=0.0, inplace=False)
      )
    )
    (norm): LayerNorm(
      (norm): LayerNorm((768,), eps=1e-06, elementwise_affine=True)
    )
  )
  (custom_src_module): NormalizedEmbedding(
    (emb): Embedding(
      (Embedding): Embedding(5000, 768)
    )
  )
  (output_proj): ModuleList(
    (layers): ModuleList(
      (0): Linear(
        (w): Linear(in_features=768, out_features=768, bias=True)
      )
      (1): LayerNorm(
        (norm): LayerNorm((768,), eps=1e-06, elementwise_affine=True)
      )
      (2): Linear(
        (w): Linear(in_features=768, out_features=5000, bias=True)
      )
    )
  )
) loading from /scratch/flatala/speechbrain/transformer/results_fold_1/conformer_small/7775/save/lm.ckpt, the transferred parameters did not have parameters for the key: encoder.layers.3.pos_ffn.ffn.3.weight
2025-03-20 14:26:27,422 - speechbrain.utils.checkpoints - WARNING - During parameter transfer to TransformerLM(
  (positional_encoding): PositionalEncoding()
  (encoder): TransformerEncoder(
    (layers): ModuleList(
      (0-11): 12 x TransformerEncoderLayer(
        (self_att): MultiheadAttention(
          (att): MultiheadAttention(
            (out_proj): NonDynamicallyQuantizableLinear(in_features=768, out_features=768, bias=True)
          )
        )
        (pos_ffn): PositionalwiseFeedForward(
          (ffn): Sequential(
            (0): Linear(in_features=768, out_features=3072, bias=True)
            (1): GELU(approximate='none')
            (2): Dropout(p=0.0, inplace=False)
            (3): Linear(in_features=3072, out_features=768, bias=True)
          )
        )
        (norm1): LayerNorm(
          (norm): LayerNorm((768,), eps=1e-06, elementwise_affine=True)
        )
        (norm2): LayerNorm(
          (norm): LayerNorm((768,), eps=1e-06, elementwise_affine=True)
        )
        (dropout1): Dropout(p=0.0, inplace=False)
        (dropout2): Dropout(p=0.0, inplace=False)
      )
    )
    (norm): LayerNorm(
      (norm): LayerNorm((768,), eps=1e-06, elementwise_affine=True)
    )
  )
  (custom_src_module): NormalizedEmbedding(
    (emb): Embedding(
      (Embedding): Embedding(5000, 768)
    )
  )
  (output_proj): ModuleList(
    (layers): ModuleList(
      (0): Linear(
        (w): Linear(in_features=768, out_features=768, bias=True)
      )
      (1): LayerNorm(
        (norm): LayerNorm((768,), eps=1e-06, elementwise_affine=True)
      )
      (2): Linear(
        (w): Linear(in_features=768, out_features=5000, bias=True)
      )
    )
  )
) loading from /scratch/flatala/speechbrain/transformer/results_fold_1/conformer_small/7775/save/lm.ckpt, the transferred parameters did not have parameters for the key: encoder.layers.3.pos_ffn.ffn.3.bias
2025-03-20 14:26:27,423 - speechbrain.utils.checkpoints - WARNING - During parameter transfer to TransformerLM(
  (positional_encoding): PositionalEncoding()
  (encoder): TransformerEncoder(
    (layers): ModuleList(
      (0-11): 12 x TransformerEncoderLayer(
        (self_att): MultiheadAttention(
          (att): MultiheadAttention(
            (out_proj): NonDynamicallyQuantizableLinear(in_features=768, out_features=768, bias=True)
          )
        )
        (pos_ffn): PositionalwiseFeedForward(
          (ffn): Sequential(
            (0): Linear(in_features=768, out_features=3072, bias=True)
            (1): GELU(approximate='none')
            (2): Dropout(p=0.0, inplace=False)
            (3): Linear(in_features=3072, out_features=768, bias=True)
          )
        )
        (norm1): LayerNorm(
          (norm): LayerNorm((768,), eps=1e-06, elementwise_affine=True)
        )
        (norm2): LayerNorm(
          (norm): LayerNorm((768,), eps=1e-06, elementwise_affine=True)
        )
        (dropout1): Dropout(p=0.0, inplace=False)
        (dropout2): Dropout(p=0.0, inplace=False)
      )
    )
    (norm): LayerNorm(
      (norm): LayerNorm((768,), eps=1e-06, elementwise_affine=True)
    )
  )
  (custom_src_module): NormalizedEmbedding(
    (emb): Embedding(
      (Embedding): Embedding(5000, 768)
    )
  )
  (output_proj): ModuleList(
    (layers): ModuleList(
      (0): Linear(
        (w): Linear(in_features=768, out_features=768, bias=True)
      )
      (1): LayerNorm(
        (norm): LayerNorm((768,), eps=1e-06, elementwise_affine=True)
      )
      (2): Linear(
        (w): Linear(in_features=768, out_features=5000, bias=True)
      )
    )
  )
) loading from /scratch/flatala/speechbrain/transformer/results_fold_1/conformer_small/7775/save/lm.ckpt, the transferred parameters did not have parameters for the key: encoder.layers.3.norm1.norm.weight
2025-03-20 14:26:27,423 - speechbrain.utils.checkpoints - WARNING - During parameter transfer to TransformerLM(
  (positional_encoding): PositionalEncoding()
  (encoder): TransformerEncoder(
    (layers): ModuleList(
      (0-11): 12 x TransformerEncoderLayer(
        (self_att): MultiheadAttention(
          (att): MultiheadAttention(
            (out_proj): NonDynamicallyQuantizableLinear(in_features=768, out_features=768, bias=True)
          )
        )
        (pos_ffn): PositionalwiseFeedForward(
          (ffn): Sequential(
            (0): Linear(in_features=768, out_features=3072, bias=True)
            (1): GELU(approximate='none')
            (2): Dropout(p=0.0, inplace=False)
            (3): Linear(in_features=3072, out_features=768, bias=True)
          )
        )
        (norm1): LayerNorm(
          (norm): LayerNorm((768,), eps=1e-06, elementwise_affine=True)
        )
        (norm2): LayerNorm(
          (norm): LayerNorm((768,), eps=1e-06, elementwise_affine=True)
        )
        (dropout1): Dropout(p=0.0, inplace=False)
        (dropout2): Dropout(p=0.0, inplace=False)
      )
    )
    (norm): LayerNorm(
      (norm): LayerNorm((768,), eps=1e-06, elementwise_affine=True)
    )
  )
  (custom_src_module): NormalizedEmbedding(
    (emb): Embedding(
      (Embedding): Embedding(5000, 768)
    )
  )
  (output_proj): ModuleList(
    (layers): ModuleList(
      (0): Linear(
        (w): Linear(in_features=768, out_features=768, bias=True)
      )
      (1): LayerNorm(
        (norm): LayerNorm((768,), eps=1e-06, elementwise_affine=True)
      )
      (2): Linear(
        (w): Linear(in_features=768, out_features=5000, bias=True)
      )
    )
  )
) loading from /scratch/flatala/speechbrain/transformer/results_fold_1/conformer_small/7775/save/lm.ckpt, the transferred parameters did not have parameters for the key: encoder.layers.3.norm1.norm.bias
2025-03-20 14:26:27,424 - speechbrain.utils.checkpoints - WARNING - During parameter transfer to TransformerLM(
  (positional_encoding): PositionalEncoding()
  (encoder): TransformerEncoder(
    (layers): ModuleList(
      (0-11): 12 x TransformerEncoderLayer(
        (self_att): MultiheadAttention(
          (att): MultiheadAttention(
            (out_proj): NonDynamicallyQuantizableLinear(in_features=768, out_features=768, bias=True)
          )
        )
        (pos_ffn): PositionalwiseFeedForward(
          (ffn): Sequential(
            (0): Linear(in_features=768, out_features=3072, bias=True)
            (1): GELU(approximate='none')
            (2): Dropout(p=0.0, inplace=False)
            (3): Linear(in_features=3072, out_features=768, bias=True)
          )
        )
        (norm1): LayerNorm(
          (norm): LayerNorm((768,), eps=1e-06, elementwise_affine=True)
        )
        (norm2): LayerNorm(
          (norm): LayerNorm((768,), eps=1e-06, elementwise_affine=True)
        )
        (dropout1): Dropout(p=0.0, inplace=False)
        (dropout2): Dropout(p=0.0, inplace=False)
      )
    )
    (norm): LayerNorm(
      (norm): LayerNorm((768,), eps=1e-06, elementwise_affine=True)
    )
  )
  (custom_src_module): NormalizedEmbedding(
    (emb): Embedding(
      (Embedding): Embedding(5000, 768)
    )
  )
  (output_proj): ModuleList(
    (layers): ModuleList(
      (0): Linear(
        (w): Linear(in_features=768, out_features=768, bias=True)
      )
      (1): LayerNorm(
        (norm): LayerNorm((768,), eps=1e-06, elementwise_affine=True)
      )
      (2): Linear(
        (w): Linear(in_features=768, out_features=5000, bias=True)
      )
    )
  )
) loading from /scratch/flatala/speechbrain/transformer/results_fold_1/conformer_small/7775/save/lm.ckpt, the transferred parameters did not have parameters for the key: encoder.layers.3.norm2.norm.weight
2025-03-20 14:26:27,424 - speechbrain.utils.checkpoints - WARNING - During parameter transfer to TransformerLM(
  (positional_encoding): PositionalEncoding()
  (encoder): TransformerEncoder(
    (layers): ModuleList(
      (0-11): 12 x TransformerEncoderLayer(
        (self_att): MultiheadAttention(
          (att): MultiheadAttention(
            (out_proj): NonDynamicallyQuantizableLinear(in_features=768, out_features=768, bias=True)
          )
        )
        (pos_ffn): PositionalwiseFeedForward(
          (ffn): Sequential(
            (0): Linear(in_features=768, out_features=3072, bias=True)
            (1): GELU(approximate='none')
            (2): Dropout(p=0.0, inplace=False)
            (3): Linear(in_features=3072, out_features=768, bias=True)
          )
        )
        (norm1): LayerNorm(
          (norm): LayerNorm((768,), eps=1e-06, elementwise_affine=True)
        )
        (norm2): LayerNorm(
          (norm): LayerNorm((768,), eps=1e-06, elementwise_affine=True)
        )
        (dropout1): Dropout(p=0.0, inplace=False)
        (dropout2): Dropout(p=0.0, inplace=False)
      )
    )
    (norm): LayerNorm(
      (norm): LayerNorm((768,), eps=1e-06, elementwise_affine=True)
    )
  )
  (custom_src_module): NormalizedEmbedding(
    (emb): Embedding(
      (Embedding): Embedding(5000, 768)
    )
  )
  (output_proj): ModuleList(
    (layers): ModuleList(
      (0): Linear(
        (w): Linear(in_features=768, out_features=768, bias=True)
      )
      (1): LayerNorm(
        (norm): LayerNorm((768,), eps=1e-06, elementwise_affine=True)
      )
      (2): Linear(
        (w): Linear(in_features=768, out_features=5000, bias=True)
      )
    )
  )
) loading from /scratch/flatala/speechbrain/transformer/results_fold_1/conformer_small/7775/save/lm.ckpt, the transferred parameters did not have parameters for the key: encoder.layers.3.norm2.norm.bias
2025-03-20 14:26:27,425 - speechbrain.utils.checkpoints - WARNING - During parameter transfer to TransformerLM(
  (positional_encoding): PositionalEncoding()
  (encoder): TransformerEncoder(
    (layers): ModuleList(
      (0-11): 12 x TransformerEncoderLayer(
        (self_att): MultiheadAttention(
          (att): MultiheadAttention(
            (out_proj): NonDynamicallyQuantizableLinear(in_features=768, out_features=768, bias=True)
          )
        )
        (pos_ffn): PositionalwiseFeedForward(
          (ffn): Sequential(
            (0): Linear(in_features=768, out_features=3072, bias=True)
            (1): GELU(approximate='none')
            (2): Dropout(p=0.0, inplace=False)
            (3): Linear(in_features=3072, out_features=768, bias=True)
          )
        )
        (norm1): LayerNorm(
          (norm): LayerNorm((768,), eps=1e-06, elementwise_affine=True)
        )
        (norm2): LayerNorm(
          (norm): LayerNorm((768,), eps=1e-06, elementwise_affine=True)
        )
        (dropout1): Dropout(p=0.0, inplace=False)
        (dropout2): Dropout(p=0.0, inplace=False)
      )
    )
    (norm): LayerNorm(
      (norm): LayerNorm((768,), eps=1e-06, elementwise_affine=True)
    )
  )
  (custom_src_module): NormalizedEmbedding(
    (emb): Embedding(
      (Embedding): Embedding(5000, 768)
    )
  )
  (output_proj): ModuleList(
    (layers): ModuleList(
      (0): Linear(
        (w): Linear(in_features=768, out_features=768, bias=True)
      )
      (1): LayerNorm(
        (norm): LayerNorm((768,), eps=1e-06, elementwise_affine=True)
      )
      (2): Linear(
        (w): Linear(in_features=768, out_features=5000, bias=True)
      )
    )
  )
) loading from /scratch/flatala/speechbrain/transformer/results_fold_1/conformer_small/7775/save/lm.ckpt, the transferred parameters did not have parameters for the key: encoder.layers.4.self_att.att.in_proj_weight
2025-03-20 14:26:27,426 - speechbrain.utils.checkpoints - WARNING - During parameter transfer to TransformerLM(
  (positional_encoding): PositionalEncoding()
  (encoder): TransformerEncoder(
    (layers): ModuleList(
      (0-11): 12 x TransformerEncoderLayer(
        (self_att): MultiheadAttention(
          (att): MultiheadAttention(
            (out_proj): NonDynamicallyQuantizableLinear(in_features=768, out_features=768, bias=True)
          )
        )
        (pos_ffn): PositionalwiseFeedForward(
          (ffn): Sequential(
            (0): Linear(in_features=768, out_features=3072, bias=True)
            (1): GELU(approximate='none')
            (2): Dropout(p=0.0, inplace=False)
            (3): Linear(in_features=3072, out_features=768, bias=True)
          )
        )
        (norm1): LayerNorm(
          (norm): LayerNorm((768,), eps=1e-06, elementwise_affine=True)
        )
        (norm2): LayerNorm(
          (norm): LayerNorm((768,), eps=1e-06, elementwise_affine=True)
        )
        (dropout1): Dropout(p=0.0, inplace=False)
        (dropout2): Dropout(p=0.0, inplace=False)
      )
    )
    (norm): LayerNorm(
      (norm): LayerNorm((768,), eps=1e-06, elementwise_affine=True)
    )
  )
  (custom_src_module): NormalizedEmbedding(
    (emb): Embedding(
      (Embedding): Embedding(5000, 768)
    )
  )
  (output_proj): ModuleList(
    (layers): ModuleList(
      (0): Linear(
        (w): Linear(in_features=768, out_features=768, bias=True)
      )
      (1): LayerNorm(
        (norm): LayerNorm((768,), eps=1e-06, elementwise_affine=True)
      )
      (2): Linear(
        (w): Linear(in_features=768, out_features=5000, bias=True)
      )
    )
  )
) loading from /scratch/flatala/speechbrain/transformer/results_fold_1/conformer_small/7775/save/lm.ckpt, the transferred parameters did not have parameters for the key: encoder.layers.4.self_att.att.in_proj_bias
2025-03-20 14:26:27,426 - speechbrain.utils.checkpoints - WARNING - During parameter transfer to TransformerLM(
  (positional_encoding): PositionalEncoding()
  (encoder): TransformerEncoder(
    (layers): ModuleList(
      (0-11): 12 x TransformerEncoderLayer(
        (self_att): MultiheadAttention(
          (att): MultiheadAttention(
            (out_proj): NonDynamicallyQuantizableLinear(in_features=768, out_features=768, bias=True)
          )
        )
        (pos_ffn): PositionalwiseFeedForward(
          (ffn): Sequential(
            (0): Linear(in_features=768, out_features=3072, bias=True)
            (1): GELU(approximate='none')
            (2): Dropout(p=0.0, inplace=False)
            (3): Linear(in_features=3072, out_features=768, bias=True)
          )
        )
        (norm1): LayerNorm(
          (norm): LayerNorm((768,), eps=1e-06, elementwise_affine=True)
        )
        (norm2): LayerNorm(
          (norm): LayerNorm((768,), eps=1e-06, elementwise_affine=True)
        )
        (dropout1): Dropout(p=0.0, inplace=False)
        (dropout2): Dropout(p=0.0, inplace=False)
      )
    )
    (norm): LayerNorm(
      (norm): LayerNorm((768,), eps=1e-06, elementwise_affine=True)
    )
  )
  (custom_src_module): NormalizedEmbedding(
    (emb): Embedding(
      (Embedding): Embedding(5000, 768)
    )
  )
  (output_proj): ModuleList(
    (layers): ModuleList(
      (0): Linear(
        (w): Linear(in_features=768, out_features=768, bias=True)
      )
      (1): LayerNorm(
        (norm): LayerNorm((768,), eps=1e-06, elementwise_affine=True)
      )
      (2): Linear(
        (w): Linear(in_features=768, out_features=5000, bias=True)
      )
    )
  )
) loading from /scratch/flatala/speechbrain/transformer/results_fold_1/conformer_small/7775/save/lm.ckpt, the transferred parameters did not have parameters for the key: encoder.layers.4.self_att.att.out_proj.weight
2025-03-20 14:26:27,427 - speechbrain.utils.checkpoints - WARNING - During parameter transfer to TransformerLM(
  (positional_encoding): PositionalEncoding()
  (encoder): TransformerEncoder(
    (layers): ModuleList(
      (0-11): 12 x TransformerEncoderLayer(
        (self_att): MultiheadAttention(
          (att): MultiheadAttention(
            (out_proj): NonDynamicallyQuantizableLinear(in_features=768, out_features=768, bias=True)
          )
        )
        (pos_ffn): PositionalwiseFeedForward(
          (ffn): Sequential(
            (0): Linear(in_features=768, out_features=3072, bias=True)
            (1): GELU(approximate='none')
            (2): Dropout(p=0.0, inplace=False)
            (3): Linear(in_features=3072, out_features=768, bias=True)
          )
        )
        (norm1): LayerNorm(
          (norm): LayerNorm((768,), eps=1e-06, elementwise_affine=True)
        )
        (norm2): LayerNorm(
          (norm): LayerNorm((768,), eps=1e-06, elementwise_affine=True)
        )
        (dropout1): Dropout(p=0.0, inplace=False)
        (dropout2): Dropout(p=0.0, inplace=False)
      )
    )
    (norm): LayerNorm(
      (norm): LayerNorm((768,), eps=1e-06, elementwise_affine=True)
    )
  )
  (custom_src_module): NormalizedEmbedding(
    (emb): Embedding(
      (Embedding): Embedding(5000, 768)
    )
  )
  (output_proj): ModuleList(
    (layers): ModuleList(
      (0): Linear(
        (w): Linear(in_features=768, out_features=768, bias=True)
      )
      (1): LayerNorm(
        (norm): LayerNorm((768,), eps=1e-06, elementwise_affine=True)
      )
      (2): Linear(
        (w): Linear(in_features=768, out_features=5000, bias=True)
      )
    )
  )
) loading from /scratch/flatala/speechbrain/transformer/results_fold_1/conformer_small/7775/save/lm.ckpt, the transferred parameters did not have parameters for the key: encoder.layers.4.self_att.att.out_proj.bias
2025-03-20 14:26:27,427 - speechbrain.utils.checkpoints - WARNING - During parameter transfer to TransformerLM(
  (positional_encoding): PositionalEncoding()
  (encoder): TransformerEncoder(
    (layers): ModuleList(
      (0-11): 12 x TransformerEncoderLayer(
        (self_att): MultiheadAttention(
          (att): MultiheadAttention(
            (out_proj): NonDynamicallyQuantizableLinear(in_features=768, out_features=768, bias=True)
          )
        )
        (pos_ffn): PositionalwiseFeedForward(
          (ffn): Sequential(
            (0): Linear(in_features=768, out_features=3072, bias=True)
            (1): GELU(approximate='none')
            (2): Dropout(p=0.0, inplace=False)
            (3): Linear(in_features=3072, out_features=768, bias=True)
          )
        )
        (norm1): LayerNorm(
          (norm): LayerNorm((768,), eps=1e-06, elementwise_affine=True)
        )
        (norm2): LayerNorm(
          (norm): LayerNorm((768,), eps=1e-06, elementwise_affine=True)
        )
        (dropout1): Dropout(p=0.0, inplace=False)
        (dropout2): Dropout(p=0.0, inplace=False)
      )
    )
    (norm): LayerNorm(
      (norm): LayerNorm((768,), eps=1e-06, elementwise_affine=True)
    )
  )
  (custom_src_module): NormalizedEmbedding(
    (emb): Embedding(
      (Embedding): Embedding(5000, 768)
    )
  )
  (output_proj): ModuleList(
    (layers): ModuleList(
      (0): Linear(
        (w): Linear(in_features=768, out_features=768, bias=True)
      )
      (1): LayerNorm(
        (norm): LayerNorm((768,), eps=1e-06, elementwise_affine=True)
      )
      (2): Linear(
        (w): Linear(in_features=768, out_features=5000, bias=True)
      )
    )
  )
) loading from /scratch/flatala/speechbrain/transformer/results_fold_1/conformer_small/7775/save/lm.ckpt, the transferred parameters did not have parameters for the key: encoder.layers.4.pos_ffn.ffn.0.weight
2025-03-20 14:26:27,428 - speechbrain.utils.checkpoints - WARNING - During parameter transfer to TransformerLM(
  (positional_encoding): PositionalEncoding()
  (encoder): TransformerEncoder(
    (layers): ModuleList(
      (0-11): 12 x TransformerEncoderLayer(
        (self_att): MultiheadAttention(
          (att): MultiheadAttention(
            (out_proj): NonDynamicallyQuantizableLinear(in_features=768, out_features=768, bias=True)
          )
        )
        (pos_ffn): PositionalwiseFeedForward(
          (ffn): Sequential(
            (0): Linear(in_features=768, out_features=3072, bias=True)
            (1): GELU(approximate='none')
            (2): Dropout(p=0.0, inplace=False)
            (3): Linear(in_features=3072, out_features=768, bias=True)
          )
        )
        (norm1): LayerNorm(
          (norm): LayerNorm((768,), eps=1e-06, elementwise_affine=True)
        )
        (norm2): LayerNorm(
          (norm): LayerNorm((768,), eps=1e-06, elementwise_affine=True)
        )
        (dropout1): Dropout(p=0.0, inplace=False)
        (dropout2): Dropout(p=0.0, inplace=False)
      )
    )
    (norm): LayerNorm(
      (norm): LayerNorm((768,), eps=1e-06, elementwise_affine=True)
    )
  )
  (custom_src_module): NormalizedEmbedding(
    (emb): Embedding(
      (Embedding): Embedding(5000, 768)
    )
  )
  (output_proj): ModuleList(
    (layers): ModuleList(
      (0): Linear(
        (w): Linear(in_features=768, out_features=768, bias=True)
      )
      (1): LayerNorm(
        (norm): LayerNorm((768,), eps=1e-06, elementwise_affine=True)
      )
      (2): Linear(
        (w): Linear(in_features=768, out_features=5000, bias=True)
      )
    )
  )
) loading from /scratch/flatala/speechbrain/transformer/results_fold_1/conformer_small/7775/save/lm.ckpt, the transferred parameters did not have parameters for the key: encoder.layers.4.pos_ffn.ffn.0.bias
2025-03-20 14:26:27,429 - speechbrain.utils.checkpoints - WARNING - During parameter transfer to TransformerLM(
  (positional_encoding): PositionalEncoding()
  (encoder): TransformerEncoder(
    (layers): ModuleList(
      (0-11): 12 x TransformerEncoderLayer(
        (self_att): MultiheadAttention(
          (att): MultiheadAttention(
            (out_proj): NonDynamicallyQuantizableLinear(in_features=768, out_features=768, bias=True)
          )
        )
        (pos_ffn): PositionalwiseFeedForward(
          (ffn): Sequential(
            (0): Linear(in_features=768, out_features=3072, bias=True)
            (1): GELU(approximate='none')
            (2): Dropout(p=0.0, inplace=False)
            (3): Linear(in_features=3072, out_features=768, bias=True)
          )
        )
        (norm1): LayerNorm(
          (norm): LayerNorm((768,), eps=1e-06, elementwise_affine=True)
        )
        (norm2): LayerNorm(
          (norm): LayerNorm((768,), eps=1e-06, elementwise_affine=True)
        )
        (dropout1): Dropout(p=0.0, inplace=False)
        (dropout2): Dropout(p=0.0, inplace=False)
      )
    )
    (norm): LayerNorm(
      (norm): LayerNorm((768,), eps=1e-06, elementwise_affine=True)
    )
  )
  (custom_src_module): NormalizedEmbedding(
    (emb): Embedding(
      (Embedding): Embedding(5000, 768)
    )
  )
  (output_proj): ModuleList(
    (layers): ModuleList(
      (0): Linear(
        (w): Linear(in_features=768, out_features=768, bias=True)
      )
      (1): LayerNorm(
        (norm): LayerNorm((768,), eps=1e-06, elementwise_affine=True)
      )
      (2): Linear(
        (w): Linear(in_features=768, out_features=5000, bias=True)
      )
    )
  )
) loading from /scratch/flatala/speechbrain/transformer/results_fold_1/conformer_small/7775/save/lm.ckpt, the transferred parameters did not have parameters for the key: encoder.layers.4.pos_ffn.ffn.3.weight
2025-03-20 14:26:27,429 - speechbrain.utils.checkpoints - WARNING - During parameter transfer to TransformerLM(
  (positional_encoding): PositionalEncoding()
  (encoder): TransformerEncoder(
    (layers): ModuleList(
      (0-11): 12 x TransformerEncoderLayer(
        (self_att): MultiheadAttention(
          (att): MultiheadAttention(
            (out_proj): NonDynamicallyQuantizableLinear(in_features=768, out_features=768, bias=True)
          )
        )
        (pos_ffn): PositionalwiseFeedForward(
          (ffn): Sequential(
            (0): Linear(in_features=768, out_features=3072, bias=True)
            (1): GELU(approximate='none')
            (2): Dropout(p=0.0, inplace=False)
            (3): Linear(in_features=3072, out_features=768, bias=True)
          )
        )
        (norm1): LayerNorm(
          (norm): LayerNorm((768,), eps=1e-06, elementwise_affine=True)
        )
        (norm2): LayerNorm(
          (norm): LayerNorm((768,), eps=1e-06, elementwise_affine=True)
        )
        (dropout1): Dropout(p=0.0, inplace=False)
        (dropout2): Dropout(p=0.0, inplace=False)
      )
    )
    (norm): LayerNorm(
      (norm): LayerNorm((768,), eps=1e-06, elementwise_affine=True)
    )
  )
  (custom_src_module): NormalizedEmbedding(
    (emb): Embedding(
      (Embedding): Embedding(5000, 768)
    )
  )
  (output_proj): ModuleList(
    (layers): ModuleList(
      (0): Linear(
        (w): Linear(in_features=768, out_features=768, bias=True)
      )
      (1): LayerNorm(
        (norm): LayerNorm((768,), eps=1e-06, elementwise_affine=True)
      )
      (2): Linear(
        (w): Linear(in_features=768, out_features=5000, bias=True)
      )
    )
  )
) loading from /scratch/flatala/speechbrain/transformer/results_fold_1/conformer_small/7775/save/lm.ckpt, the transferred parameters did not have parameters for the key: encoder.layers.4.pos_ffn.ffn.3.bias
2025-03-20 14:26:27,430 - speechbrain.utils.checkpoints - WARNING - During parameter transfer to TransformerLM(
  (positional_encoding): PositionalEncoding()
  (encoder): TransformerEncoder(
    (layers): ModuleList(
      (0-11): 12 x TransformerEncoderLayer(
        (self_att): MultiheadAttention(
          (att): MultiheadAttention(
            (out_proj): NonDynamicallyQuantizableLinear(in_features=768, out_features=768, bias=True)
          )
        )
        (pos_ffn): PositionalwiseFeedForward(
          (ffn): Sequential(
            (0): Linear(in_features=768, out_features=3072, bias=True)
            (1): GELU(approximate='none')
            (2): Dropout(p=0.0, inplace=False)
            (3): Linear(in_features=3072, out_features=768, bias=True)
          )
        )
        (norm1): LayerNorm(
          (norm): LayerNorm((768,), eps=1e-06, elementwise_affine=True)
        )
        (norm2): LayerNorm(
          (norm): LayerNorm((768,), eps=1e-06, elementwise_affine=True)
        )
        (dropout1): Dropout(p=0.0, inplace=False)
        (dropout2): Dropout(p=0.0, inplace=False)
      )
    )
    (norm): LayerNorm(
      (norm): LayerNorm((768,), eps=1e-06, elementwise_affine=True)
    )
  )
  (custom_src_module): NormalizedEmbedding(
    (emb): Embedding(
      (Embedding): Embedding(5000, 768)
    )
  )
  (output_proj): ModuleList(
    (layers): ModuleList(
      (0): Linear(
        (w): Linear(in_features=768, out_features=768, bias=True)
      )
      (1): LayerNorm(
        (norm): LayerNorm((768,), eps=1e-06, elementwise_affine=True)
      )
      (2): Linear(
        (w): Linear(in_features=768, out_features=5000, bias=True)
      )
    )
  )
) loading from /scratch/flatala/speechbrain/transformer/results_fold_1/conformer_small/7775/save/lm.ckpt, the transferred parameters did not have parameters for the key: encoder.layers.4.norm1.norm.weight
2025-03-20 14:26:27,430 - speechbrain.utils.checkpoints - WARNING - During parameter transfer to TransformerLM(
  (positional_encoding): PositionalEncoding()
  (encoder): TransformerEncoder(
    (layers): ModuleList(
      (0-11): 12 x TransformerEncoderLayer(
        (self_att): MultiheadAttention(
          (att): MultiheadAttention(
            (out_proj): NonDynamicallyQuantizableLinear(in_features=768, out_features=768, bias=True)
          )
        )
        (pos_ffn): PositionalwiseFeedForward(
          (ffn): Sequential(
            (0): Linear(in_features=768, out_features=3072, bias=True)
            (1): GELU(approximate='none')
            (2): Dropout(p=0.0, inplace=False)
            (3): Linear(in_features=3072, out_features=768, bias=True)
          )
        )
        (norm1): LayerNorm(
          (norm): LayerNorm((768,), eps=1e-06, elementwise_affine=True)
        )
        (norm2): LayerNorm(
          (norm): LayerNorm((768,), eps=1e-06, elementwise_affine=True)
        )
        (dropout1): Dropout(p=0.0, inplace=False)
        (dropout2): Dropout(p=0.0, inplace=False)
      )
    )
    (norm): LayerNorm(
      (norm): LayerNorm((768,), eps=1e-06, elementwise_affine=True)
    )
  )
  (custom_src_module): NormalizedEmbedding(
    (emb): Embedding(
      (Embedding): Embedding(5000, 768)
    )
  )
  (output_proj): ModuleList(
    (layers): ModuleList(
      (0): Linear(
        (w): Linear(in_features=768, out_features=768, bias=True)
      )
      (1): LayerNorm(
        (norm): LayerNorm((768,), eps=1e-06, elementwise_affine=True)
      )
      (2): Linear(
        (w): Linear(in_features=768, out_features=5000, bias=True)
      )
    )
  )
) loading from /scratch/flatala/speechbrain/transformer/results_fold_1/conformer_small/7775/save/lm.ckpt, the transferred parameters did not have parameters for the key: encoder.layers.4.norm1.norm.bias
2025-03-20 14:26:27,431 - speechbrain.utils.checkpoints - WARNING - During parameter transfer to TransformerLM(
  (positional_encoding): PositionalEncoding()
  (encoder): TransformerEncoder(
    (layers): ModuleList(
      (0-11): 12 x TransformerEncoderLayer(
        (self_att): MultiheadAttention(
          (att): MultiheadAttention(
            (out_proj): NonDynamicallyQuantizableLinear(in_features=768, out_features=768, bias=True)
          )
        )
        (pos_ffn): PositionalwiseFeedForward(
          (ffn): Sequential(
            (0): Linear(in_features=768, out_features=3072, bias=True)
            (1): GELU(approximate='none')
            (2): Dropout(p=0.0, inplace=False)
            (3): Linear(in_features=3072, out_features=768, bias=True)
          )
        )
        (norm1): LayerNorm(
          (norm): LayerNorm((768,), eps=1e-06, elementwise_affine=True)
        )
        (norm2): LayerNorm(
          (norm): LayerNorm((768,), eps=1e-06, elementwise_affine=True)
        )
        (dropout1): Dropout(p=0.0, inplace=False)
        (dropout2): Dropout(p=0.0, inplace=False)
      )
    )
    (norm): LayerNorm(
      (norm): LayerNorm((768,), eps=1e-06, elementwise_affine=True)
    )
  )
  (custom_src_module): NormalizedEmbedding(
    (emb): Embedding(
      (Embedding): Embedding(5000, 768)
    )
  )
  (output_proj): ModuleList(
    (layers): ModuleList(
      (0): Linear(
        (w): Linear(in_features=768, out_features=768, bias=True)
      )
      (1): LayerNorm(
        (norm): LayerNorm((768,), eps=1e-06, elementwise_affine=True)
      )
      (2): Linear(
        (w): Linear(in_features=768, out_features=5000, bias=True)
      )
    )
  )
) loading from /scratch/flatala/speechbrain/transformer/results_fold_1/conformer_small/7775/save/lm.ckpt, the transferred parameters did not have parameters for the key: encoder.layers.4.norm2.norm.weight
2025-03-20 14:26:27,431 - speechbrain.utils.checkpoints - WARNING - During parameter transfer to TransformerLM(
  (positional_encoding): PositionalEncoding()
  (encoder): TransformerEncoder(
    (layers): ModuleList(
      (0-11): 12 x TransformerEncoderLayer(
        (self_att): MultiheadAttention(
          (att): MultiheadAttention(
            (out_proj): NonDynamicallyQuantizableLinear(in_features=768, out_features=768, bias=True)
          )
        )
        (pos_ffn): PositionalwiseFeedForward(
          (ffn): Sequential(
            (0): Linear(in_features=768, out_features=3072, bias=True)
            (1): GELU(approximate='none')
            (2): Dropout(p=0.0, inplace=False)
            (3): Linear(in_features=3072, out_features=768, bias=True)
          )
        )
        (norm1): LayerNorm(
          (norm): LayerNorm((768,), eps=1e-06, elementwise_affine=True)
        )
        (norm2): LayerNorm(
          (norm): LayerNorm((768,), eps=1e-06, elementwise_affine=True)
        )
        (dropout1): Dropout(p=0.0, inplace=False)
        (dropout2): Dropout(p=0.0, inplace=False)
      )
    )
    (norm): LayerNorm(
      (norm): LayerNorm((768,), eps=1e-06, elementwise_affine=True)
    )
  )
  (custom_src_module): NormalizedEmbedding(
    (emb): Embedding(
      (Embedding): Embedding(5000, 768)
    )
  )
  (output_proj): ModuleList(
    (layers): ModuleList(
      (0): Linear(
        (w): Linear(in_features=768, out_features=768, bias=True)
      )
      (1): LayerNorm(
        (norm): LayerNorm((768,), eps=1e-06, elementwise_affine=True)
      )
      (2): Linear(
        (w): Linear(in_features=768, out_features=5000, bias=True)
      )
    )
  )
) loading from /scratch/flatala/speechbrain/transformer/results_fold_1/conformer_small/7775/save/lm.ckpt, the transferred parameters did not have parameters for the key: encoder.layers.4.norm2.norm.bias
2025-03-20 14:26:27,432 - speechbrain.utils.checkpoints - WARNING - During parameter transfer to TransformerLM(
  (positional_encoding): PositionalEncoding()
  (encoder): TransformerEncoder(
    (layers): ModuleList(
      (0-11): 12 x TransformerEncoderLayer(
        (self_att): MultiheadAttention(
          (att): MultiheadAttention(
            (out_proj): NonDynamicallyQuantizableLinear(in_features=768, out_features=768, bias=True)
          )
        )
        (pos_ffn): PositionalwiseFeedForward(
          (ffn): Sequential(
            (0): Linear(in_features=768, out_features=3072, bias=True)
            (1): GELU(approximate='none')
            (2): Dropout(p=0.0, inplace=False)
            (3): Linear(in_features=3072, out_features=768, bias=True)
          )
        )
        (norm1): LayerNorm(
          (norm): LayerNorm((768,), eps=1e-06, elementwise_affine=True)
        )
        (norm2): LayerNorm(
          (norm): LayerNorm((768,), eps=1e-06, elementwise_affine=True)
        )
        (dropout1): Dropout(p=0.0, inplace=False)
        (dropout2): Dropout(p=0.0, inplace=False)
      )
    )
    (norm): LayerNorm(
      (norm): LayerNorm((768,), eps=1e-06, elementwise_affine=True)
    )
  )
  (custom_src_module): NormalizedEmbedding(
    (emb): Embedding(
      (Embedding): Embedding(5000, 768)
    )
  )
  (output_proj): ModuleList(
    (layers): ModuleList(
      (0): Linear(
        (w): Linear(in_features=768, out_features=768, bias=True)
      )
      (1): LayerNorm(
        (norm): LayerNorm((768,), eps=1e-06, elementwise_affine=True)
      )
      (2): Linear(
        (w): Linear(in_features=768, out_features=5000, bias=True)
      )
    )
  )
) loading from /scratch/flatala/speechbrain/transformer/results_fold_1/conformer_small/7775/save/lm.ckpt, the transferred parameters did not have parameters for the key: encoder.layers.5.self_att.att.in_proj_weight
2025-03-20 14:26:27,432 - speechbrain.utils.checkpoints - WARNING - During parameter transfer to TransformerLM(
  (positional_encoding): PositionalEncoding()
  (encoder): TransformerEncoder(
    (layers): ModuleList(
      (0-11): 12 x TransformerEncoderLayer(
        (self_att): MultiheadAttention(
          (att): MultiheadAttention(
            (out_proj): NonDynamicallyQuantizableLinear(in_features=768, out_features=768, bias=True)
          )
        )
        (pos_ffn): PositionalwiseFeedForward(
          (ffn): Sequential(
            (0): Linear(in_features=768, out_features=3072, bias=True)
            (1): GELU(approximate='none')
            (2): Dropout(p=0.0, inplace=False)
            (3): Linear(in_features=3072, out_features=768, bias=True)
          )
        )
        (norm1): LayerNorm(
          (norm): LayerNorm((768,), eps=1e-06, elementwise_affine=True)
        )
        (norm2): LayerNorm(
          (norm): LayerNorm((768,), eps=1e-06, elementwise_affine=True)
        )
        (dropout1): Dropout(p=0.0, inplace=False)
        (dropout2): Dropout(p=0.0, inplace=False)
      )
    )
    (norm): LayerNorm(
      (norm): LayerNorm((768,), eps=1e-06, elementwise_affine=True)
    )
  )
  (custom_src_module): NormalizedEmbedding(
    (emb): Embedding(
      (Embedding): Embedding(5000, 768)
    )
  )
  (output_proj): ModuleList(
    (layers): ModuleList(
      (0): Linear(
        (w): Linear(in_features=768, out_features=768, bias=True)
      )
      (1): LayerNorm(
        (norm): LayerNorm((768,), eps=1e-06, elementwise_affine=True)
      )
      (2): Linear(
        (w): Linear(in_features=768, out_features=5000, bias=True)
      )
    )
  )
) loading from /scratch/flatala/speechbrain/transformer/results_fold_1/conformer_small/7775/save/lm.ckpt, the transferred parameters did not have parameters for the key: encoder.layers.5.self_att.att.in_proj_bias
2025-03-20 14:26:27,433 - speechbrain.utils.checkpoints - WARNING - During parameter transfer to TransformerLM(
  (positional_encoding): PositionalEncoding()
  (encoder): TransformerEncoder(
    (layers): ModuleList(
      (0-11): 12 x TransformerEncoderLayer(
        (self_att): MultiheadAttention(
          (att): MultiheadAttention(
            (out_proj): NonDynamicallyQuantizableLinear(in_features=768, out_features=768, bias=True)
          )
        )
        (pos_ffn): PositionalwiseFeedForward(
          (ffn): Sequential(
            (0): Linear(in_features=768, out_features=3072, bias=True)
            (1): GELU(approximate='none')
            (2): Dropout(p=0.0, inplace=False)
            (3): Linear(in_features=3072, out_features=768, bias=True)
          )
        )
        (norm1): LayerNorm(
          (norm): LayerNorm((768,), eps=1e-06, elementwise_affine=True)
        )
        (norm2): LayerNorm(
          (norm): LayerNorm((768,), eps=1e-06, elementwise_affine=True)
        )
        (dropout1): Dropout(p=0.0, inplace=False)
        (dropout2): Dropout(p=0.0, inplace=False)
      )
    )
    (norm): LayerNorm(
      (norm): LayerNorm((768,), eps=1e-06, elementwise_affine=True)
    )
  )
  (custom_src_module): NormalizedEmbedding(
    (emb): Embedding(
      (Embedding): Embedding(5000, 768)
    )
  )
  (output_proj): ModuleList(
    (layers): ModuleList(
      (0): Linear(
        (w): Linear(in_features=768, out_features=768, bias=True)
      )
      (1): LayerNorm(
        (norm): LayerNorm((768,), eps=1e-06, elementwise_affine=True)
      )
      (2): Linear(
        (w): Linear(in_features=768, out_features=5000, bias=True)
      )
    )
  )
) loading from /scratch/flatala/speechbrain/transformer/results_fold_1/conformer_small/7775/save/lm.ckpt, the transferred parameters did not have parameters for the key: encoder.layers.5.self_att.att.out_proj.weight
2025-03-20 14:26:27,434 - speechbrain.utils.checkpoints - WARNING - During parameter transfer to TransformerLM(
  (positional_encoding): PositionalEncoding()
  (encoder): TransformerEncoder(
    (layers): ModuleList(
      (0-11): 12 x TransformerEncoderLayer(
        (self_att): MultiheadAttention(
          (att): MultiheadAttention(
            (out_proj): NonDynamicallyQuantizableLinear(in_features=768, out_features=768, bias=True)
          )
        )
        (pos_ffn): PositionalwiseFeedForward(
          (ffn): Sequential(
            (0): Linear(in_features=768, out_features=3072, bias=True)
            (1): GELU(approximate='none')
            (2): Dropout(p=0.0, inplace=False)
            (3): Linear(in_features=3072, out_features=768, bias=True)
          )
        )
        (norm1): LayerNorm(
          (norm): LayerNorm((768,), eps=1e-06, elementwise_affine=True)
        )
        (norm2): LayerNorm(
          (norm): LayerNorm((768,), eps=1e-06, elementwise_affine=True)
        )
        (dropout1): Dropout(p=0.0, inplace=False)
        (dropout2): Dropout(p=0.0, inplace=False)
      )
    )
    (norm): LayerNorm(
      (norm): LayerNorm((768,), eps=1e-06, elementwise_affine=True)
    )
  )
  (custom_src_module): NormalizedEmbedding(
    (emb): Embedding(
      (Embedding): Embedding(5000, 768)
    )
  )
  (output_proj): ModuleList(
    (layers): ModuleList(
      (0): Linear(
        (w): Linear(in_features=768, out_features=768, bias=True)
      )
      (1): LayerNorm(
        (norm): LayerNorm((768,), eps=1e-06, elementwise_affine=True)
      )
      (2): Linear(
        (w): Linear(in_features=768, out_features=5000, bias=True)
      )
    )
  )
) loading from /scratch/flatala/speechbrain/transformer/results_fold_1/conformer_small/7775/save/lm.ckpt, the transferred parameters did not have parameters for the key: encoder.layers.5.self_att.att.out_proj.bias
2025-03-20 14:26:27,434 - speechbrain.utils.checkpoints - WARNING - During parameter transfer to TransformerLM(
  (positional_encoding): PositionalEncoding()
  (encoder): TransformerEncoder(
    (layers): ModuleList(
      (0-11): 12 x TransformerEncoderLayer(
        (self_att): MultiheadAttention(
          (att): MultiheadAttention(
            (out_proj): NonDynamicallyQuantizableLinear(in_features=768, out_features=768, bias=True)
          )
        )
        (pos_ffn): PositionalwiseFeedForward(
          (ffn): Sequential(
            (0): Linear(in_features=768, out_features=3072, bias=True)
            (1): GELU(approximate='none')
            (2): Dropout(p=0.0, inplace=False)
            (3): Linear(in_features=3072, out_features=768, bias=True)
          )
        )
        (norm1): LayerNorm(
          (norm): LayerNorm((768,), eps=1e-06, elementwise_affine=True)
        )
        (norm2): LayerNorm(
          (norm): LayerNorm((768,), eps=1e-06, elementwise_affine=True)
        )
        (dropout1): Dropout(p=0.0, inplace=False)
        (dropout2): Dropout(p=0.0, inplace=False)
      )
    )
    (norm): LayerNorm(
      (norm): LayerNorm((768,), eps=1e-06, elementwise_affine=True)
    )
  )
  (custom_src_module): NormalizedEmbedding(
    (emb): Embedding(
      (Embedding): Embedding(5000, 768)
    )
  )
  (output_proj): ModuleList(
    (layers): ModuleList(
      (0): Linear(
        (w): Linear(in_features=768, out_features=768, bias=True)
      )
      (1): LayerNorm(
        (norm): LayerNorm((768,), eps=1e-06, elementwise_affine=True)
      )
      (2): Linear(
        (w): Linear(in_features=768, out_features=5000, bias=True)
      )
    )
  )
) loading from /scratch/flatala/speechbrain/transformer/results_fold_1/conformer_small/7775/save/lm.ckpt, the transferred parameters did not have parameters for the key: encoder.layers.5.pos_ffn.ffn.0.weight
2025-03-20 14:26:27,435 - speechbrain.utils.checkpoints - WARNING - During parameter transfer to TransformerLM(
  (positional_encoding): PositionalEncoding()
  (encoder): TransformerEncoder(
    (layers): ModuleList(
      (0-11): 12 x TransformerEncoderLayer(
        (self_att): MultiheadAttention(
          (att): MultiheadAttention(
            (out_proj): NonDynamicallyQuantizableLinear(in_features=768, out_features=768, bias=True)
          )
        )
        (pos_ffn): PositionalwiseFeedForward(
          (ffn): Sequential(
            (0): Linear(in_features=768, out_features=3072, bias=True)
            (1): GELU(approximate='none')
            (2): Dropout(p=0.0, inplace=False)
            (3): Linear(in_features=3072, out_features=768, bias=True)
          )
        )
        (norm1): LayerNorm(
          (norm): LayerNorm((768,), eps=1e-06, elementwise_affine=True)
        )
        (norm2): LayerNorm(
          (norm): LayerNorm((768,), eps=1e-06, elementwise_affine=True)
        )
        (dropout1): Dropout(p=0.0, inplace=False)
        (dropout2): Dropout(p=0.0, inplace=False)
      )
    )
    (norm): LayerNorm(
      (norm): LayerNorm((768,), eps=1e-06, elementwise_affine=True)
    )
  )
  (custom_src_module): NormalizedEmbedding(
    (emb): Embedding(
      (Embedding): Embedding(5000, 768)
    )
  )
  (output_proj): ModuleList(
    (layers): ModuleList(
      (0): Linear(
        (w): Linear(in_features=768, out_features=768, bias=True)
      )
      (1): LayerNorm(
        (norm): LayerNorm((768,), eps=1e-06, elementwise_affine=True)
      )
      (2): Linear(
        (w): Linear(in_features=768, out_features=5000, bias=True)
      )
    )
  )
) loading from /scratch/flatala/speechbrain/transformer/results_fold_1/conformer_small/7775/save/lm.ckpt, the transferred parameters did not have parameters for the key: encoder.layers.5.pos_ffn.ffn.0.bias
2025-03-20 14:26:27,435 - speechbrain.utils.checkpoints - WARNING - During parameter transfer to TransformerLM(
  (positional_encoding): PositionalEncoding()
  (encoder): TransformerEncoder(
    (layers): ModuleList(
      (0-11): 12 x TransformerEncoderLayer(
        (self_att): MultiheadAttention(
          (att): MultiheadAttention(
            (out_proj): NonDynamicallyQuantizableLinear(in_features=768, out_features=768, bias=True)
          )
        )
        (pos_ffn): PositionalwiseFeedForward(
          (ffn): Sequential(
            (0): Linear(in_features=768, out_features=3072, bias=True)
            (1): GELU(approximate='none')
            (2): Dropout(p=0.0, inplace=False)
            (3): Linear(in_features=3072, out_features=768, bias=True)
          )
        )
        (norm1): LayerNorm(
          (norm): LayerNorm((768,), eps=1e-06, elementwise_affine=True)
        )
        (norm2): LayerNorm(
          (norm): LayerNorm((768,), eps=1e-06, elementwise_affine=True)
        )
        (dropout1): Dropout(p=0.0, inplace=False)
        (dropout2): Dropout(p=0.0, inplace=False)
      )
    )
    (norm): LayerNorm(
      (norm): LayerNorm((768,), eps=1e-06, elementwise_affine=True)
    )
  )
  (custom_src_module): NormalizedEmbedding(
    (emb): Embedding(
      (Embedding): Embedding(5000, 768)
    )
  )
  (output_proj): ModuleList(
    (layers): ModuleList(
      (0): Linear(
        (w): Linear(in_features=768, out_features=768, bias=True)
      )
      (1): LayerNorm(
        (norm): LayerNorm((768,), eps=1e-06, elementwise_affine=True)
      )
      (2): Linear(
        (w): Linear(in_features=768, out_features=5000, bias=True)
      )
    )
  )
) loading from /scratch/flatala/speechbrain/transformer/results_fold_1/conformer_small/7775/save/lm.ckpt, the transferred parameters did not have parameters for the key: encoder.layers.5.pos_ffn.ffn.3.weight
2025-03-20 14:26:27,436 - speechbrain.utils.checkpoints - WARNING - During parameter transfer to TransformerLM(
  (positional_encoding): PositionalEncoding()
  (encoder): TransformerEncoder(
    (layers): ModuleList(
      (0-11): 12 x TransformerEncoderLayer(
        (self_att): MultiheadAttention(
          (att): MultiheadAttention(
            (out_proj): NonDynamicallyQuantizableLinear(in_features=768, out_features=768, bias=True)
          )
        )
        (pos_ffn): PositionalwiseFeedForward(
          (ffn): Sequential(
            (0): Linear(in_features=768, out_features=3072, bias=True)
            (1): GELU(approximate='none')
            (2): Dropout(p=0.0, inplace=False)
            (3): Linear(in_features=3072, out_features=768, bias=True)
          )
        )
        (norm1): LayerNorm(
          (norm): LayerNorm((768,), eps=1e-06, elementwise_affine=True)
        )
        (norm2): LayerNorm(
          (norm): LayerNorm((768,), eps=1e-06, elementwise_affine=True)
        )
        (dropout1): Dropout(p=0.0, inplace=False)
        (dropout2): Dropout(p=0.0, inplace=False)
      )
    )
    (norm): LayerNorm(
      (norm): LayerNorm((768,), eps=1e-06, elementwise_affine=True)
    )
  )
  (custom_src_module): NormalizedEmbedding(
    (emb): Embedding(
      (Embedding): Embedding(5000, 768)
    )
  )
  (output_proj): ModuleList(
    (layers): ModuleList(
      (0): Linear(
        (w): Linear(in_features=768, out_features=768, bias=True)
      )
      (1): LayerNorm(
        (norm): LayerNorm((768,), eps=1e-06, elementwise_affine=True)
      )
      (2): Linear(
        (w): Linear(in_features=768, out_features=5000, bias=True)
      )
    )
  )
) loading from /scratch/flatala/speechbrain/transformer/results_fold_1/conformer_small/7775/save/lm.ckpt, the transferred parameters did not have parameters for the key: encoder.layers.5.pos_ffn.ffn.3.bias
2025-03-20 14:26:27,437 - speechbrain.utils.checkpoints - WARNING - During parameter transfer to TransformerLM(
  (positional_encoding): PositionalEncoding()
  (encoder): TransformerEncoder(
    (layers): ModuleList(
      (0-11): 12 x TransformerEncoderLayer(
        (self_att): MultiheadAttention(
          (att): MultiheadAttention(
            (out_proj): NonDynamicallyQuantizableLinear(in_features=768, out_features=768, bias=True)
          )
        )
        (pos_ffn): PositionalwiseFeedForward(
          (ffn): Sequential(
            (0): Linear(in_features=768, out_features=3072, bias=True)
            (1): GELU(approximate='none')
            (2): Dropout(p=0.0, inplace=False)
            (3): Linear(in_features=3072, out_features=768, bias=True)
          )
        )
        (norm1): LayerNorm(
          (norm): LayerNorm((768,), eps=1e-06, elementwise_affine=True)
        )
        (norm2): LayerNorm(
          (norm): LayerNorm((768,), eps=1e-06, elementwise_affine=True)
        )
        (dropout1): Dropout(p=0.0, inplace=False)
        (dropout2): Dropout(p=0.0, inplace=False)
      )
    )
    (norm): LayerNorm(
      (norm): LayerNorm((768,), eps=1e-06, elementwise_affine=True)
    )
  )
  (custom_src_module): NormalizedEmbedding(
    (emb): Embedding(
      (Embedding): Embedding(5000, 768)
    )
  )
  (output_proj): ModuleList(
    (layers): ModuleList(
      (0): Linear(
        (w): Linear(in_features=768, out_features=768, bias=True)
      )
      (1): LayerNorm(
        (norm): LayerNorm((768,), eps=1e-06, elementwise_affine=True)
      )
      (2): Linear(
        (w): Linear(in_features=768, out_features=5000, bias=True)
      )
    )
  )
) loading from /scratch/flatala/speechbrain/transformer/results_fold_1/conformer_small/7775/save/lm.ckpt, the transferred parameters did not have parameters for the key: encoder.layers.5.norm1.norm.weight
2025-03-20 14:26:27,437 - speechbrain.utils.checkpoints - WARNING - During parameter transfer to TransformerLM(
  (positional_encoding): PositionalEncoding()
  (encoder): TransformerEncoder(
    (layers): ModuleList(
      (0-11): 12 x TransformerEncoderLayer(
        (self_att): MultiheadAttention(
          (att): MultiheadAttention(
            (out_proj): NonDynamicallyQuantizableLinear(in_features=768, out_features=768, bias=True)
          )
        )
        (pos_ffn): PositionalwiseFeedForward(
          (ffn): Sequential(
            (0): Linear(in_features=768, out_features=3072, bias=True)
            (1): GELU(approximate='none')
            (2): Dropout(p=0.0, inplace=False)
            (3): Linear(in_features=3072, out_features=768, bias=True)
          )
        )
        (norm1): LayerNorm(
          (norm): LayerNorm((768,), eps=1e-06, elementwise_affine=True)
        )
        (norm2): LayerNorm(
          (norm): LayerNorm((768,), eps=1e-06, elementwise_affine=True)
        )
        (dropout1): Dropout(p=0.0, inplace=False)
        (dropout2): Dropout(p=0.0, inplace=False)
      )
    )
    (norm): LayerNorm(
      (norm): LayerNorm((768,), eps=1e-06, elementwise_affine=True)
    )
  )
  (custom_src_module): NormalizedEmbedding(
    (emb): Embedding(
      (Embedding): Embedding(5000, 768)
    )
  )
  (output_proj): ModuleList(
    (layers): ModuleList(
      (0): Linear(
        (w): Linear(in_features=768, out_features=768, bias=True)
      )
      (1): LayerNorm(
        (norm): LayerNorm((768,), eps=1e-06, elementwise_affine=True)
      )
      (2): Linear(
        (w): Linear(in_features=768, out_features=5000, bias=True)
      )
    )
  )
) loading from /scratch/flatala/speechbrain/transformer/results_fold_1/conformer_small/7775/save/lm.ckpt, the transferred parameters did not have parameters for the key: encoder.layers.5.norm1.norm.bias
2025-03-20 14:26:27,438 - speechbrain.utils.checkpoints - WARNING - During parameter transfer to TransformerLM(
  (positional_encoding): PositionalEncoding()
  (encoder): TransformerEncoder(
    (layers): ModuleList(
      (0-11): 12 x TransformerEncoderLayer(
        (self_att): MultiheadAttention(
          (att): MultiheadAttention(
            (out_proj): NonDynamicallyQuantizableLinear(in_features=768, out_features=768, bias=True)
          )
        )
        (pos_ffn): PositionalwiseFeedForward(
          (ffn): Sequential(
            (0): Linear(in_features=768, out_features=3072, bias=True)
            (1): GELU(approximate='none')
            (2): Dropout(p=0.0, inplace=False)
            (3): Linear(in_features=3072, out_features=768, bias=True)
          )
        )
        (norm1): LayerNorm(
          (norm): LayerNorm((768,), eps=1e-06, elementwise_affine=True)
        )
        (norm2): LayerNorm(
          (norm): LayerNorm((768,), eps=1e-06, elementwise_affine=True)
        )
        (dropout1): Dropout(p=0.0, inplace=False)
        (dropout2): Dropout(p=0.0, inplace=False)
      )
    )
    (norm): LayerNorm(
      (norm): LayerNorm((768,), eps=1e-06, elementwise_affine=True)
    )
  )
  (custom_src_module): NormalizedEmbedding(
    (emb): Embedding(
      (Embedding): Embedding(5000, 768)
    )
  )
  (output_proj): ModuleList(
    (layers): ModuleList(
      (0): Linear(
        (w): Linear(in_features=768, out_features=768, bias=True)
      )
      (1): LayerNorm(
        (norm): LayerNorm((768,), eps=1e-06, elementwise_affine=True)
      )
      (2): Linear(
        (w): Linear(in_features=768, out_features=5000, bias=True)
      )
    )
  )
) loading from /scratch/flatala/speechbrain/transformer/results_fold_1/conformer_small/7775/save/lm.ckpt, the transferred parameters did not have parameters for the key: encoder.layers.5.norm2.norm.weight
2025-03-20 14:26:27,439 - speechbrain.utils.checkpoints - WARNING - During parameter transfer to TransformerLM(
  (positional_encoding): PositionalEncoding()
  (encoder): TransformerEncoder(
    (layers): ModuleList(
      (0-11): 12 x TransformerEncoderLayer(
        (self_att): MultiheadAttention(
          (att): MultiheadAttention(
            (out_proj): NonDynamicallyQuantizableLinear(in_features=768, out_features=768, bias=True)
          )
        )
        (pos_ffn): PositionalwiseFeedForward(
          (ffn): Sequential(
            (0): Linear(in_features=768, out_features=3072, bias=True)
            (1): GELU(approximate='none')
            (2): Dropout(p=0.0, inplace=False)
            (3): Linear(in_features=3072, out_features=768, bias=True)
          )
        )
        (norm1): LayerNorm(
          (norm): LayerNorm((768,), eps=1e-06, elementwise_affine=True)
        )
        (norm2): LayerNorm(
          (norm): LayerNorm((768,), eps=1e-06, elementwise_affine=True)
        )
        (dropout1): Dropout(p=0.0, inplace=False)
        (dropout2): Dropout(p=0.0, inplace=False)
      )
    )
    (norm): LayerNorm(
      (norm): LayerNorm((768,), eps=1e-06, elementwise_affine=True)
    )
  )
  (custom_src_module): NormalizedEmbedding(
    (emb): Embedding(
      (Embedding): Embedding(5000, 768)
    )
  )
  (output_proj): ModuleList(
    (layers): ModuleList(
      (0): Linear(
        (w): Linear(in_features=768, out_features=768, bias=True)
      )
      (1): LayerNorm(
        (norm): LayerNorm((768,), eps=1e-06, elementwise_affine=True)
      )
      (2): Linear(
        (w): Linear(in_features=768, out_features=5000, bias=True)
      )
    )
  )
) loading from /scratch/flatala/speechbrain/transformer/results_fold_1/conformer_small/7775/save/lm.ckpt, the transferred parameters did not have parameters for the key: encoder.layers.5.norm2.norm.bias
2025-03-20 14:26:27,439 - speechbrain.utils.checkpoints - WARNING - During parameter transfer to TransformerLM(
  (positional_encoding): PositionalEncoding()
  (encoder): TransformerEncoder(
    (layers): ModuleList(
      (0-11): 12 x TransformerEncoderLayer(
        (self_att): MultiheadAttention(
          (att): MultiheadAttention(
            (out_proj): NonDynamicallyQuantizableLinear(in_features=768, out_features=768, bias=True)
          )
        )
        (pos_ffn): PositionalwiseFeedForward(
          (ffn): Sequential(
            (0): Linear(in_features=768, out_features=3072, bias=True)
            (1): GELU(approximate='none')
            (2): Dropout(p=0.0, inplace=False)
            (3): Linear(in_features=3072, out_features=768, bias=True)
          )
        )
        (norm1): LayerNorm(
          (norm): LayerNorm((768,), eps=1e-06, elementwise_affine=True)
        )
        (norm2): LayerNorm(
          (norm): LayerNorm((768,), eps=1e-06, elementwise_affine=True)
        )
        (dropout1): Dropout(p=0.0, inplace=False)
        (dropout2): Dropout(p=0.0, inplace=False)
      )
    )
    (norm): LayerNorm(
      (norm): LayerNorm((768,), eps=1e-06, elementwise_affine=True)
    )
  )
  (custom_src_module): NormalizedEmbedding(
    (emb): Embedding(
      (Embedding): Embedding(5000, 768)
    )
  )
  (output_proj): ModuleList(
    (layers): ModuleList(
      (0): Linear(
        (w): Linear(in_features=768, out_features=768, bias=True)
      )
      (1): LayerNorm(
        (norm): LayerNorm((768,), eps=1e-06, elementwise_affine=True)
      )
      (2): Linear(
        (w): Linear(in_features=768, out_features=5000, bias=True)
      )
    )
  )
) loading from /scratch/flatala/speechbrain/transformer/results_fold_1/conformer_small/7775/save/lm.ckpt, the transferred parameters did not have parameters for the key: encoder.layers.6.self_att.att.in_proj_weight
2025-03-20 14:26:27,440 - speechbrain.utils.checkpoints - WARNING - During parameter transfer to TransformerLM(
  (positional_encoding): PositionalEncoding()
  (encoder): TransformerEncoder(
    (layers): ModuleList(
      (0-11): 12 x TransformerEncoderLayer(
        (self_att): MultiheadAttention(
          (att): MultiheadAttention(
            (out_proj): NonDynamicallyQuantizableLinear(in_features=768, out_features=768, bias=True)
          )
        )
        (pos_ffn): PositionalwiseFeedForward(
          (ffn): Sequential(
            (0): Linear(in_features=768, out_features=3072, bias=True)
            (1): GELU(approximate='none')
            (2): Dropout(p=0.0, inplace=False)
            (3): Linear(in_features=3072, out_features=768, bias=True)
          )
        )
        (norm1): LayerNorm(
          (norm): LayerNorm((768,), eps=1e-06, elementwise_affine=True)
        )
        (norm2): LayerNorm(
          (norm): LayerNorm((768,), eps=1e-06, elementwise_affine=True)
        )
        (dropout1): Dropout(p=0.0, inplace=False)
        (dropout2): Dropout(p=0.0, inplace=False)
      )
    )
    (norm): LayerNorm(
      (norm): LayerNorm((768,), eps=1e-06, elementwise_affine=True)
    )
  )
  (custom_src_module): NormalizedEmbedding(
    (emb): Embedding(
      (Embedding): Embedding(5000, 768)
    )
  )
  (output_proj): ModuleList(
    (layers): ModuleList(
      (0): Linear(
        (w): Linear(in_features=768, out_features=768, bias=True)
      )
      (1): LayerNorm(
        (norm): LayerNorm((768,), eps=1e-06, elementwise_affine=True)
      )
      (2): Linear(
        (w): Linear(in_features=768, out_features=5000, bias=True)
      )
    )
  )
) loading from /scratch/flatala/speechbrain/transformer/results_fold_1/conformer_small/7775/save/lm.ckpt, the transferred parameters did not have parameters for the key: encoder.layers.6.self_att.att.in_proj_bias
2025-03-20 14:26:27,440 - speechbrain.utils.checkpoints - WARNING - During parameter transfer to TransformerLM(
  (positional_encoding): PositionalEncoding()
  (encoder): TransformerEncoder(
    (layers): ModuleList(
      (0-11): 12 x TransformerEncoderLayer(
        (self_att): MultiheadAttention(
          (att): MultiheadAttention(
            (out_proj): NonDynamicallyQuantizableLinear(in_features=768, out_features=768, bias=True)
          )
        )
        (pos_ffn): PositionalwiseFeedForward(
          (ffn): Sequential(
            (0): Linear(in_features=768, out_features=3072, bias=True)
            (1): GELU(approximate='none')
            (2): Dropout(p=0.0, inplace=False)
            (3): Linear(in_features=3072, out_features=768, bias=True)
          )
        )
        (norm1): LayerNorm(
          (norm): LayerNorm((768,), eps=1e-06, elementwise_affine=True)
        )
        (norm2): LayerNorm(
          (norm): LayerNorm((768,), eps=1e-06, elementwise_affine=True)
        )
        (dropout1): Dropout(p=0.0, inplace=False)
        (dropout2): Dropout(p=0.0, inplace=False)
      )
    )
    (norm): LayerNorm(
      (norm): LayerNorm((768,), eps=1e-06, elementwise_affine=True)
    )
  )
  (custom_src_module): NormalizedEmbedding(
    (emb): Embedding(
      (Embedding): Embedding(5000, 768)
    )
  )
  (output_proj): ModuleList(
    (layers): ModuleList(
      (0): Linear(
        (w): Linear(in_features=768, out_features=768, bias=True)
      )
      (1): LayerNorm(
        (norm): LayerNorm((768,), eps=1e-06, elementwise_affine=True)
      )
      (2): Linear(
        (w): Linear(in_features=768, out_features=5000, bias=True)
      )
    )
  )
) loading from /scratch/flatala/speechbrain/transformer/results_fold_1/conformer_small/7775/save/lm.ckpt, the transferred parameters did not have parameters for the key: encoder.layers.6.self_att.att.out_proj.weight
2025-03-20 14:26:27,441 - speechbrain.utils.checkpoints - WARNING - During parameter transfer to TransformerLM(
  (positional_encoding): PositionalEncoding()
  (encoder): TransformerEncoder(
    (layers): ModuleList(
      (0-11): 12 x TransformerEncoderLayer(
        (self_att): MultiheadAttention(
          (att): MultiheadAttention(
            (out_proj): NonDynamicallyQuantizableLinear(in_features=768, out_features=768, bias=True)
          )
        )
        (pos_ffn): PositionalwiseFeedForward(
          (ffn): Sequential(
            (0): Linear(in_features=768, out_features=3072, bias=True)
            (1): GELU(approximate='none')
            (2): Dropout(p=0.0, inplace=False)
            (3): Linear(in_features=3072, out_features=768, bias=True)
          )
        )
        (norm1): LayerNorm(
          (norm): LayerNorm((768,), eps=1e-06, elementwise_affine=True)
        )
        (norm2): LayerNorm(
          (norm): LayerNorm((768,), eps=1e-06, elementwise_affine=True)
        )
        (dropout1): Dropout(p=0.0, inplace=False)
        (dropout2): Dropout(p=0.0, inplace=False)
      )
    )
    (norm): LayerNorm(
      (norm): LayerNorm((768,), eps=1e-06, elementwise_affine=True)
    )
  )
  (custom_src_module): NormalizedEmbedding(
    (emb): Embedding(
      (Embedding): Embedding(5000, 768)
    )
  )
  (output_proj): ModuleList(
    (layers): ModuleList(
      (0): Linear(
        (w): Linear(in_features=768, out_features=768, bias=True)
      )
      (1): LayerNorm(
        (norm): LayerNorm((768,), eps=1e-06, elementwise_affine=True)
      )
      (2): Linear(
        (w): Linear(in_features=768, out_features=5000, bias=True)
      )
    )
  )
) loading from /scratch/flatala/speechbrain/transformer/results_fold_1/conformer_small/7775/save/lm.ckpt, the transferred parameters did not have parameters for the key: encoder.layers.6.self_att.att.out_proj.bias
2025-03-20 14:26:27,441 - speechbrain.utils.checkpoints - WARNING - During parameter transfer to TransformerLM(
  (positional_encoding): PositionalEncoding()
  (encoder): TransformerEncoder(
    (layers): ModuleList(
      (0-11): 12 x TransformerEncoderLayer(
        (self_att): MultiheadAttention(
          (att): MultiheadAttention(
            (out_proj): NonDynamicallyQuantizableLinear(in_features=768, out_features=768, bias=True)
          )
        )
        (pos_ffn): PositionalwiseFeedForward(
          (ffn): Sequential(
            (0): Linear(in_features=768, out_features=3072, bias=True)
            (1): GELU(approximate='none')
            (2): Dropout(p=0.0, inplace=False)
            (3): Linear(in_features=3072, out_features=768, bias=True)
          )
        )
        (norm1): LayerNorm(
          (norm): LayerNorm((768,), eps=1e-06, elementwise_affine=True)
        )
        (norm2): LayerNorm(
          (norm): LayerNorm((768,), eps=1e-06, elementwise_affine=True)
        )
        (dropout1): Dropout(p=0.0, inplace=False)
        (dropout2): Dropout(p=0.0, inplace=False)
      )
    )
    (norm): LayerNorm(
      (norm): LayerNorm((768,), eps=1e-06, elementwise_affine=True)
    )
  )
  (custom_src_module): NormalizedEmbedding(
    (emb): Embedding(
      (Embedding): Embedding(5000, 768)
    )
  )
  (output_proj): ModuleList(
    (layers): ModuleList(
      (0): Linear(
        (w): Linear(in_features=768, out_features=768, bias=True)
      )
      (1): LayerNorm(
        (norm): LayerNorm((768,), eps=1e-06, elementwise_affine=True)
      )
      (2): Linear(
        (w): Linear(in_features=768, out_features=5000, bias=True)
      )
    )
  )
) loading from /scratch/flatala/speechbrain/transformer/results_fold_1/conformer_small/7775/save/lm.ckpt, the transferred parameters did not have parameters for the key: encoder.layers.6.pos_ffn.ffn.0.weight
2025-03-20 14:26:27,442 - speechbrain.utils.checkpoints - WARNING - During parameter transfer to TransformerLM(
  (positional_encoding): PositionalEncoding()
  (encoder): TransformerEncoder(
    (layers): ModuleList(
      (0-11): 12 x TransformerEncoderLayer(
        (self_att): MultiheadAttention(
          (att): MultiheadAttention(
            (out_proj): NonDynamicallyQuantizableLinear(in_features=768, out_features=768, bias=True)
          )
        )
        (pos_ffn): PositionalwiseFeedForward(
          (ffn): Sequential(
            (0): Linear(in_features=768, out_features=3072, bias=True)
            (1): GELU(approximate='none')
            (2): Dropout(p=0.0, inplace=False)
            (3): Linear(in_features=3072, out_features=768, bias=True)
          )
        )
        (norm1): LayerNorm(
          (norm): LayerNorm((768,), eps=1e-06, elementwise_affine=True)
        )
        (norm2): LayerNorm(
          (norm): LayerNorm((768,), eps=1e-06, elementwise_affine=True)
        )
        (dropout1): Dropout(p=0.0, inplace=False)
        (dropout2): Dropout(p=0.0, inplace=False)
      )
    )
    (norm): LayerNorm(
      (norm): LayerNorm((768,), eps=1e-06, elementwise_affine=True)
    )
  )
  (custom_src_module): NormalizedEmbedding(
    (emb): Embedding(
      (Embedding): Embedding(5000, 768)
    )
  )
  (output_proj): ModuleList(
    (layers): ModuleList(
      (0): Linear(
…
      )
    )
    (norm): LayerNorm(
      (norm): LayerNorm((768,), eps=1e-06, elementwise_affine=True)
    )
  )
  (custom_src_module): NormalizedEmbedding(
    (emb): Embedding(
      (Embedding): Embedding(5000, 768)
    )
  )
  (output_proj): ModuleList(
    (layers): ModuleList(
      (0): Linear(
        (w): Linear(in_features=768, out_features=768, bias=True)
      )
      (1): LayerNorm(
        (norm): LayerNorm((768,), eps=1e-06, elementwise_affine=True)
      )
      (2): Linear(
        (w): Linear(in_features=768, out_features=5000, bias=True)
      )
    )
  )
) loading from /scratch/flatala/speechbrain/transformer/results_fold_1/conformer_small/7775/save/lm.ckpt, the transferred parameters did not have parameters for the key: encoder.layers.11.norm1.norm.bias
2025-03-20 14:26:27,474 - speechbrain.utils.checkpoints - WARNING - During parameter transfer to TransformerLM(
  (positional_encoding): PositionalEncoding()
  (encoder): TransformerEncoder(
    (layers): ModuleList(
      (0-11): 12 x TransformerEncoderLayer(
        (self_att): MultiheadAttention(
          (att): MultiheadAttention(
            (out_proj): NonDynamicallyQuantizableLinear(in_features=768, out_features=768, bias=True)
          )
        )
        (pos_ffn): PositionalwiseFeedForward(
          (ffn): Sequential(
            (0): Linear(in_features=768, out_features=3072, bias=True)
            (1): GELU(approximate='none')
            (2): Dropout(p=0.0, inplace=False)
            (3): Linear(in_features=3072, out_features=768, bias=True)
          )
        )
        (norm1): LayerNorm(
          (norm): LayerNorm((768,), eps=1e-06, elementwise_affine=True)
        )
        (norm2): LayerNorm(
          (norm): LayerNorm((768,), eps=1e-06, elementwise_affine=True)
        )
        (dropout1): Dropout(p=0.0, inplace=False)
        (dropout2): Dropout(p=0.0, inplace=False)
      )
    )
    (norm): LayerNorm(
      (norm): LayerNorm((768,), eps=1e-06, elementwise_affine=True)
    )
  )
  (custom_src_module): NormalizedEmbedding(
    (emb): Embedding(
      (Embedding): Embedding(5000, 768)
    )
  )
  (output_proj): ModuleList(
    (layers): ModuleList(
      (0): Linear(
        (w): Linear(in_features=768, out_features=768, bias=True)
      )
      (1): LayerNorm(
        (norm): LayerNorm((768,), eps=1e-06, elementwise_affine=True)
      )
      (2): Linear(
        (w): Linear(in_features=768, out_features=5000, bias=True)
      )
    )
  )
) loading from /scratch/flatala/speechbrain/transformer/results_fold_1/conformer_small/7775/save/lm.ckpt, the transferred parameters did not have parameters for the key: encoder.layers.11.norm2.norm.weight
2025-03-20 14:26:27,474 - speechbrain.utils.checkpoints - WARNING - During parameter transfer to TransformerLM(
  (positional_encoding): PositionalEncoding()
  (encoder): TransformerEncoder(
    (layers): ModuleList(
      (0-11): 12 x TransformerEncoderLayer(
        (self_att): MultiheadAttention(
          (att): MultiheadAttention(
            (out_proj): NonDynamicallyQuantizableLinear(in_features=768, out_features=768, bias=True)
          )
        )
        (pos_ffn): PositionalwiseFeedForward(
          (ffn): Sequential(
            (0): Linear(in_features=768, out_features=3072, bias=True)
            (1): GELU(approximate='none')
            (2): Dropout(p=0.0, inplace=False)
            (3): Linear(in_features=3072, out_features=768, bias=True)
          )
        )
        (norm1): LayerNorm(
          (norm): LayerNorm((768,), eps=1e-06, elementwise_affine=True)
        )
        (norm2): LayerNorm(
          (norm): LayerNorm((768,), eps=1e-06, elementwise_affine=True)
        )
        (dropout1): Dropout(p=0.0, inplace=False)
        (dropout2): Dropout(p=0.0, inplace=False)
      )
    )
    (norm): LayerNorm(
      (norm): LayerNorm((768,), eps=1e-06, elementwise_affine=True)
    )
  )
  (custom_src_module): NormalizedEmbedding(
    (emb): Embedding(
      (Embedding): Embedding(5000, 768)
    )
  )
  (output_proj): ModuleList(
    (layers): ModuleList(
      (0): Linear(
        (w): Linear(in_features=768, out_features=768, bias=True)
      )
      (1): LayerNorm(
        (norm): LayerNorm((768,), eps=1e-06, elementwise_affine=True)
      )
      (2): Linear(
        (w): Linear(in_features=768, out_features=5000, bias=True)
      )
    )
  )
) loading from /scratch/flatala/speechbrain/transformer/results_fold_1/conformer_small/7775/save/lm.ckpt, the transferred parameters did not have parameters for the key: encoder.layers.11.norm2.norm.bias
2025-03-20 14:26:27,475 - speechbrain.utils.checkpoints - WARNING - During parameter transfer to TransformerLM(
  (positional_encoding): PositionalEncoding()
  (encoder): TransformerEncoder(
    (layers): ModuleList(
      (0-11): 12 x TransformerEncoderLayer(
        (self_att): MultiheadAttention(
          (att): MultiheadAttention(
            (out_proj): NonDynamicallyQuantizableLinear(in_features=768, out_features=768, bias=True)
          )
        )
        (pos_ffn): PositionalwiseFeedForward(
          (ffn): Sequential(
            (0): Linear(in_features=768, out_features=3072, bias=True)
            (1): GELU(approximate='none')
            (2): Dropout(p=0.0, inplace=False)
            (3): Linear(in_features=3072, out_features=768, bias=True)
          )
        )
        (norm1): LayerNorm(
          (norm): LayerNorm((768,), eps=1e-06, elementwise_affine=True)
        )
        (norm2): LayerNorm(
          (norm): LayerNorm((768,), eps=1e-06, elementwise_affine=True)
        )
        (dropout1): Dropout(p=0.0, inplace=False)
        (dropout2): Dropout(p=0.0, inplace=False)
      )
    )
    (norm): LayerNorm(
      (norm): LayerNorm((768,), eps=1e-06, elementwise_affine=True)
    )
  )
  (custom_src_module): NormalizedEmbedding(
    (emb): Embedding(
      (Embedding): Embedding(5000, 768)
    )
  )
  (output_proj): ModuleList(
    (layers): ModuleList(
      (0): Linear(
        (w): Linear(in_features=768, out_features=768, bias=True)
      )
      (1): LayerNorm(
        (norm): LayerNorm((768,), eps=1e-06, elementwise_affine=True)
      )
      (2): Linear(
        (w): Linear(in_features=768, out_features=5000, bias=True)
      )
    )
  )
) loading from /scratch/flatala/speechbrain/transformer/results_fold_1/conformer_small/7775/save/lm.ckpt, the transferred parameters did not have parameters for the key: encoder.norm.norm.weight
2025-03-20 14:26:27,475 - speechbrain.utils.checkpoints - WARNING - During parameter transfer to TransformerLM(
  (positional_encoding): PositionalEncoding()
  (encoder): TransformerEncoder(
    (layers): ModuleList(
      (0-11): 12 x TransformerEncoderLayer(
        (self_att): MultiheadAttention(
          (att): MultiheadAttention(
            (out_proj): NonDynamicallyQuantizableLinear(in_features=768, out_features=768, bias=True)
          )
        )
        (pos_ffn): PositionalwiseFeedForward(
          (ffn): Sequential(
            (0): Linear(in_features=768, out_features=3072, bias=True)
            (1): GELU(approximate='none')
            (2): Dropout(p=0.0, inplace=False)
            (3): Linear(in_features=3072, out_features=768, bias=True)
          )
        )
        (norm1): LayerNorm(
          (norm): LayerNorm((768,), eps=1e-06, elementwise_affine=True)
        )
        (norm2): LayerNorm(
          (norm): LayerNorm((768,), eps=1e-06, elementwise_affine=True)
        )
        (dropout1): Dropout(p=0.0, inplace=False)
        (dropout2): Dropout(p=0.0, inplace=False)
      )
    )
    (norm): LayerNorm(
      (norm): LayerNorm((768,), eps=1e-06, elementwise_affine=True)
    )
  )
  (custom_src_module): NormalizedEmbedding(
    (emb): Embedding(
      (Embedding): Embedding(5000, 768)
    )
  )
  (output_proj): ModuleList(
    (layers): ModuleList(
      (0): Linear(
        (w): Linear(in_features=768, out_features=768, bias=True)
      )
      (1): LayerNorm(
        (norm): LayerNorm((768,), eps=1e-06, elementwise_affine=True)
      )
      (2): Linear(
        (w): Linear(in_features=768, out_features=5000, bias=True)
      )
    )
  )
) loading from /scratch/flatala/speechbrain/transformer/results_fold_1/conformer_small/7775/save/lm.ckpt, the transferred parameters did not have parameters for the key: encoder.norm.norm.bias
2025-03-20 14:26:27,476 - speechbrain.utils.checkpoints - WARNING - During parameter transfer to TransformerLM(
  (positional_encoding): PositionalEncoding()
  (encoder): TransformerEncoder(
    (layers): ModuleList(
      (0-11): 12 x TransformerEncoderLayer(
        (self_att): MultiheadAttention(
          (att): MultiheadAttention(
            (out_proj): NonDynamicallyQuantizableLinear(in_features=768, out_features=768, bias=True)
          )
        )
        (pos_ffn): PositionalwiseFeedForward(
          (ffn): Sequential(
            (0): Linear(in_features=768, out_features=3072, bias=True)
            (1): GELU(approximate='none')
            (2): Dropout(p=0.0, inplace=False)
            (3): Linear(in_features=3072, out_features=768, bias=True)
          )
        )
        (norm1): LayerNorm(
          (norm): LayerNorm((768,), eps=1e-06, elementwise_affine=True)
        )
        (norm2): LayerNorm(
          (norm): LayerNorm((768,), eps=1e-06, elementwise_affine=True)
        )
        (dropout1): Dropout(p=0.0, inplace=False)
        (dropout2): Dropout(p=0.0, inplace=False)
      )
    )
    (norm): LayerNorm(
      (norm): LayerNorm((768,), eps=1e-06, elementwise_affine=True)
    )
  )
  (custom_src_module): NormalizedEmbedding(
    (emb): Embedding(
      (Embedding): Embedding(5000, 768)
    )
  )
  (output_proj): ModuleList(
    (layers): ModuleList(
      (0): Linear(
        (w): Linear(in_features=768, out_features=768, bias=True)
      )
      (1): LayerNorm(
        (norm): LayerNorm((768,), eps=1e-06, elementwise_affine=True)
      )
      (2): Linear(
        (w): Linear(in_features=768, out_features=5000, bias=True)
      )
    )
  )
) loading from /scratch/flatala/speechbrain/transformer/results_fold_1/conformer_small/7775/save/lm.ckpt, the transferred parameters did not have parameters for the key: custom_src_module.emb.Embedding.weight
2025-03-20 14:26:27,476 - speechbrain.utils.checkpoints - WARNING - During parameter transfer to TransformerLM(
  (positional_encoding): PositionalEncoding()
  (encoder): TransformerEncoder(
    (layers): ModuleList(
      (0-11): 12 x TransformerEncoderLayer(
        (self_att): MultiheadAttention(
          (att): MultiheadAttention(
            (out_proj): NonDynamicallyQuantizableLinear(in_features=768, out_features=768, bias=True)
          )
        )
        (pos_ffn): PositionalwiseFeedForward(
          (ffn): Sequential(
            (0): Linear(in_features=768, out_features=3072, bias=True)
            (1): GELU(approximate='none')
            (2): Dropout(p=0.0, inplace=False)
            (3): Linear(in_features=3072, out_features=768, bias=True)
          )
        )
        (norm1): LayerNorm(
          (norm): LayerNorm((768,), eps=1e-06, elementwise_affine=True)
        )
        (norm2): LayerNorm(
          (norm): LayerNorm((768,), eps=1e-06, elementwise_affine=True)
        )
        (dropout1): Dropout(p=0.0, inplace=False)
        (dropout2): Dropout(p=0.0, inplace=False)
      )
    )
    (norm): LayerNorm(
      (norm): LayerNorm((768,), eps=1e-06, elementwise_affine=True)
    )
  )
  (custom_src_module): NormalizedEmbedding(
    (emb): Embedding(
      (Embedding): Embedding(5000, 768)
    )
  )
  (output_proj): ModuleList(
    (layers): ModuleList(
      (0): Linear(
        (w): Linear(in_features=768, out_features=768, bias=True)
      )
      (1): LayerNorm(
        (norm): LayerNorm((768,), eps=1e-06, elementwise_affine=True)
      )
      (2): Linear(
        (w): Linear(in_features=768, out_features=5000, bias=True)
      )
    )
  )
) loading from /scratch/flatala/speechbrain/transformer/results_fold_1/conformer_small/7775/save/lm.ckpt, the transferred parameters did not have parameters for the key: output_proj.layers.0.w.weight
2025-03-20 14:26:27,477 - speechbrain.utils.checkpoints - WARNING - During parameter transfer to TransformerLM(
  (positional_encoding): PositionalEncoding()
  (encoder): TransformerEncoder(
    (layers): ModuleList(
      (0-11): 12 x TransformerEncoderLayer(
        (self_att): MultiheadAttention(
          (att): MultiheadAttention(
            (out_proj): NonDynamicallyQuantizableLinear(in_features=768, out_features=768, bias=True)
          )
        )
        (pos_ffn): PositionalwiseFeedForward(
          (ffn): Sequential(
            (0): Linear(in_features=768, out_features=3072, bias=True)
            (1): GELU(approximate='none')
            (2): Dropout(p=0.0, inplace=False)
            (3): Linear(in_features=3072, out_features=768, bias=True)
          )
        )
        (norm1): LayerNorm(
          (norm): LayerNorm((768,), eps=1e-06, elementwise_affine=True)
        )
        (norm2): LayerNorm(
          (norm): LayerNorm((768,), eps=1e-06, elementwise_affine=True)
        )
        (dropout1): Dropout(p=0.0, inplace=False)
        (dropout2): Dropout(p=0.0, inplace=False)
      )
    )
    (norm): LayerNorm(
      (norm): LayerNorm((768,), eps=1e-06, elementwise_affine=True)
    )
  )
  (custom_src_module): NormalizedEmbedding(
    (emb): Embedding(
      (Embedding): Embedding(5000, 768)
    )
  )
  (output_proj): ModuleList(
    (layers): ModuleList(
      (0): Linear(
        (w): Linear(in_features=768, out_features=768, bias=True)
      )
      (1): LayerNorm(
        (norm): LayerNorm((768,), eps=1e-06, elementwise_affine=True)
      )
      (2): Linear(
        (w): Linear(in_features=768, out_features=5000, bias=True)
      )
    )
  )
) loading from /scratch/flatala/speechbrain/transformer/results_fold_1/conformer_small/7775/save/lm.ckpt, the transferred parameters did not have parameters for the key: output_proj.layers.0.w.bias
2025-03-20 14:26:27,477 - speechbrain.utils.checkpoints - WARNING - During parameter transfer to TransformerLM(
  (positional_encoding): PositionalEncoding()
  (encoder): TransformerEncoder(
    (layers): ModuleList(
      (0-11): 12 x TransformerEncoderLayer(
        (self_att): MultiheadAttention(
          (att): MultiheadAttention(
            (out_proj): NonDynamicallyQuantizableLinear(in_features=768, out_features=768, bias=True)
          )
        )
        (pos_ffn): PositionalwiseFeedForward(
          (ffn): Sequential(
            (0): Linear(in_features=768, out_features=3072, bias=True)
            (1): GELU(approximate='none')
            (2): Dropout(p=0.0, inplace=False)
            (3): Linear(in_features=3072, out_features=768, bias=True)
          )
        )
        (norm1): LayerNorm(
          (norm): LayerNorm((768,), eps=1e-06, elementwise_affine=True)
        )
        (norm2): LayerNorm(
          (norm): LayerNorm((768,), eps=1e-06, elementwise_affine=True)
        )
        (dropout1): Dropout(p=0.0, inplace=False)
        (dropout2): Dropout(p=0.0, inplace=False)
      )
    )
    (norm): LayerNorm(
      (norm): LayerNorm((768,), eps=1e-06, elementwise_affine=True)
    )
  )
  (custom_src_module): NormalizedEmbedding(
    (emb): Embedding(
      (Embedding): Embedding(5000, 768)
    )
  )
  (output_proj): ModuleList(
    (layers): ModuleList(
      (0): Linear(
        (w): Linear(in_features=768, out_features=768, bias=True)
      )
      (1): LayerNorm(
        (norm): LayerNorm((768,), eps=1e-06, elementwise_affine=True)
      )
      (2): Linear(
        (w): Linear(in_features=768, out_features=5000, bias=True)
      )
    )
  )
) loading from /scratch/flatala/speechbrain/transformer/results_fold_1/conformer_small/7775/save/lm.ckpt, the transferred parameters did not have parameters for the key: output_proj.layers.1.norm.weight
2025-03-20 14:26:27,477 - speechbrain.utils.checkpoints - WARNING - During parameter transfer to TransformerLM(
  (positional_encoding): PositionalEncoding()
  (encoder): TransformerEncoder(
    (layers): ModuleList(
      (0-11): 12 x TransformerEncoderLayer(
        (self_att): MultiheadAttention(
          (att): MultiheadAttention(
            (out_proj): NonDynamicallyQuantizableLinear(in_features=768, out_features=768, bias=True)
          )
        )
        (pos_ffn): PositionalwiseFeedForward(
          (ffn): Sequential(
            (0): Linear(in_features=768, out_features=3072, bias=True)
            (1): GELU(approximate='none')
            (2): Dropout(p=0.0, inplace=False)
            (3): Linear(in_features=3072, out_features=768, bias=True)
          )
        )
        (norm1): LayerNorm(
          (norm): LayerNorm((768,), eps=1e-06, elementwise_affine=True)
        )
        (norm2): LayerNorm(
          (norm): LayerNorm((768,), eps=1e-06, elementwise_affine=True)
        )
        (dropout1): Dropout(p=0.0, inplace=False)
        (dropout2): Dropout(p=0.0, inplace=False)
      )
    )
    (norm): LayerNorm(
      (norm): LayerNorm((768,), eps=1e-06, elementwise_affine=True)
    )
  )
  (custom_src_module): NormalizedEmbedding(
    (emb): Embedding(
      (Embedding): Embedding(5000, 768)
    )
  )
  (output_proj): ModuleList(
    (layers): ModuleList(
      (0): Linear(
        (w): Linear(in_features=768, out_features=768, bias=True)
      )
      (1): LayerNorm(
        (norm): LayerNorm((768,), eps=1e-06, elementwise_affine=True)
      )
      (2): Linear(
        (w): Linear(in_features=768, out_features=5000, bias=True)
      )
    )
  )
) loading from /scratch/flatala/speechbrain/transformer/results_fold_1/conformer_small/7775/save/lm.ckpt, the transferred parameters did not have parameters for the key: output_proj.layers.1.norm.bias
2025-03-20 14:26:27,478 - speechbrain.utils.checkpoints - WARNING - During parameter transfer to TransformerLM(
  (positional_encoding): PositionalEncoding()
  (encoder): TransformerEncoder(
    (layers): ModuleList(
      (0-11): 12 x TransformerEncoderLayer(
        (self_att): MultiheadAttention(
          (att): MultiheadAttention(
            (out_proj): NonDynamicallyQuantizableLinear(in_features=768, out_features=768, bias=True)
          )
        )
        (pos_ffn): PositionalwiseFeedForward(
          (ffn): Sequential(
            (0): Linear(in_features=768, out_features=3072, bias=True)
            (1): GELU(approximate='none')
            (2): Dropout(p=0.0, inplace=False)
            (3): Linear(in_features=3072, out_features=768, bias=True)
          )
        )
        (norm1): LayerNorm(
          (norm): LayerNorm((768,), eps=1e-06, elementwise_affine=True)
        )
        (norm2): LayerNorm(
          (norm): LayerNorm((768,), eps=1e-06, elementwise_affine=True)
        )
        (dropout1): Dropout(p=0.0, inplace=False)
        (dropout2): Dropout(p=0.0, inplace=False)
      )
    )
    (norm): LayerNorm(
      (norm): LayerNorm((768,), eps=1e-06, elementwise_affine=True)
    )
  )
  (custom_src_module): NormalizedEmbedding(
    (emb): Embedding(
      (Embedding): Embedding(5000, 768)
    )
  )
  (output_proj): ModuleList(
    (layers): ModuleList(
      (0): Linear(
        (w): Linear(in_features=768, out_features=768, bias=True)
      )
      (1): LayerNorm(
        (norm): LayerNorm((768,), eps=1e-06, elementwise_affine=True)
      )
      (2): Linear(
        (w): Linear(in_features=768, out_features=5000, bias=True)
      )
    )
  )
) loading from /scratch/flatala/speechbrain/transformer/results_fold_1/conformer_small/7775/save/lm.ckpt, the transferred parameters did not have parameters for the key: output_proj.layers.2.w.weight
2025-03-20 14:26:27,478 - speechbrain.utils.checkpoints - WARNING - During parameter transfer to TransformerLM(
  (positional_encoding): PositionalEncoding()
  (encoder): TransformerEncoder(
    (layers): ModuleList(
      (0-11): 12 x TransformerEncoderLayer(
        (self_att): MultiheadAttention(
          (att): MultiheadAttention(
            (out_proj): NonDynamicallyQuantizableLinear(in_features=768, out_features=768, bias=True)
          )
        )
        (pos_ffn): PositionalwiseFeedForward(
          (ffn): Sequential(
            (0): Linear(in_features=768, out_features=3072, bias=True)
            (1): GELU(approximate='none')
            (2): Dropout(p=0.0, inplace=False)
            (3): Linear(in_features=3072, out_features=768, bias=True)
          )
        )
        (norm1): LayerNorm(
          (norm): LayerNorm((768,), eps=1e-06, elementwise_affine=True)
        )
        (norm2): LayerNorm(
          (norm): LayerNorm((768,), eps=1e-06, elementwise_affine=True)
        )
        (dropout1): Dropout(p=0.0, inplace=False)
        (dropout2): Dropout(p=0.0, inplace=False)
      )
    )
    (norm): LayerNorm(
      (norm): LayerNorm((768,), eps=1e-06, elementwise_affine=True)
    )
  )
  (custom_src_module): NormalizedEmbedding(
    (emb): Embedding(
      (Embedding): Embedding(5000, 768)
    )
  )
  (output_proj): ModuleList(
    (layers): ModuleList(
      (0): Linear(
        (w): Linear(in_features=768, out_features=768, bias=True)
      )
      (1): LayerNorm(
        (norm): LayerNorm((768,), eps=1e-06, elementwise_affine=True)
      )
      (2): Linear(
        (w): Linear(in_features=768, out_features=5000, bias=True)
      )
    )
  )
) loading from /scratch/flatala/speechbrain/transformer/results_fold_1/conformer_small/7775/save/lm.ckpt, the transferred parameters did not have parameters for the key: output_proj.layers.2.w.bias
2025-03-20 14:26:27,479 - speechbrain.utils.checkpoints - WARNING - During parameter transfer to TransformerLM(
  (positional_encoding): PositionalEncoding()
  (encoder): TransformerEncoder(
    (layers): ModuleList(
      (0-11): 12 x TransformerEncoderLayer(
        (self_att): MultiheadAttention(
          (att): MultiheadAttention(
            (out_proj): NonDynamicallyQuantizableLinear(in_features=768, out_features=768, bias=True)
          )
        )
        (pos_ffn): PositionalwiseFeedForward(
          (ffn): Sequential(
            (0): Linear(in_features=768, out_features=3072, bias=True)
            (1): GELU(approximate='none')
            (2): Dropout(p=0.0, inplace=False)
            (3): Linear(in_features=3072, out_features=768, bias=True)
          )
        )
        (norm1): LayerNorm(
          (norm): LayerNorm((768,), eps=1e-06, elementwise_affine=True)
        )
        (norm2): LayerNorm(
          (norm): LayerNorm((768,), eps=1e-06, elementwise_affine=True)
        )
        (dropout1): Dropout(p=0.0, inplace=False)
        (dropout2): Dropout(p=0.0, inplace=False)
      )
    )
    (norm): LayerNorm(
      (norm): LayerNorm((768,), eps=1e-06, elementwise_affine=True)
    )
  )
  (custom_src_module): NormalizedEmbedding(
    (emb): Embedding(
      (Embedding): Embedding(5000, 768)
    )
  )
  (output_proj): ModuleList(
    (layers): ModuleList(
      (0): Linear(
        (w): Linear(in_features=768, out_features=768, bias=True)
      )
      (1): LayerNorm(
        (norm): LayerNorm((768,), eps=1e-06, elementwise_affine=True)
      )
      (2): Linear(
        (w): Linear(in_features=768, out_features=5000, bias=True)
      )
    )
  )
) loading from /scratch/flatala/speechbrain/transformer/results_fold_1/conformer_small/7775/save/lm.ckpt, the object could not use the parameters loaded with the key: embedding.Embedding.weight
2025-03-20 14:26:27,479 - speechbrain.utils.checkpoints - WARNING - During parameter transfer to TransformerLM(
  (positional_encoding): PositionalEncoding()
  (encoder): TransformerEncoder(
    (layers): ModuleList(
      (0-11): 12 x TransformerEncoderLayer(
        (self_att): MultiheadAttention(
          (att): MultiheadAttention(
            (out_proj): NonDynamicallyQuantizableLinear(in_features=768, out_features=768, bias=True)
          )
        )
        (pos_ffn): PositionalwiseFeedForward(
          (ffn): Sequential(
            (0): Linear(in_features=768, out_features=3072, bias=True)
            (1): GELU(approximate='none')
            (2): Dropout(p=0.0, inplace=False)
            (3): Linear(in_features=3072, out_features=768, bias=True)
          )
        )
        (norm1): LayerNorm(
          (norm): LayerNorm((768,), eps=1e-06, elementwise_affine=True)
        )
        (norm2): LayerNorm(
          (norm): LayerNorm((768,), eps=1e-06, elementwise_affine=True)
        )
        (dropout1): Dropout(p=0.0, inplace=False)
        (dropout2): Dropout(p=0.0, inplace=False)
      )
    )
    (norm): LayerNorm(
      (norm): LayerNorm((768,), eps=1e-06, elementwise_affine=True)
    )
  )
  (custom_src_module): NormalizedEmbedding(
    (emb): Embedding(
      (Embedding): Embedding(5000, 768)
    )
  )
  (output_proj): ModuleList(
    (layers): ModuleList(
      (0): Linear(
        (w): Linear(in_features=768, out_features=768, bias=True)
      )
      (1): LayerNorm(
        (norm): LayerNorm((768,), eps=1e-06, elementwise_affine=True)
      )
      (2): Linear(
        (w): Linear(in_features=768, out_features=5000, bias=True)
      )
    )
  )
) loading from /scratch/flatala/speechbrain/transformer/results_fold_1/conformer_small/7775/save/lm.ckpt, the object could not use the parameters loaded with the key: rnn.rnn.weight_ih_l0
2025-03-20 14:26:27,480 - speechbrain.utils.checkpoints - WARNING - During parameter transfer to TransformerLM(
  (positional_encoding): PositionalEncoding()
  (encoder): TransformerEncoder(
    (layers): ModuleList(
      (0-11): 12 x TransformerEncoderLayer(
        (self_att): MultiheadAttention(
          (att): MultiheadAttention(
            (out_proj): NonDynamicallyQuantizableLinear(in_features=768, out_features=768, bias=True)
          )
        )
        (pos_ffn): PositionalwiseFeedForward(
          (ffn): Sequential(
            (0): Linear(in_features=768, out_features=3072, bias=True)
            (1): GELU(approximate='none')
            (2): Dropout(p=0.0, inplace=False)
            (3): Linear(in_features=3072, out_features=768, bias=True)
          )
        )
        (norm1): LayerNorm(
          (norm): LayerNorm((768,), eps=1e-06, elementwise_affine=True)
        )
        (norm2): LayerNorm(
          (norm): LayerNorm((768,), eps=1e-06, elementwise_affine=True)
        )
        (dropout1): Dropout(p=0.0, inplace=False)
        (dropout2): Dropout(p=0.0, inplace=False)
      )
    )
    (norm): LayerNorm(
      (norm): LayerNorm((768,), eps=1e-06, elementwise_affine=True)
    )
  )
  (custom_src_module): NormalizedEmbedding(
    (emb): Embedding(
      (Embedding): Embedding(5000, 768)
    )
  )
  (output_proj): ModuleList(
    (layers): ModuleList(
      (0): Linear(
        (w): Linear(in_features=768, out_features=768, bias=True)
      )
      (1): LayerNorm(
        (norm): LayerNorm((768,), eps=1e-06, elementwise_affine=True)
      )
      (2): Linear(
        (w): Linear(in_features=768, out_features=5000, bias=True)
      )
    )
  )
) loading from /scratch/flatala/speechbrain/transformer/results_fold_1/conformer_small/7775/save/lm.ckpt, the object could not use the parameters loaded with the key: rnn.rnn.weight_hh_l0
2025-03-20 14:26:27,480 - speechbrain.utils.checkpoints - WARNING - During parameter transfer to TransformerLM(
  (positional_encoding): PositionalEncoding()
  (encoder): TransformerEncoder(
    (layers): ModuleList(
      (0-11): 12 x TransformerEncoderLayer(
        (self_att): MultiheadAttention(
          (att): MultiheadAttention(
            (out_proj): NonDynamicallyQuantizableLinear(in_features=768, out_features=768, bias=True)
          )
        )
        (pos_ffn): PositionalwiseFeedForward(
          (ffn): Sequential(
            (0): Linear(in_features=768, out_features=3072, bias=True)
            (1): GELU(approximate='none')
            (2): Dropout(p=0.0, inplace=False)
            (3): Linear(in_features=3072, out_features=768, bias=True)
          )
        )
        (norm1): LayerNorm(
          (norm): LayerNorm((768,), eps=1e-06, elementwise_affine=True)
        )
        (norm2): LayerNorm(
          (norm): LayerNorm((768,), eps=1e-06, elementwise_affine=True)
        )
        (dropout1): Dropout(p=0.0, inplace=False)
        (dropout2): Dropout(p=0.0, inplace=False)
      )
    )
    (norm): LayerNorm(
      (norm): LayerNorm((768,), eps=1e-06, elementwise_affine=True)
    )
  )
  (custom_src_module): NormalizedEmbedding(
    (emb): Embedding(
      (Embedding): Embedding(5000, 768)
    )
  )
  (output_proj): ModuleList(
    (layers): ModuleList(
      (0): Linear(
        (w): Linear(in_features=768, out_features=768, bias=True)
      )
      (1): LayerNorm(
        (norm): LayerNorm((768,), eps=1e-06, elementwise_affine=True)
      )
      (2): Linear(
        (w): Linear(in_features=768, out_features=5000, bias=True)
      )
    )
  )
) loading from /scratch/flatala/speechbrain/transformer/results_fold_1/conformer_small/7775/save/lm.ckpt, the object could not use the parameters loaded with the key: rnn.rnn.bias_ih_l0
2025-03-20 14:26:27,481 - speechbrain.utils.checkpoints - WARNING - During parameter transfer to TransformerLM(
  (positional_encoding): PositionalEncoding()
  (encoder): TransformerEncoder(
    (layers): ModuleList(
      (0-11): 12 x TransformerEncoderLayer(
        (self_att): MultiheadAttention(
          (att): MultiheadAttention(
            (out_proj): NonDynamicallyQuantizableLinear(in_features=768, out_features=768, bias=True)
          )
        )
        (pos_ffn): PositionalwiseFeedForward(
          (ffn): Sequential(
            (0): Linear(in_features=768, out_features=3072, bias=True)
            (1): GELU(approximate='none')
            (2): Dropout(p=0.0, inplace=False)
            (3): Linear(in_features=3072, out_features=768, bias=True)
          )
        )
        (norm1): LayerNorm(
          (norm): LayerNorm((768,), eps=1e-06, elementwise_affine=True)
        )
        (norm2): LayerNorm(
          (norm): LayerNorm((768,), eps=1e-06, elementwise_affine=True)
        )
        (dropout1): Dropout(p=0.0, inplace=False)
        (dropout2): Dropout(p=0.0, inplace=False)
      )
    )
    (norm): LayerNorm(
      (norm): LayerNorm((768,), eps=1e-06, elementwise_affine=True)
    )
  )
  (custom_src_module): NormalizedEmbedding(
    (emb): Embedding(
      (Embedding): Embedding(5000, 768)
    )
  )
  (output_proj): ModuleList(
    (layers): ModuleList(
      (0): Linear(
        (w): Linear(in_features=768, out_features=768, bias=True)
      )
      (1): LayerNorm(
        (norm): LayerNorm((768,), eps=1e-06, elementwise_affine=True)
      )
      (2): Linear(
        (w): Linear(in_features=768, out_features=5000, bias=True)
      )
    )
  )
) loading from /scratch/flatala/speechbrain/transformer/results_fold_1/conformer_small/7775/save/lm.ckpt, the object could not use the parameters loaded with the key: rnn.rnn.bias_hh_l0
2025-03-20 14:26:27,481 - speechbrain.utils.checkpoints - WARNING - During parameter transfer to TransformerLM(
  (positional_encoding): PositionalEncoding()
  (encoder): TransformerEncoder(
    (layers): ModuleList(
      (0-11): 12 x TransformerEncoderLayer(
        (self_att): MultiheadAttention(
          (att): MultiheadAttention(
            (out_proj): NonDynamicallyQuantizableLinear(in_features=768, out_features=768, bias=True)
          )
        )
        (pos_ffn): PositionalwiseFeedForward(
          (ffn): Sequential(
            (0): Linear(in_features=768, out_features=3072, bias=True)
            (1): GELU(approximate='none')
            (2): Dropout(p=0.0, inplace=False)
            (3): Linear(in_features=3072, out_features=768, bias=True)
          )
        )
        (norm1): LayerNorm(
          (norm): LayerNorm((768,), eps=1e-06, elementwise_affine=True)
        )
        (norm2): LayerNorm(
          (norm): LayerNorm((768,), eps=1e-06, elementwise_affine=True)
        )
        (dropout1): Dropout(p=0.0, inplace=False)
        (dropout2): Dropout(p=0.0, inplace=False)
      )
    )
    (norm): LayerNorm(
      (norm): LayerNorm((768,), eps=1e-06, elementwise_affine=True)
    )
  )
  (custom_src_module): NormalizedEmbedding(
    (emb): Embedding(
      (Embedding): Embedding(5000, 768)
    )
  )
  (output_proj): ModuleList(
    (layers): ModuleList(
      (0): Linear(
        (w): Linear(in_features=768, out_features=768, bias=True)
      )
      (1): LayerNorm(
        (norm): LayerNorm((768,), eps=1e-06, elementwise_affine=True)
      )
      (2): Linear(
        (w): Linear(in_features=768, out_features=5000, bias=True)
      )
    )
  )
) loading from /scratch/flatala/speechbrain/transformer/results_fold_1/conformer_small/7775/save/lm.ckpt, the object could not use the parameters loaded with the key: rnn.rnn.weight_ih_l1
2025-03-20 14:26:27,482 - speechbrain.utils.checkpoints - WARNING - During parameter transfer to TransformerLM(
  (positional_encoding): PositionalEncoding()
  (encoder): TransformerEncoder(
    (layers): ModuleList(
      (0-11): 12 x TransformerEncoderLayer(
        (self_att): MultiheadAttention(
          (att): MultiheadAttention(
            (out_proj): NonDynamicallyQuantizableLinear(in_features=768, out_features=768, bias=True)
          )
        )
        (pos_ffn): PositionalwiseFeedForward(
          (ffn): Sequential(
            (0): Linear(in_features=768, out_features=3072, bias=True)
            (1): GELU(approximate='none')
            (2): Dropout(p=0.0, inplace=False)
            (3): Linear(in_features=3072, out_features=768, bias=True)
          )
        )
        (norm1): LayerNorm(
          (norm): LayerNorm((768,), eps=1e-06, elementwise_affine=True)
        )
        (norm2): LayerNorm(
          (norm): LayerNorm((768,), eps=1e-06, elementwise_affine=True)
        )
        (dropout1): Dropout(p=0.0, inplace=False)
        (dropout2): Dropout(p=0.0, inplace=False)
      )
    )
    (norm): LayerNorm(
      (norm): LayerNorm((768,), eps=1e-06, elementwise_affine=True)
    )
  )
  (custom_src_module): NormalizedEmbedding(
    (emb): Embedding(
      (Embedding): Embedding(5000, 768)
    )
  )
  (output_proj): ModuleList(
    (layers): ModuleList(
      (0): Linear(
        (w): Linear(in_features=768, out_features=768, bias=True)
      )
      (1): LayerNorm(
        (norm): LayerNorm((768,), eps=1e-06, elementwise_affine=True)
      )
      (2): Linear(
        (w): Linear(in_features=768, out_features=5000, bias=True)
      )
    )
  )
) loading from /scratch/flatala/speechbrain/transformer/results_fold_1/conformer_small/7775/save/lm.ckpt, the object could not use the parameters loaded with the key: rnn.rnn.weight_hh_l1
2025-03-20 14:26:27,482 - speechbrain.utils.checkpoints - WARNING - During parameter transfer to TransformerLM(
  (positional_encoding): PositionalEncoding()
  (encoder): TransformerEncoder(
    (layers): ModuleList(
      (0-11): 12 x TransformerEncoderLayer(
        (self_att): MultiheadAttention(
          (att): MultiheadAttention(
            (out_proj): NonDynamicallyQuantizableLinear(in_features=768, out_features=768, bias=True)
          )
        )
        (pos_ffn): PositionalwiseFeedForward(
          (ffn): Sequential(
            (0): Linear(in_features=768, out_features=3072, bias=True)
            (1): GELU(approximate='none')
            (2): Dropout(p=0.0, inplace=False)
            (3): Linear(in_features=3072, out_features=768, bias=True)
          )
        )
        (norm1): LayerNorm(
          (norm): LayerNorm((768,), eps=1e-06, elementwise_affine=True)
        )
        (norm2): LayerNorm(
          (norm): LayerNorm((768,), eps=1e-06, elementwise_affine=True)
        )
        (dropout1): Dropout(p=0.0, inplace=False)
        (dropout2): Dropout(p=0.0, inplace=False)
      )
    )
    (norm): LayerNorm(
      (norm): LayerNorm((768,), eps=1e-06, elementwise_affine=True)
    )
  )
  (custom_src_module): NormalizedEmbedding(
    (emb): Embedding(
      (Embedding): Embedding(5000, 768)
    )
  )
  (output_proj): ModuleList(
    (layers): ModuleList(
      (0): Linear(
        (w): Linear(in_features=768, out_features=768, bias=True)
      )
      (1): LayerNorm(
        (norm): LayerNorm((768,), eps=1e-06, elementwise_affine=True)
      )
      (2): Linear(
        (w): Linear(in_features=768, out_features=5000, bias=True)
      )
    )
  )
) loading from /scratch/flatala/speechbrain/transformer/results_fold_1/conformer_small/7775/save/lm.ckpt, the object could not use the parameters loaded with the key: rnn.rnn.bias_ih_l1
2025-03-20 14:26:27,483 - speechbrain.utils.checkpoints - WARNING - During parameter transfer to TransformerLM(
  (positional_encoding): PositionalEncoding()
  (encoder): TransformerEncoder(
    (layers): ModuleList(
      (0-11): 12 x TransformerEncoderLayer(
        (self_att): MultiheadAttention(
          (att): MultiheadAttention(
            (out_proj): NonDynamicallyQuantizableLinear(in_features=768, out_features=768, bias=True)
          )
        )
        (pos_ffn): PositionalwiseFeedForward(
          (ffn): Sequential(
            (0): Linear(in_features=768, out_features=3072, bias=True)
            (1): GELU(approximate='none')
            (2): Dropout(p=0.0, inplace=False)
            (3): Linear(in_features=3072, out_features=768, bias=True)
          )
        )
        (norm1): LayerNorm(
          (norm): LayerNorm((768,), eps=1e-06, elementwise_affine=True)
        )
        (norm2): LayerNorm(
          (norm): LayerNorm((768,), eps=1e-06, elementwise_affine=True)
        )
        (dropout1): Dropout(p=0.0, inplace=False)
        (dropout2): Dropout(p=0.0, inplace=False)
      )
    )
    (norm): LayerNorm(
      (norm): LayerNorm((768,), eps=1e-06, elementwise_affine=True)
    )
  )
  (custom_src_module): NormalizedEmbedding(
    (emb): Embedding(
      (Embedding): Embedding(5000, 768)
    )
  )
  (output_proj): ModuleList(
    (layers): ModuleList(
      (0): Linear(
        (w): Linear(in_features=768, out_features=768, bias=True)
      )
      (1): LayerNorm(
        (norm): LayerNorm((768,), eps=1e-06, elementwise_affine=True)
      )
      (2): Linear(
        (w): Linear(in_features=768, out_features=5000, bias=True)
      )
    )
  )
) loading from /scratch/flatala/speechbrain/transformer/results_fold_1/conformer_small/7775/save/lm.ckpt, the object could not use the parameters loaded with the key: rnn.rnn.bias_hh_l1
2025-03-20 14:26:27,483 - speechbrain.utils.checkpoints - WARNING - During parameter transfer to TransformerLM(
  (positional_encoding): PositionalEncoding()
  (encoder): TransformerEncoder(
    (layers): ModuleList(
      (0-11): 12 x TransformerEncoderLayer(
        (self_att): MultiheadAttention(
          (att): MultiheadAttention(
            (out_proj): NonDynamicallyQuantizableLinear(in_features=768, out_features=768, bias=True)
          )
        )
        (pos_ffn): PositionalwiseFeedForward(
          (ffn): Sequential(
            (0): Linear(in_features=768, out_features=3072, bias=True)
            (1): GELU(approximate='none')
            (2): Dropout(p=0.0, inplace=False)
            (3): Linear(in_features=3072, out_features=768, bias=True)
          )
        )
        (norm1): LayerNorm(
          (norm): LayerNorm((768,), eps=1e-06, elementwise_affine=True)
        )
        (norm2): LayerNorm(
          (norm): LayerNorm((768,), eps=1e-06, elementwise_affine=True)
        )
        (dropout1): Dropout(p=0.0, inplace=False)
        (dropout2): Dropout(p=0.0, inplace=False)
      )
    )
    (norm): LayerNorm(
      (norm): LayerNorm((768,), eps=1e-06, elementwise_affine=True)
    )
  )
  (custom_src_module): NormalizedEmbedding(
    (emb): Embedding(
      (Embedding): Embedding(5000, 768)
    )
  )
  (output_proj): ModuleList(
    (layers): ModuleList(
      (0): Linear(
        (w): Linear(in_features=768, out_features=768, bias=True)
      )
      (1): LayerNorm(
        (norm): LayerNorm((768,), eps=1e-06, elementwise_affine=True)
      )
      (2): Linear(
        (w): Linear(in_features=768, out_features=5000, bias=True)
      )
    )
  )
) loading from /scratch/flatala/speechbrain/transformer/results_fold_1/conformer_small/7775/save/lm.ckpt, the object could not use the parameters loaded with the key: dnn.linear.w.weight
2025-03-20 14:26:27,484 - speechbrain.utils.checkpoints - WARNING - During parameter transfer to TransformerLM(
  (positional_encoding): PositionalEncoding()
  (encoder): TransformerEncoder(
    (layers): ModuleList(
      (0-11): 12 x TransformerEncoderLayer(
        (self_att): MultiheadAttention(
          (att): MultiheadAttention(
            (out_proj): NonDynamicallyQuantizableLinear(in_features=768, out_features=768, bias=True)
          )
        )
        (pos_ffn): PositionalwiseFeedForward(
          (ffn): Sequential(
            (0): Linear(in_features=768, out_features=3072, bias=True)
            (1): GELU(approximate='none')
            (2): Dropout(p=0.0, inplace=False)
            (3): Linear(in_features=3072, out_features=768, bias=True)
          )
        )
        (norm1): LayerNorm(
          (norm): LayerNorm((768,), eps=1e-06, elementwise_affine=True)
        )
        (norm2): LayerNorm(
          (norm): LayerNorm((768,), eps=1e-06, elementwise_affine=True)
        )
        (dropout1): Dropout(p=0.0, inplace=False)
        (dropout2): Dropout(p=0.0, inplace=False)
      )
    )
    (norm): LayerNorm(
      (norm): LayerNorm((768,), eps=1e-06, elementwise_affine=True)
    )
  )
  (custom_src_module): NormalizedEmbedding(
    (emb): Embedding(
      (Embedding): Embedding(5000, 768)
    )
  )
  (output_proj): ModuleList(
    (layers): ModuleList(
      (0): Linear(
        (w): Linear(in_features=768, out_features=768, bias=True)
      )
      (1): LayerNorm(
        (norm): LayerNorm((768,), eps=1e-06, elementwise_affine=True)
      )
      (2): Linear(
        (w): Linear(in_features=768, out_features=5000, bias=True)
      )
    )
  )
) loading from /scratch/flatala/speechbrain/transformer/results_fold_1/conformer_small/7775/save/lm.ckpt, the object could not use the parameters loaded with the key: dnn.linear.w.bias
2025-03-20 14:26:27,484 - speechbrain.utils.checkpoints - WARNING - During parameter transfer to TransformerLM(
  (positional_encoding): PositionalEncoding()
  (encoder): TransformerEncoder(
    (layers): ModuleList(
      (0-11): 12 x TransformerEncoderLayer(
        (self_att): MultiheadAttention(
          (att): MultiheadAttention(
            (out_proj): NonDynamicallyQuantizableLinear(in_features=768, out_features=768, bias=True)
          )
        )
        (pos_ffn): PositionalwiseFeedForward(
          (ffn): Sequential(
            (0): Linear(in_features=768, out_features=3072, bias=True)
            (1): GELU(approximate='none')
            (2): Dropout(p=0.0, inplace=False)
            (3): Linear(in_features=3072, out_features=768, bias=True)
          )
        )
        (norm1): LayerNorm(
          (norm): LayerNorm((768,), eps=1e-06, elementwise_affine=True)
        )
        (norm2): LayerNorm(
          (norm): LayerNorm((768,), eps=1e-06, elementwise_affine=True)
        )
        (dropout1): Dropout(p=0.0, inplace=False)
        (dropout2): Dropout(p=0.0, inplace=False)
      )
    )
    (norm): LayerNorm(
      (norm): LayerNorm((768,), eps=1e-06, elementwise_affine=True)
    )
  )
  (custom_src_module): NormalizedEmbedding(
    (emb): Embedding(
      (Embedding): Embedding(5000, 768)
    )
  )
  (output_proj): ModuleList(
    (layers): ModuleList(
      (0): Linear(
        (w): Linear(in_features=768, out_features=768, bias=True)
      )
      (1): LayerNorm(
        (norm): LayerNorm((768,), eps=1e-06, elementwise_affine=True)
      )
      (2): Linear(
        (w): Linear(in_features=768, out_features=5000, bias=True)
      )
    )
  )
) loading from /scratch/flatala/speechbrain/transformer/results_fold_1/conformer_small/7775/save/lm.ckpt, the object could not use the parameters loaded with the key: dnn.norm.norm.weight
2025-03-20 14:26:27,485 - speechbrain.utils.checkpoints - WARNING - During parameter transfer to TransformerLM(
  (positional_encoding): PositionalEncoding()
  (encoder): TransformerEncoder(
    (layers): ModuleList(
      (0-11): 12 x TransformerEncoderLayer(
        (self_att): MultiheadAttention(
          (att): MultiheadAttention(
            (out_proj): NonDynamicallyQuantizableLinear(in_features=768, out_features=768, bias=True)
          )
        )
        (pos_ffn): PositionalwiseFeedForward(
          (ffn): Sequential(
            (0): Linear(in_features=768, out_features=3072, bias=True)
            (1): GELU(approximate='none')
            (2): Dropout(p=0.0, inplace=False)
            (3): Linear(in_features=3072, out_features=768, bias=True)
          )
        )
        (norm1): LayerNorm(
          (norm): LayerNorm((768,), eps=1e-06, elementwise_affine=True)
        )
        (norm2): LayerNorm(
          (norm): LayerNorm((768,), eps=1e-06, elementwise_affine=True)
        )
        (dropout1): Dropout(p=0.0, inplace=False)
        (dropout2): Dropout(p=0.0, inplace=False)
      )
    )
    (norm): LayerNorm(
      (norm): LayerNorm((768,), eps=1e-06, elementwise_affine=True)
    )
  )
  (custom_src_module): NormalizedEmbedding(
    (emb): Embedding(
      (Embedding): Embedding(5000, 768)
    )
  )
  (output_proj): ModuleList(
    (layers): ModuleList(
      (0): Linear(
        (w): Linear(in_features=768, out_features=768, bias=True)
      )
      (1): LayerNorm(
        (norm): LayerNorm((768,), eps=1e-06, elementwise_affine=True)
      )
      (2): Linear(
        (w): Linear(in_features=768, out_features=5000, bias=True)
      )
    )
  )
) loading from /scratch/flatala/speechbrain/transformer/results_fold_1/conformer_small/7775/save/lm.ckpt, the object could not use the parameters loaded with the key: dnn.norm.norm.bias
2025-03-20 14:26:27,485 - speechbrain.utils.checkpoints - WARNING - During parameter transfer to TransformerLM(
  (positional_encoding): PositionalEncoding()
  (encoder): TransformerEncoder(
    (layers): ModuleList(
      (0-11): 12 x TransformerEncoderLayer(
        (self_att): MultiheadAttention(
          (att): MultiheadAttention(
            (out_proj): NonDynamicallyQuantizableLinear(in_features=768, out_features=768, bias=True)
          )
        )
        (pos_ffn): PositionalwiseFeedForward(
          (ffn): Sequential(
            (0): Linear(in_features=768, out_features=3072, bias=True)
            (1): GELU(approximate='none')
            (2): Dropout(p=0.0, inplace=False)
            (3): Linear(in_features=3072, out_features=768, bias=True)
          )
        )
        (norm1): LayerNorm(
          (norm): LayerNorm((768,), eps=1e-06, elementwise_affine=True)
        )
        (norm2): LayerNorm(
          (norm): LayerNorm((768,), eps=1e-06, elementwise_affine=True)
        )
        (dropout1): Dropout(p=0.0, inplace=False)
        (dropout2): Dropout(p=0.0, inplace=False)
      )
    )
    (norm): LayerNorm(
      (norm): LayerNorm((768,), eps=1e-06, elementwise_affine=True)
    )
  )
  (custom_src_module): NormalizedEmbedding(
    (emb): Embedding(
      (Embedding): Embedding(5000, 768)
    )
  )
  (output_proj): ModuleList(
    (layers): ModuleList(
      (0): Linear(
        (w): Linear(in_features=768, out_features=768, bias=True)
      )
      (1): LayerNorm(
        (norm): LayerNorm((768,), eps=1e-06, elementwise_affine=True)
      )
      (2): Linear(
        (w): Linear(in_features=768, out_features=5000, bias=True)
      )
    )
  )
) loading from /scratch/flatala/speechbrain/transformer/results_fold_1/conformer_small/7775/save/lm.ckpt, the object could not use the parameters loaded with the key: out.w.weight
2025-03-20 14:26:27,486 - speechbrain.utils.checkpoints - WARNING - During parameter transfer to TransformerLM(
  (positional_encoding): PositionalEncoding()
  (encoder): TransformerEncoder(
    (layers): ModuleList(
      (0-11): 12 x TransformerEncoderLayer(
        (self_att): MultiheadAttention(
          (att): MultiheadAttention(
            (out_proj): NonDynamicallyQuantizableLinear(in_features=768, out_features=768, bias=True)
          )
        )
        (pos_ffn): PositionalwiseFeedForward(
          (ffn): Sequential(
            (0): Linear(in_features=768, out_features=3072, bias=True)
            (1): GELU(approximate='none')
            (2): Dropout(p=0.0, inplace=False)
            (3): Linear(in_features=3072, out_features=768, bias=True)
          )
        )
        (norm1): LayerNorm(
          (norm): LayerNorm((768,), eps=1e-06, elementwise_affine=True)
        )
        (norm2): LayerNorm(
          (norm): LayerNorm((768,), eps=1e-06, elementwise_affine=True)
        )
        (dropout1): Dropout(p=0.0, inplace=False)
        (dropout2): Dropout(p=0.0, inplace=False)
      )
    )
    (norm): LayerNorm(
      (norm): LayerNorm((768,), eps=1e-06, elementwise_affine=True)
    )
  )
  (custom_src_module): NormalizedEmbedding(
    (emb): Embedding(
      (Embedding): Embedding(5000, 768)
    )
  )
  (output_proj): ModuleList(
    (layers): ModuleList(
      (0): Linear(
        (w): Linear(in_features=768, out_features=768, bias=True)
      )
      (1): LayerNorm(
        (norm): LayerNorm((768,), eps=1e-06, elementwise_affine=True)
      )
      (2): Linear(
        (w): Linear(in_features=768, out_features=5000, bias=True)
      )
    )
  )
) loading from /scratch/flatala/speechbrain/transformer/results_fold_1/conformer_small/7775/save/lm.ckpt, the object could not use the parameters loaded with the key: out.w.bias
2025-03-20 14:26:27,489 - speechbrain.core - INFO - Info: precision arg from hparam file is used
2025-03-20 14:26:27,489 - speechbrain.core - INFO - Info: max_grad_norm arg from hparam file is used
…
