…
2025-03-17 14:45:53,660 - speechbrain.utils.parameter_transfer - DEBUG - Redirecting (loading from local path): tokenizer -> /scratch/flatala/speechbrain/transformer/results/conformer_small/7775/save/tokenizer.ckpt
2025-03-17 14:45:55,432 - speechbrain.utils.checkpoints - WARNING - During parameter transfer to TransformerLM(
  (positional_encoding): PositionalEncoding()
  (encoder): TransformerEncoder(
    (layers): ModuleList(
      (0-11): 12 x TransformerEncoderLayer(
        (self_att): MultiheadAttention(
          (att): MultiheadAttention(
            (out_proj): NonDynamicallyQuantizableLinear(in_features=768, out_features=768, bias=True)
          )
        )
        (pos_ffn): PositionalwiseFeedForward(
          (ffn): Sequential(
            (0): Linear(in_features=768, out_features=3072, bias=True)
            (1): GELU(approximate='none')
            (2): Dropout(p=0.0, inplace=False)
            (3): Linear(in_features=3072, out_features=768, bias=True)
          )
        )
        (norm1): LayerNorm(
          (norm): LayerNorm((768,), eps=1e-06, elementwise_affine=True)
        )
        (norm2): LayerNorm(
          (norm): LayerNorm((768,), eps=1e-06, elementwise_affine=True)
        )
        (dropout1): Dropout(p=0.0, inplace=False)
        (dropout2): Dropout(p=0.0, inplace=False)
      )
    )
    (norm): LayerNorm(
      (norm): LayerNorm((768,), eps=1e-06, elementwise_affine=True)
    )
  )
  (custom_src_module): NormalizedEmbedding(
    (emb): Embedding(
      (Embedding): Embedding(5000, 768)
    )
  )
  (output_proj): ModuleList(
    (layers): ModuleList(
      (0): Linear(
        (w): Linear(in_features=768, out_features=768, bias=True)
      )
      (1): LayerNorm(
        (norm): LayerNorm((768,), eps=1e-06, elementwise_affine=True)
      )
      (2): Linear(
        (w): Linear(in_features=768, out_features=5000, bias=True)
      )
    )
  )
) loading from /scratch/flatala/speechbrain/transformer/results/conformer_small/7775/save/lm.ckpt, the transferred parameters did not have parameters for the key: positional_encoding.pe
2025-03-17 14:45:55,432 - speechbrain.utils.checkpoints - WARNING - During parameter transfer to TransformerLM(
  (positional_encoding): PositionalEncoding()
  (encoder): TransformerEncoder(
    (layers): ModuleList(
      (0-11): 12 x TransformerEncoderLayer(
        (self_att): MultiheadAttention(
          (att): MultiheadAttention(
            (out_proj): NonDynamicallyQuantizableLinear(in_features=768, out_features=768, bias=True)
          )
        )
        (pos_ffn): PositionalwiseFeedForward(
          (ffn): Sequential(
            (0): Linear(in_features=768, out_features=3072, bias=True)
            (1): GELU(approximate='none')
            (2): Dropout(p=0.0, inplace=False)
            (3): Linear(in_features=3072, out_features=768, bias=True)
          )
        )
        (norm1): LayerNorm(
          (norm): LayerNorm((768,), eps=1e-06, elementwise_affine=True)
        )
        (norm2): LayerNorm(
          (norm): LayerNorm((768,), eps=1e-06, elementwise_affine=True)
        )
        (dropout1): Dropout(p=0.0, inplace=False)
        (dropout2): Dropout(p=0.0, inplace=False)
      )
    )
    (norm): LayerNorm(
      (norm): LayerNorm((768,), eps=1e-06, elementwise_affine=True)
    )
  )
  (custom_src_module): NormalizedEmbedding(
    (emb): Embedding(
      (Embedding): Embedding(5000, 768)
    )
  )
  (output_proj): ModuleList(
    (layers): ModuleList(
      (0): Linear(
        (w): Linear(in_features=768, out_features=768, bias=True)
      )
      (1): LayerNorm(
        (norm): LayerNorm((768,), eps=1e-06, elementwise_affine=True)
      )
      (2): Linear(
        (w): Linear(in_features=768, out_features=5000, bias=True)
      )
    )
  )
) loading from /scratch/flatala/speechbrain/transformer/results/conformer_small/7775/save/lm.ckpt, the transferred parameters did not have parameters for the key: encoder.layers.0.self_att.att.in_proj_weight
2025-03-17 14:45:55,433 - speechbrain.utils.checkpoints - WARNING - During parameter transfer to TransformerLM(
  (positional_encoding): PositionalEncoding()
  (encoder): TransformerEncoder(
    (layers): ModuleList(
      (0-11): 12 x TransformerEncoderLayer(
        (self_att): MultiheadAttention(
          (att): MultiheadAttention(
            (out_proj): NonDynamicallyQuantizableLinear(in_features=768, out_features=768, bias=True)
          )
        )
        (pos_ffn): PositionalwiseFeedForward(
          (ffn): Sequential(
            (0): Linear(in_features=768, out_features=3072, bias=True)
            (1): GELU(approximate='none')
            (2): Dropout(p=0.0, inplace=False)
            (3): Linear(in_features=3072, out_features=768, bias=True)
          )
        )
        (norm1): LayerNorm(
          (norm): LayerNorm((768,), eps=1e-06, elementwise_affine=True)
        )
        (norm2): LayerNorm(
          (norm): LayerNorm((768,), eps=1e-06, elementwise_affine=True)
        )
        (dropout1): Dropout(p=0.0, inplace=False)
        (dropout2): Dropout(p=0.0, inplace=False)
      )
    )
    (norm): LayerNorm(
      (norm): LayerNorm((768,), eps=1e-06, elementwise_affine=True)
    )
  )
  (custom_src_module): NormalizedEmbedding(
    (emb): Embedding(
      (Embedding): Embedding(5000, 768)
    )
  )
  (output_proj): ModuleList(
    (layers): ModuleList(
      (0): Linear(
        (w): Linear(in_features=768, out_features=768, bias=True)
      )
      (1): LayerNorm(
        (norm): LayerNorm((768,), eps=1e-06, elementwise_affine=True)
      )
      (2): Linear(
        (w): Linear(in_features=768, out_features=5000, bias=True)
      )
    )
  )
) loading from /scratch/flatala/speechbrain/transformer/results/conformer_small/7775/save/lm.ckpt, the transferred parameters did not have parameters for the key: encoder.layers.0.self_att.att.in_proj_bias
2025-03-17 14:45:55,433 - speechbrain.utils.checkpoints - WARNING - During parameter transfer to TransformerLM(
  (positional_encoding): PositionalEncoding()
  (encoder): TransformerEncoder(
    (layers): ModuleList(
      (0-11): 12 x TransformerEncoderLayer(
        (self_att): MultiheadAttention(
          (att): MultiheadAttention(
            (out_proj): NonDynamicallyQuantizableLinear(in_features=768, out_features=768, bias=True)
          )
        )
        (pos_ffn): PositionalwiseFeedForward(
          (ffn): Sequential(
            (0): Linear(in_features=768, out_features=3072, bias=True)
            (1): GELU(approximate='none')
            (2): Dropout(p=0.0, inplace=False)
            (3): Linear(in_features=3072, out_features=768, bias=True)
          )
        )
        (norm1): LayerNorm(
          (norm): LayerNorm((768,), eps=1e-06, elementwise_affine=True)
        )
        (norm2): LayerNorm(
          (norm): LayerNorm((768,), eps=1e-06, elementwise_affine=True)
        )
        (dropout1): Dropout(p=0.0, inplace=False)
        (dropout2): Dropout(p=0.0, inplace=False)
      )
    )
    (norm): LayerNorm(
      (norm): LayerNorm((768,), eps=1e-06, elementwise_affine=True)
    )
  )
  (custom_src_module): NormalizedEmbedding(
    (emb): Embedding(
      (Embedding): Embedding(5000, 768)
    )
  )
  (output_proj): ModuleList(
    (layers): ModuleList(
      (0): Linear(
        (w): Linear(in_features=768, out_features=768, bias=True)
      )
      (1): LayerNorm(
        (norm): LayerNorm((768,), eps=1e-06, elementwise_affine=True)
      )
      (2): Linear(
        (w): Linear(in_features=768, out_features=5000, bias=True)
      )
    )
  )
) loading from /scratch/flatala/speechbrain/transformer/results/conformer_small/7775/save/lm.ckpt, the transferred parameters did not have parameters for the key: encoder.layers.0.self_att.att.out_proj.weight
2025-03-17 14:45:55,434 - speechbrain.utils.checkpoints - WARNING - During parameter transfer to TransformerLM(
  (positional_encoding): PositionalEncoding()
  (encoder): TransformerEncoder(
    (layers): ModuleList(
      (0-11): 12 x TransformerEncoderLayer(
        (self_att): MultiheadAttention(
          (att): MultiheadAttention(
            (out_proj): NonDynamicallyQuantizableLinear(in_features=768, out_features=768, bias=True)
          )
        )
        (pos_ffn): PositionalwiseFeedForward(
          (ffn): Sequential(
            (0): Linear(in_features=768, out_features=3072, bias=True)
            (1): GELU(approximate='none')
            (2): Dropout(p=0.0, inplace=False)
            (3): Linear(in_features=3072, out_features=768, bias=True)
          )
        )
        (norm1): LayerNorm(
          (norm): LayerNorm((768,), eps=1e-06, elementwise_affine=True)
        )
        (norm2): LayerNorm(
          (norm): LayerNorm((768,), eps=1e-06, elementwise_affine=True)
        )
        (dropout1): Dropout(p=0.0, inplace=False)
        (dropout2): Dropout(p=0.0, inplace=False)
      )
    )
    (norm): LayerNorm(
      (norm): LayerNorm((768,), eps=1e-06, elementwise_affine=True)
    )
  )
  (custom_src_module): NormalizedEmbedding(
    (emb): Embedding(
      (Embedding): Embedding(5000, 768)
    )
  )
  (output_proj): ModuleList(
    (layers): ModuleList(
      (0): Linear(
        (w): Linear(in_features=768, out_features=768, bias=True)
      )
      (1): LayerNorm(
        (norm): LayerNorm((768,), eps=1e-06, elementwise_affine=True)
      )
      (2): Linear(
        (w): Linear(in_features=768, out_features=5000, bias=True)
      )
    )
  )
) loading from /scratch/flatala/speechbrain/transformer/results/conformer_small/7775/save/lm.ckpt, the transferred parameters did not have parameters for the key: encoder.layers.0.self_att.att.out_proj.bias
2025-03-17 14:45:55,434 - speechbrain.utils.checkpoints - WARNING - During parameter transfer to TransformerLM(
  (positional_encoding): PositionalEncoding()
  (encoder): TransformerEncoder(
    (layers): ModuleList(
      (0-11): 12 x TransformerEncoderLayer(
        (self_att): MultiheadAttention(
          (att): MultiheadAttention(
            (out_proj): NonDynamicallyQuantizableLinear(in_features=768, out_features=768, bias=True)
          )
        )
        (pos_ffn): PositionalwiseFeedForward(
          (ffn): Sequential(
            (0): Linear(in_features=768, out_features=3072, bias=True)
            (1): GELU(approximate='none')
            (2): Dropout(p=0.0, inplace=False)
            (3): Linear(in_features=3072, out_features=768, bias=True)
          )
        )
        (norm1): LayerNorm(
          (norm): LayerNorm((768,), eps=1e-06, elementwise_affine=True)
        )
        (norm2): LayerNorm(
          (norm): LayerNorm((768,), eps=1e-06, elementwise_affine=True)
        )
        (dropout1): Dropout(p=0.0, inplace=False)
        (dropout2): Dropout(p=0.0, inplace=False)
      )
    )
    (norm): LayerNorm(
      (norm): LayerNorm((768,), eps=1e-06, elementwise_affine=True)
    )
  )
  (custom_src_module): NormalizedEmbedding(
    (emb): Embedding(
      (Embedding): Embedding(5000, 768)
    )
  )
  (output_proj): ModuleList(
    (layers): ModuleList(
      (0): Linear(
        (w): Linear(in_features=768, out_features=768, bias=True)
      )
      (1): LayerNorm(
        (norm): LayerNorm((768,), eps=1e-06, elementwise_affine=True)
      )
      (2): Linear(
        (w): Linear(in_features=768, out_features=5000, bias=True)
      )
    )
  )
) loading from /scratch/flatala/speechbrain/transformer/results/conformer_small/7775/save/lm.ckpt, the transferred parameters did not have parameters for the key: encoder.layers.0.pos_ffn.ffn.0.weight
2025-03-17 14:45:55,435 - speechbrain.utils.checkpoints - WARNING - During parameter transfer to TransformerLM(
  (positional_encoding): PositionalEncoding()
  (encoder): TransformerEncoder(
    (layers): ModuleList(
      (0-11): 12 x TransformerEncoderLayer(
        (self_att): MultiheadAttention(
          (att): MultiheadAttention(
            (out_proj): NonDynamicallyQuantizableLinear(in_features=768, out_features=768, bias=True)
          )
        )
        (pos_ffn): PositionalwiseFeedForward(
          (ffn): Sequential(
            (0): Linear(in_features=768, out_features=3072, bias=True)
            (1): GELU(approximate='none')
            (2): Dropout(p=0.0, inplace=False)
            (3): Linear(in_features=3072, out_features=768, bias=True)
          )
        )
        (norm1): LayerNorm(
          (norm): LayerNorm((768,), eps=1e-06, elementwise_affine=True)
        )
        (norm2): LayerNorm(
          (norm): LayerNorm((768,), eps=1e-06, elementwise_affine=True)
        )
        (dropout1): Dropout(p=0.0, inplace=False)
        (dropout2): Dropout(p=0.0, inplace=False)
      )
    )
    (norm): LayerNorm(
      (norm): LayerNorm((768,), eps=1e-06, elementwise_affine=True)
    )
  )
  (custom_src_module): NormalizedEmbedding(
    (emb): Embedding(
      (Embedding): Embedding(5000, 768)
    )
  )
  (output_proj): ModuleList(
    (layers): ModuleList(
      (0): Linear(
        (w): Linear(in_features=768, out_features=768, bias=True)
      )
      (1): LayerNorm(
        (norm): LayerNorm((768,), eps=1e-06, elementwise_affine=True)
      )
      (2): Linear(
        (w): Linear(in_features=768, out_features=5000, bias=True)
      )
    )
  )
) loading from /scratch/flatala/speechbrain/transformer/results/conformer_small/7775/save/lm.ckpt, the transferred parameters did not have parameters for the key: encoder.layers.0.pos_ffn.ffn.0.bias
2025-03-17 14:45:55,435 - speechbrain.utils.checkpoints - WARNING - During parameter transfer to TransformerLM(
  (positional_encoding): PositionalEncoding()
  (encoder): TransformerEncoder(
    (layers): ModuleList(
      (0-11): 12 x TransformerEncoderLayer(
        (self_att): MultiheadAttention(
          (att): MultiheadAttention(
            (out_proj): NonDynamicallyQuantizableLinear(in_features=768, out_features=768, bias=True)
          )
        )
        (pos_ffn): PositionalwiseFeedForward(
          (ffn): Sequential(
            (0): Linear(in_features=768, out_features=3072, bias=True)
            (1): GELU(approximate='none')
            (2): Dropout(p=0.0, inplace=False)
            (3): Linear(in_features=3072, out_features=768, bias=True)
          )
        )
        (norm1): LayerNorm(
          (norm): LayerNorm((768,), eps=1e-06, elementwise_affine=True)
        )
        (norm2): LayerNorm(
          (norm): LayerNorm((768,), eps=1e-06, elementwise_affine=True)
        )
        (dropout1): Dropout(p=0.0, inplace=False)
        (dropout2): Dropout(p=0.0, inplace=False)
      )
    )
    (norm): LayerNorm(
      (norm): LayerNorm((768,), eps=1e-06, elementwise_affine=True)
    )
  )
  (custom_src_module): NormalizedEmbedding(
    (emb): Embedding(
      (Embedding): Embedding(5000, 768)
    )
  )
  (output_proj): ModuleList(
    (layers): ModuleList(
      (0): Linear(
        (w): Linear(in_features=768, out_features=768, bias=True)
      )
      (1): LayerNorm(
        (norm): LayerNorm((768,), eps=1e-06, elementwise_affine=True)
      )
      (2): Linear(
        (w): Linear(in_features=768, out_features=5000, bias=True)
      )
    )
  )
) loading from /scratch/flatala/speechbrain/transformer/results/conformer_small/7775/save/lm.ckpt, the transferred parameters did not have parameters for the key: encoder.layers.0.pos_ffn.ffn.3.weight
2025-03-17 14:45:55,436 - speechbrain.utils.checkpoints - WARNING - During parameter transfer to TransformerLM(
  (positional_encoding): PositionalEncoding()
  (encoder): TransformerEncoder(
    (layers): ModuleList(
      (0-11): 12 x TransformerEncoderLayer(
        (self_att): MultiheadAttention(
          (att): MultiheadAttention(
            (out_proj): NonDynamicallyQuantizableLinear(in_features=768, out_features=768, bias=True)
          )
        )
        (pos_ffn): PositionalwiseFeedForward(
          (ffn): Sequential(
            (0): Linear(in_features=768, out_features=3072, bias=True)
            (1): GELU(approximate='none')
            (2): Dropout(p=0.0, inplace=False)
            (3): Linear(in_features=3072, out_features=768, bias=True)
          )
        )
        (norm1): LayerNorm(
          (norm): LayerNorm((768,), eps=1e-06, elementwise_affine=True)
        )
        (norm2): LayerNorm(
          (norm): LayerNorm((768,), eps=1e-06, elementwise_affine=True)
        )
        (dropout1): Dropout(p=0.0, inplace=False)
        (dropout2): Dropout(p=0.0, inplace=False)
      )
    )
    (norm): LayerNorm(
      (norm): LayerNorm((768,), eps=1e-06, elementwise_affine=True)
    )
  )
  (custom_src_module): NormalizedEmbedding(
    (emb): Embedding(
      (Embedding): Embedding(5000, 768)
    )
  )
  (output_proj): ModuleList(
    (layers): ModuleList(
      (0): Linear(
        (w): Linear(in_features=768, out_features=768, bias=True)
      )
      (1): LayerNorm(
        (norm): LayerNorm((768,), eps=1e-06, elementwise_affine=True)
      )
      (2): Linear(
        (w): Linear(in_features=768, out_features=5000, bias=True)
      )
    )
  )
) loading from /scratch/flatala/speechbrain/transformer/results/conformer_small/7775/save/lm.ckpt, the transferred parameters did not have parameters for the key: encoder.layers.0.pos_ffn.ffn.3.bias
2025-03-17 14:45:55,436 - speechbrain.utils.checkpoints - WARNING - During parameter transfer to TransformerLM(
  (positional_encoding): PositionalEncoding()
  (encoder): TransformerEncoder(
    (layers): ModuleList(
      (0-11): 12 x TransformerEncoderLayer(
        (self_att): MultiheadAttention(
          (att): MultiheadAttention(
            (out_proj): NonDynamicallyQuantizableLinear(in_features=768, out_features=768, bias=True)
          )
        )
        (pos_ffn): PositionalwiseFeedForward(
          (ffn): Sequential(
            (0): Linear(in_features=768, out_features=3072, bias=True)
            (1): GELU(approximate='none')
            (2): Dropout(p=0.0, inplace=False)
            (3): Linear(in_features=3072, out_features=768, bias=True)
          )
        )
        (norm1): LayerNorm(
          (norm): LayerNorm((768,), eps=1e-06, elementwise_affine=True)
        )
        (norm2): LayerNorm(
          (norm): LayerNorm((768,), eps=1e-06, elementwise_affine=True)
        )
        (dropout1): Dropout(p=0.0, inplace=False)
        (dropout2): Dropout(p=0.0, inplace=False)
      )
    )
    (norm): LayerNorm(
      (norm): LayerNorm((768,), eps=1e-06, elementwise_affine=True)
    )
  )
  (custom_src_module): NormalizedEmbedding(
    (emb): Embedding(
      (Embedding): Embedding(5000, 768)
    )
  )
  (output_proj): ModuleList(
    (layers): ModuleList(
      (0): Linear(
        (w): Linear(in_features=768, out_features=768, bias=True)
      )
      (1): LayerNorm(
        (norm): LayerNorm((768,), eps=1e-06, elementwise_affine=True)
      )
      (2): Linear(
        (w): Linear(in_features=768, out_features=5000, bias=True)
      )
    )
  )
) loading from /scratch/flatala/speechbrain/transformer/results/conformer_small/7775/save/lm.ckpt, the transferred parameters did not have parameters for the key: encoder.layers.0.norm1.norm.weight
2025-03-17 14:45:55,437 - speechbrain.utils.checkpoints - WARNING - During parameter transfer to TransformerLM(
  (positional_encoding): PositionalEncoding()
  (encoder): TransformerEncoder(
    (layers): ModuleList(
      (0-11): 12 x TransformerEncoderLayer(
        (self_att): MultiheadAttention(
          (att): MultiheadAttention(
            (out_proj): NonDynamicallyQuantizableLinear(in_features=768, out_features=768, bias=True)
          )
        )
        (pos_ffn): PositionalwiseFeedForward(
          (ffn): Sequential(
            (0): Linear(in_features=768, out_features=3072, bias=True)
            (1): GELU(approximate='none')
            (2): Dropout(p=0.0, inplace=False)
            (3): Linear(in_features=3072, out_features=768, bias=True)
          )
        )
        (norm1): LayerNorm(
          (norm): LayerNorm((768,), eps=1e-06, elementwise_affine=True)
        )
        (norm2): LayerNorm(
          (norm): LayerNorm((768,), eps=1e-06, elementwise_affine=True)
        )
        (dropout1): Dropout(p=0.0, inplace=False)
        (dropout2): Dropout(p=0.0, inplace=False)
      )
    )
    (norm): LayerNorm(
      (norm): LayerNorm((768,), eps=1e-06, elementwise_affine=True)
    )
  )
  (custom_src_module): NormalizedEmbedding(
    (emb): Embedding(
      (Embedding): Embedding(5000, 768)
    )
  )
  (output_proj): ModuleList(
    (layers): ModuleList(
      (0): Linear(
        (w): Linear(in_features=768, out_features=768, bias=True)
      )
      (1): LayerNorm(
        (norm): LayerNorm((768,), eps=1e-06, elementwise_affine=True)
      )
      (2): Linear(
        (w): Linear(in_features=768, out_features=5000, bias=True)
      )
    )
  )
) loading from /scratch/flatala/speechbrain/transformer/results/conformer_small/7775/save/lm.ckpt, the transferred parameters did not have parameters for the key: encoder.layers.0.norm1.norm.bias
2025-03-17 14:45:55,437 - speechbrain.utils.checkpoints - WARNING - During parameter transfer to TransformerLM(
  (positional_encoding): PositionalEncoding()
  (encoder): TransformerEncoder(
    (layers): ModuleList(
      (0-11): 12 x TransformerEncoderLayer(
        (self_att): MultiheadAttention(
          (att): MultiheadAttention(
            (out_proj): NonDynamicallyQuantizableLinear(in_features=768, out_features=768, bias=True)
          )
        )
        (pos_ffn): PositionalwiseFeedForward(
          (ffn): Sequential(
            (0): Linear(in_features=768, out_features=3072, bias=True)
            (1): GELU(approximate='none')
            (2): Dropout(p=0.0, inplace=False)
            (3): Linear(in_features=3072, out_features=768, bias=True)
          )
        )
        (norm1): LayerNorm(
          (norm): LayerNorm((768,), eps=1e-06, elementwise_affine=True)
        )
        (norm2): LayerNorm(
          (norm): LayerNorm((768,), eps=1e-06, elementwise_affine=True)
        )
        (dropout1): Dropout(p=0.0, inplace=False)
        (dropout2): Dropout(p=0.0, inplace=False)
      )
    )
    (norm): LayerNorm(
      (norm): LayerNorm((768,), eps=1e-06, elementwise_affine=True)
    )
  )
  (custom_src_module): NormalizedEmbedding(
    (emb): Embedding(
      (Embedding): Embedding(5000, 768)
    )
  )
  (output_proj): ModuleList(
    (layers): ModuleList(
      (0): Linear(
        (w): Linear(in_features=768, out_features=768, bias=True)
      )
      (1): LayerNorm(
        (norm): LayerNorm((768,), eps=1e-06, elementwise_affine=True)
      )
      (2): Linear(
        (w): Linear(in_features=768, out_features=5000, bias=True)
      )
    )
  )
) loading from /scratch/flatala/speechbrain/transformer/results/conformer_small/7775/save/lm.ckpt, the transferred parameters did not have parameters for the key: encoder.layers.0.norm2.norm.weight
2025-03-17 14:45:55,438 - speechbrain.utils.checkpoints - WARNING - During parameter transfer to TransformerLM(
  (positional_encoding): PositionalEncoding()
  (encoder): TransformerEncoder(
    (layers): ModuleList(
      (0-11): 12 x TransformerEncoderLayer(
        (self_att): MultiheadAttention(
          (att): MultiheadAttention(
            (out_proj): NonDynamicallyQuantizableLinear(in_features=768, out_features=768, bias=True)
          )
        )
        (pos_ffn): PositionalwiseFeedForward(
          (ffn): Sequential(
            (0): Linear(in_features=768, out_features=3072, bias=True)
            (1): GELU(approximate='none')
            (2): Dropout(p=0.0, inplace=False)
            (3): Linear(in_features=3072, out_features=768, bias=True)
          )
        )
        (norm1): LayerNorm(
          (norm): LayerNorm((768,), eps=1e-06, elementwise_affine=True)
        )
        (norm2): LayerNorm(
          (norm): LayerNorm((768,), eps=1e-06, elementwise_affine=True)
        )
        (dropout1): Dropout(p=0.0, inplace=False)
        (dropout2): Dropout(p=0.0, inplace=False)
      )
    )
    (norm): LayerNorm(
      (norm): LayerNorm((768,), eps=1e-06, elementwise_affine=True)
    )
  )
  (custom_src_module): NormalizedEmbedding(
    (emb): Embedding(
      (Embedding): Embedding(5000, 768)
    )
  )
  (output_proj): ModuleList(
    (layers): ModuleList(
      (0): Linear(
        (w): Linear(in_features=768, out_features=768, bias=True)
      )
      (1): LayerNorm(
        (norm): LayerNorm((768,), eps=1e-06, elementwise_affine=True)
      )
      (2): Linear(
        (w): Linear(in_features=768, out_features=5000, bias=True)
      )
    )
  )
) loading from /scratch/flatala/speechbrain/transformer/results/conformer_small/7775/save/lm.ckpt, the transferred parameters did not have parameters for the key: encoder.layers.0.norm2.norm.bias
2025-03-17 14:45:55,438 - speechbrain.utils.checkpoints - WARNING - During parameter transfer to TransformerLM(
  (positional_encoding): PositionalEncoding()
  (encoder): TransformerEncoder(
    (layers): ModuleList(
      (0-11): 12 x TransformerEncoderLayer(
        (self_att): MultiheadAttention(
          (att): MultiheadAttention(
            (out_proj): NonDynamicallyQuantizableLinear(in_features=768, out_features=768, bias=True)
          )
        )
        (pos_ffn): PositionalwiseFeedForward(
          (ffn): Sequential(
            (0): Linear(in_features=768, out_features=3072, bias=True)
            (1): GELU(approximate='none')
            (2): Dropout(p=0.0, inplace=False)
            (3): Linear(in_features=3072, out_features=768, bias=True)
          )
        )
        (norm1): LayerNorm(
          (norm): LayerNorm((768,), eps=1e-06, elementwise_affine=True)
        )
        (norm2): LayerNorm(
          (norm): LayerNorm((768,), eps=1e-06, elementwise_affine=True)
        )
        (dropout1): Dropout(p=0.0, inplace=False)
        (dropout2): Dropout(p=0.0, inplace=False)
      )
    )
    (norm): LayerNorm(
      (norm): LayerNorm((768,), eps=1e-06, elementwise_affine=True)
    )
  )
  (custom_src_module): NormalizedEmbedding(
    (emb): Embedding(
      (Embedding): Embedding(5000, 768)
    )
  )
  (output_proj): ModuleList(
    (layers): ModuleList(
      (0): Linear(
        (w): Linear(in_features=768, out_features=768, bias=True)
      )
      (1): LayerNorm(
        (norm): LayerNorm((768,), eps=1e-06, elementwise_affine=True)
      )
      (2): Linear(
        (w): Linear(in_features=768, out_features=5000, bias=True)
      )
    )
  )
) loading from /scratch/flatala/speechbrain/transformer/results/conformer_small/7775/save/lm.ckpt, the transferred parameters did not have parameters for the key: encoder.layers.1.self_att.att.in_proj_weight
2025-03-17 14:45:55,439 - speechbrain.utils.checkpoints - WARNING - During parameter transfer to TransformerLM(
  (positional_encoding): PositionalEncoding()
  (encoder): TransformerEncoder(
    (layers): ModuleList(
      (0-11): 12 x TransformerEncoderLayer(
        (self_att): MultiheadAttention(
          (att): MultiheadAttention(
            (out_proj): NonDynamicallyQuantizableLinear(in_features=768, out_features=768, bias=True)
          )
        )
        (pos_ffn): PositionalwiseFeedForward(
          (ffn): Sequential(
            (0): Linear(in_features=768, out_features=3072, bias=True)
            (1): GELU(approximate='none')
            (2): Dropout(p=0.0, inplace=False)
            (3): Linear(in_features=3072, out_features=768, bias=True)
          )
        )
        (norm1): LayerNorm(
          (norm): LayerNorm((768,), eps=1e-06, elementwise_affine=True)
        )
        (norm2): LayerNorm(
          (norm): LayerNorm((768,), eps=1e-06, elementwise_affine=True)
        )
        (dropout1): Dropout(p=0.0, inplace=False)
        (dropout2): Dropout(p=0.0, inplace=False)
      )
    )
    (norm): LayerNorm(
      (norm): LayerNorm((768,), eps=1e-06, elementwise_affine=True)
    )
  )
  (custom_src_module): NormalizedEmbedding(
    (emb): Embedding(
      (Embedding): Embedding(5000, 768)
    )
  )
  (output_proj): ModuleList(
    (layers): ModuleList(
      (0): Linear(
        (w): Linear(in_features=768, out_features=768, bias=True)
      )
      (1): LayerNorm(
        (norm): LayerNorm((768,), eps=1e-06, elementwise_affine=True)
      )
      (2): Linear(
        (w): Linear(in_features=768, out_features=5000, bias=True)
      )
    )
  )
) loading from /scratch/flatala/speechbrain/transformer/results/conformer_small/7775/save/lm.ckpt, the transferred parameters did not have parameters for the key: encoder.layers.1.self_att.att.in_proj_bias
2025-03-17 14:45:55,439 - speechbrain.utils.checkpoints - WARNING - During parameter transfer to TransformerLM(
  (positional_encoding): PositionalEncoding()
  (encoder): TransformerEncoder(
    (layers): ModuleList(
      (0-11): 12 x TransformerEncoderLayer(
        (self_att): MultiheadAttention(
          (att): MultiheadAttention(
            (out_proj): NonDynamicallyQuantizableLinear(in_features=768, out_features=768, bias=True)
          )
        )
        (pos_ffn): PositionalwiseFeedForward(
          (ffn): Sequential(
            (0): Linear(in_features=768, out_features=3072, bias=True)
            (1): GELU(approximate='none')
            (2): Dropout(p=0.0, inplace=False)
            (3): Linear(in_features=3072, out_features=768, bias=True)
          )
        )
        (norm1): LayerNorm(
          (norm): LayerNorm((768,), eps=1e-06, elementwise_affine=True)
        )
        (norm2): LayerNorm(
          (norm): LayerNorm((768,), eps=1e-06, elementwise_affine=True)
        )
        (dropout1): Dropout(p=0.0, inplace=False)
        (dropout2): Dropout(p=0.0, inplace=False)
      )
    )
    (norm): LayerNorm(
      (norm): LayerNorm((768,), eps=1e-06, elementwise_affine=True)
    )
  )
  (custom_src_module): NormalizedEmbedding(
    (emb): Embedding(
      (Embedding): Embedding(5000, 768)
    )
  )
  (output_proj): ModuleList(
    (layers): ModuleList(
      (0): Linear(
        (w): Linear(in_features=768, out_features=768, bias=True)
      )
      (1): LayerNorm(
        (norm): LayerNorm((768,), eps=1e-06, elementwise_affine=True)
      )
      (2): Linear(
        (w): Linear(in_features=768, out_features=5000, bias=True)
      )
    )
  )
) loading from /scratch/flatala/speechbrain/transformer/results/conformer_small/7775/save/lm.ckpt, the transferred parameters did not have parameters for the key: encoder.layers.1.self_att.att.out_proj.weight
2025-03-17 14:45:55,439 - speechbrain.utils.checkpoints - WARNING - During parameter transfer to TransformerLM(
  (positional_encoding): PositionalEncoding()
  (encoder): TransformerEncoder(
    (layers): ModuleList(
      (0-11): 12 x TransformerEncoderLayer(
        (self_att): MultiheadAttention(
          (att): MultiheadAttention(
            (out_proj): NonDynamicallyQuantizableLinear(in_features=768, out_features=768, bias=True)
          )
        )
        (pos_ffn): PositionalwiseFeedForward(
          (ffn): Sequential(
            (0): Linear(in_features=768, out_features=3072, bias=True)
            (1): GELU(approximate='none')
            (2): Dropout(p=0.0, inplace=False)
            (3): Linear(in_features=3072, out_features=768, bias=True)
          )
        )
        (norm1): LayerNorm(
          (norm): LayerNorm((768,), eps=1e-06, elementwise_affine=True)
        )
        (norm2): LayerNorm(
          (norm): LayerNorm((768,), eps=1e-06, elementwise_affine=True)
        )
        (dropout1): Dropout(p=0.0, inplace=False)
        (dropout2): Dropout(p=0.0, inplace=False)
      )
    )
    (norm): LayerNorm(
      (norm): LayerNorm((768,), eps=1e-06, elementwise_affine=True)
    )
  )
  (custom_src_module): NormalizedEmbedding(
    (emb): Embedding(
      (Embedding): Embedding(5000, 768)
    )
  )
  (output_proj): ModuleList(
    (layers): ModuleList(
      (0): Linear(
        (w): Linear(in_features=768, out_features=768, bias=True)
      )
      (1): LayerNorm(
        (norm): LayerNorm((768,), eps=1e-06, elementwise_affine=True)
      )
      (2): Linear(
        (w): Linear(in_features=768, out_features=5000, bias=True)
      )
    )
  )
) loading from /scratch/flatala/speechbrain/transformer/results/conformer_small/7775/save/lm.ckpt, the transferred parameters did not have parameters for the key: encoder.layers.1.self_att.att.out_proj.bias
2025-03-17 14:45:55,440 - speechbrain.utils.checkpoints - WARNING - During parameter transfer to TransformerLM(
  (positional_encoding): PositionalEncoding()
  (encoder): TransformerEncoder(
    (layers): ModuleList(
      (0-11): 12 x TransformerEncoderLayer(
        (self_att): MultiheadAttention(
          (att): MultiheadAttention(
            (out_proj): NonDynamicallyQuantizableLinear(in_features=768, out_features=768, bias=True)
          )
        )
        (pos_ffn): PositionalwiseFeedForward(
          (ffn): Sequential(
            (0): Linear(in_features=768, out_features=3072, bias=True)
            (1): GELU(approximate='none')
            (2): Dropout(p=0.0, inplace=False)
            (3): Linear(in_features=3072, out_features=768, bias=True)
          )
        )
        (norm1): LayerNorm(
          (norm): LayerNorm((768,), eps=1e-06, elementwise_affine=True)
        )
        (norm2): LayerNorm(
          (norm): LayerNorm((768,), eps=1e-06, elementwise_affine=True)
        )
        (dropout1): Dropout(p=0.0, inplace=False)
        (dropout2): Dropout(p=0.0, inplace=False)
      )
    )
    (norm): LayerNorm(
      (norm): LayerNorm((768,), eps=1e-06, elementwise_affine=True)
    )
  )
  (custom_src_module): NormalizedEmbedding(
    (emb): Embedding(
      (Embedding): Embedding(5000, 768)
    )
  )
  (output_proj): ModuleList(
    (layers): ModuleList(
      (0): Linear(
        (w): Linear(in_features=768, out_features=768, bias=True)
      )
      (1): LayerNorm(
        (norm): LayerNorm((768,), eps=1e-06, elementwise_affine=True)
      )
      (2): Linear(
        (w): Linear(in_features=768, out_features=5000, bias=True)
      )
    )
  )
) loading from /scratch/flatala/speechbrain/transformer/results/conformer_small/7775/save/lm.ckpt, the transferred parameters did not have parameters for the key: encoder.layers.1.pos_ffn.ffn.0.weight
2025-03-17 14:45:55,441 - speechbrain.utils.checkpoints - WARNING - During parameter transfer to TransformerLM(
  (positional_encoding): PositionalEncoding()
  (encoder): TransformerEncoder(
    (layers): ModuleList(
      (0-11): 12 x TransformerEncoderLayer(
        (self_att): MultiheadAttention(
          (att): MultiheadAttention(
            (out_proj): NonDynamicallyQuantizableLinear(in_features=768, out_features=768, bias=True)
          )
        )
        (pos_ffn): PositionalwiseFeedForward(
          (ffn): Sequential(
            (0): Linear(in_features=768, out_features=3072, bias=True)
            (1): GELU(approximate='none')
            (2): Dropout(p=0.0, inplace=False)
            (3): Linear(in_features=3072, out_features=768, bias=True)
          )
        )
        (norm1): LayerNorm(
          (norm): LayerNorm((768,), eps=1e-06, elementwise_affine=True)
        )
        (norm2): LayerNorm(
          (norm): LayerNorm((768,), eps=1e-06, elementwise_affine=True)
        )
        (dropout1): Dropout(p=0.0, inplace=False)
        (dropout2): Dropout(p=0.0, inplace=False)
      )
    )
    (norm): LayerNorm(
      (norm): LayerNorm((768,), eps=1e-06, elementwise_affine=True)
    )
  )
  (custom_src_module): NormalizedEmbedding(
    (emb): Embedding(
      (Embedding): Embedding(5000, 768)
    )
  )
  (output_proj): ModuleList(
    (layers): ModuleList(
      (0): Linear(
        (w): Linear(in_features=768, out_features=768, bias=True)
      )
      (1): LayerNorm(
        (norm): LayerNorm((768,), eps=1e-06, elementwise_affine=True)
      )
      (2): Linear(
        (w): Linear(in_features=768, out_features=5000, bias=True)
      )
    )
  )
) loading from /scratch/flatala/speechbrain/transformer/results/conformer_small/7775/save/lm.ckpt, the transferred parameters did not have parameters for the key: encoder.layers.1.pos_ffn.ffn.0.bias
2025-03-17 14:45:55,441 - speechbrain.utils.checkpoints - WARNING - During parameter transfer to TransformerLM(
  (positional_encoding): PositionalEncoding()
  (encoder): TransformerEncoder(
    (layers): ModuleList(
      (0-11): 12 x TransformerEncoderLayer(
        (self_att): MultiheadAttention(
          (att): MultiheadAttention(
            (out_proj): NonDynamicallyQuantizableLinear(in_features=768, out_features=768, bias=True)
          )
        )
        (pos_ffn): PositionalwiseFeedForward(
          (ffn): Sequential(
            (0): Linear(in_features=768, out_features=3072, bias=True)
            (1): GELU(approximate='none')
            (2): Dropout(p=0.0, inplace=False)
            (3): Linear(in_features=3072, out_features=768, bias=True)
          )
        )
        (norm1): LayerNorm(
          (norm): LayerNorm((768,), eps=1e-06, elementwise_affine=True)
        )
        (norm2): LayerNorm(
          (norm): LayerNorm((768,), eps=1e-06, elementwise_affine=True)
        )
        (dropout1): Dropout(p=0.0, inplace=False)
        (dropout2): Dropout(p=0.0, inplace=False)
      )
    )
    (norm): LayerNorm(
      (norm): LayerNorm((768,), eps=1e-06, elementwise_affine=True)
    )
  )
  (custom_src_module): NormalizedEmbedding(
    (emb): Embedding(
      (Embedding): Embedding(5000, 768)
    )
  )
  (output_proj): ModuleList(
    (layers): ModuleList(
      (0): Linear(
        (w): Linear(in_features=768, out_features=768, bias=True)
      )
      (1): LayerNorm(
        (norm): LayerNorm((768,), eps=1e-06, elementwise_affine=True)
      )
      (2): Linear(
        (w): Linear(in_features=768, out_features=5000, bias=True)
      )
    )
  )
) loading from /scratch/flatala/speechbrain/transformer/results/conformer_small/7775/save/lm.ckpt, the transferred parameters did not have parameters for the key: encoder.layers.1.pos_ffn.ffn.3.weight
2025-03-17 14:45:55,441 - speechbrain.utils.checkpoints - WARNING - During parameter transfer to TransformerLM(
  (positional_encoding): PositionalEncoding()
  (encoder): TransformerEncoder(
    (layers): ModuleList(
      (0-11): 12 x TransformerEncoderLayer(
        (self_att): MultiheadAttention(
          (att): MultiheadAttention(
            (out_proj): NonDynamicallyQuantizableLinear(in_features=768, out_features=768, bias=True)
          )
        )
        (pos_ffn): PositionalwiseFeedForward(
          (ffn): Sequential(
            (0): Linear(in_features=768, out_features=3072, bias=True)
            (1): GELU(approximate='none')
            (2): Dropout(p=0.0, inplace=False)
            (3): Linear(in_features=3072, out_features=768, bias=True)
          )
        )
        (norm1): LayerNorm(
          (norm): LayerNorm((768,), eps=1e-06, elementwise_affine=True)
        )
        (norm2): LayerNorm(
          (norm): LayerNorm((768,), eps=1e-06, elementwise_affine=True)
        )
        (dropout1): Dropout(p=0.0, inplace=False)
        (dropout2): Dropout(p=0.0, inplace=False)
      )
    )
    (norm): LayerNorm(
      (norm): LayerNorm((768,), eps=1e-06, elementwise_affine=True)
    )
  )
  (custom_src_module): NormalizedEmbedding(
    (emb): Embedding(
      (Embedding): Embedding(5000, 768)
    )
  )
  (output_proj): ModuleList(
    (layers): ModuleList(
      (0): Linear(
        (w): Linear(in_features=768, out_features=768, bias=True)
      )
      (1): LayerNorm(
        (norm): LayerNorm((768,), eps=1e-06, elementwise_affine=True)
      )
      (2): Linear(
        (w): Linear(in_features=768, out_features=5000, bias=True)
      )
    )
  )
) loading from /scratch/flatala/speechbrain/transformer/results/conformer_small/7775/save/lm.ckpt, the transferred parameters did not have parameters for the key: encoder.layers.1.pos_ffn.ffn.3.bias
2025-03-17 14:45:55,442 - speechbrain.utils.checkpoints - WARNING - During parameter transfer to TransformerLM(
  (positional_encoding): PositionalEncoding()
  (encoder): TransformerEncoder(
    (layers): ModuleList(
      (0-11): 12 x TransformerEncoderLayer(
        (self_att): MultiheadAttention(
          (att): MultiheadAttention(
            (out_proj): NonDynamicallyQuantizableLinear(in_features=768, out_features=768, bias=True)
          )
        )
        (pos_ffn): PositionalwiseFeedForward(
          (ffn): Sequential(
            (0): Linear(in_features=768, out_features=3072, bias=True)
            (1): GELU(approximate='none')
            (2): Dropout(p=0.0, inplace=False)
            (3): Linear(in_features=3072, out_features=768, bias=True)
          )
        )
        (norm1): LayerNorm(
          (norm): LayerNorm((768,), eps=1e-06, elementwise_affine=True)
        )
        (norm2): LayerNorm(
          (norm): LayerNorm((768,), eps=1e-06, elementwise_affine=True)
        )
        (dropout1): Dropout(p=0.0, inplace=False)
        (dropout2): Dropout(p=0.0, inplace=False)
      )
    )
    (norm): LayerNorm(
      (norm): LayerNorm((768,), eps=1e-06, elementwise_affine=True)
    )
  )
  (custom_src_module): NormalizedEmbedding(
    (emb): Embedding(
      (Embedding): Embedding(5000, 768)
    )
  )
  (output_proj): ModuleList(
    (layers): ModuleList(
      (0): Linear(
        (w): Linear(in_features=768, out_features=768, bias=True)
      )
      (1): LayerNorm(
        (norm): LayerNorm((768,), eps=1e-06, elementwise_affine=True)
      )
      (2): Linear(
        (w): Linear(in_features=768, out_features=5000, bias=True)
      )
    )
  )
) loading from /scratch/flatala/speechbrain/transformer/results/conformer_small/7775/save/lm.ckpt, the transferred parameters did not have parameters for the key: encoder.layers.1.norm1.norm.weight
2025-03-17 14:45:55,442 - speechbrain.utils.checkpoints - WARNING - During parameter transfer to TransformerLM(
  (positional_encoding): PositionalEncoding()
  (encoder): TransformerEncoder(
    (layers): ModuleList(
      (0-11): 12 x TransformerEncoderLayer(
        (self_att): MultiheadAttention(
          (att): MultiheadAttention(
            (out_proj): NonDynamicallyQuantizableLinear(in_features=768, out_features=768, bias=True)
          )
        )
        (pos_ffn): PositionalwiseFeedForward(
          (ffn): Sequential(
            (0): Linear(in_features=768, out_features=3072, bias=True)
            (1): GELU(approximate='none')
            (2): Dropout(p=0.0, inplace=False)
            (3): Linear(in_features=3072, out_features=768, bias=True)
          )
        )
        (norm1): LayerNorm(
          (norm): LayerNorm((768,), eps=1e-06, elementwise_affine=True)
        )
        (norm2): LayerNorm(
          (norm): LayerNorm((768,), eps=1e-06, elementwise_affine=True)
        )
        (dropout1): Dropout(p=0.0, inplace=False)
        (dropout2): Dropout(p=0.0, inplace=False)
      )
    )
    (norm): LayerNorm(
      (norm): LayerNorm((768,), eps=1e-06, elementwise_affine=True)
    )
  )
  (custom_src_module): NormalizedEmbedding(
    (emb): Embedding(
      (Embedding): Embedding(5000, 768)
    )
  )
  (output_proj): ModuleList(
    (layers): ModuleList(
      (0): Linear(
        (w): Linear(in_features=768, out_features=768, bias=True)
      )
      (1): LayerNorm(
        (norm): LayerNorm((768,), eps=1e-06, elementwise_affine=True)
      )
      (2): Linear(
        (w): Linear(in_features=768, out_features=5000, bias=True)
      )
    )
  )
) loading from /scratch/flatala/speechbrain/transformer/results/conformer_small/7775/save/lm.ckpt, the transferred parameters did not have parameters for the key: encoder.layers.1.norm1.norm.bias
2025-03-17 14:45:55,443 - speechbrain.utils.checkpoints - WARNING - During parameter transfer to TransformerLM(
  (positional_encoding): PositionalEncoding()
  (encoder): TransformerEncoder(
    (layers): ModuleList(
      (0-11): 12 x TransformerEncoderLayer(
        (self_att): MultiheadAttention(
          (att): MultiheadAttention(
            (out_proj): NonDynamicallyQuantizableLinear(in_features=768, out_features=768, bias=True)
          )
        )
        (pos_ffn): PositionalwiseFeedForward(
          (ffn): Sequential(
            (0): Linear(in_features=768, out_features=3072, bias=True)
            (1): GELU(approximate='none')
            (2): Dropout(p=0.0, inplace=False)
            (3): Linear(in_features=3072, out_features=768, bias=True)
          )
        )
        (norm1): LayerNorm(
          (norm): LayerNorm((768,), eps=1e-06, elementwise_affine=True)
        )
        (norm2): LayerNorm(
          (norm): LayerNorm((768,), eps=1e-06, elementwise_affine=True)
        )
        (dropout1): Dropout(p=0.0, inplace=False)
        (dropout2): Dropout(p=0.0, inplace=False)
      )
    )
    (norm): LayerNorm(
      (norm): LayerNorm((768,), eps=1e-06, elementwise_affine=True)
    )
  )
  (custom_src_module): NormalizedEmbedding(
    (emb): Embedding(
      (Embedding): Embedding(5000, 768)
    )
  )
  (output_proj): ModuleList(
    (layers): ModuleList(
      (0): Linear(
        (w): Linear(in_features=768, out_features=768, bias=True)
      )
      (1): LayerNorm(
        (norm): LayerNorm((768,), eps=1e-06, elementwise_affine=True)
      )
      (2): Linear(
        (w): Linear(in_features=768, out_features=5000, bias=True)
      )
    )
  )
) loading from /scratch/flatala/speechbrain/transformer/results/conformer_small/7775/save/lm.ckpt, the transferred parameters did not have parameters for the key: encoder.layers.1.norm2.norm.weight
2025-03-17 14:45:55,443 - speechbrain.utils.checkpoints - WARNING - During parameter transfer to TransformerLM(
  (positional_encoding): PositionalEncoding()
  (encoder): TransformerEncoder(
    (layers): ModuleList(
      (0-11): 12 x TransformerEncoderLayer(
        (self_att): MultiheadAttention(
          (att): MultiheadAttention(
            (out_proj): NonDynamicallyQuantizableLinear(in_features=768, out_features=768, bias=True)
          )
        )
        (pos_ffn): PositionalwiseFeedForward(
          (ffn): Sequential(
            (0): Linear(in_features=768, out_features=3072, bias=True)
            (1): GELU(approximate='none')
            (2): Dropout(p=0.0, inplace=False)
            (3): Linear(in_features=3072, out_features=768, bias=True)
          )
        )
        (norm1): LayerNorm(
          (norm): LayerNorm((768,), eps=1e-06, elementwise_affine=True)
        )
        (norm2): LayerNorm(
          (norm): LayerNorm((768,), eps=1e-06, elementwise_affine=True)
        )
        (dropout1): Dropout(p=0.0, inplace=False)
        (dropout2): Dropout(p=0.0, inplace=False)
      )
    )
    (norm): LayerNorm(
      (norm): LayerNorm((768,), eps=1e-06, elementwise_affine=True)
    )
  )
  (custom_src_module): NormalizedEmbedding(
    (emb): Embedding(
      (Embedding): Embedding(5000, 768)
    )
  )
  (output_proj): ModuleList(
    (layers): ModuleList(
      (0): Linear(
        (w): Linear(in_features=768, out_features=768, bias=True)
      )
      (1): LayerNorm(
        (norm): LayerNorm((768,), eps=1e-06, elementwise_affine=True)
      )
      (2): Linear(
        (w): Linear(in_features=768, out_features=5000, bias=True)
      )
    )
  )
) loading from /scratch/flatala/speechbrain/transformer/results/conformer_small/7775/save/lm.ckpt, the transferred parameters did not have parameters for the key: encoder.layers.1.norm2.norm.bias
2025-03-17 14:45:55,444 - speechbrain.utils.checkpoints - WARNING - During parameter transfer to TransformerLM(
  (positional_encoding): PositionalEncoding()
  (encoder): TransformerEncoder(
    (layers): ModuleList(
      (0-11): 12 x TransformerEncoderLayer(
        (self_att): MultiheadAttention(
          (att): MultiheadAttention(
            (out_proj): NonDynamicallyQuantizableLinear(in_features=768, out_features=768, bias=True)
          )
        )
        (pos_ffn): PositionalwiseFeedForward(
          (ffn): Sequential(
            (0): Linear(in_features=768, out_features=3072, bias=True)
            (1): GELU(approximate='none')
            (2): Dropout(p=0.0, inplace=False)
            (3): Linear(in_features=3072, out_features=768, bias=True)
          )
        )
        (norm1): LayerNorm(
          (norm): LayerNorm((768,), eps=1e-06, elementwise_affine=True)
        )
        (norm2): LayerNorm(
          (norm): LayerNorm((768,), eps=1e-06, elementwise_affine=True)
        )
        (dropout1): Dropout(p=0.0, inplace=False)
        (dropout2): Dropout(p=0.0, inplace=False)
      )
    )
    (norm): LayerNorm(
      (norm): LayerNorm((768,), eps=1e-06, elementwise_affine=True)
    )
  )
  (custom_src_module): NormalizedEmbedding(
    (emb): Embedding(
      (Embedding): Embedding(5000, 768)
    )
  )
  (output_proj): ModuleList(
    (layers): ModuleList(
      (0): Linear(
        (w): Linear(in_features=768, out_features=768, bias=True)
      )
      (1): LayerNorm(
        (norm): LayerNorm((768,), eps=1e-06, elementwise_affine=True)
      )
      (2): Linear(
        (w): Linear(in_features=768, out_features=5000, bias=True)
      )
    )
  )
) loading from /scratch/flatala/speechbrain/transformer/results/conformer_small/7775/save/lm.ckpt, the transferred parameters did not have parameters for the key: encoder.layers.2.self_att.att.in_proj_weight
2025-03-17 14:45:55,444 - speechbrain.utils.checkpoints - WARNING - During parameter transfer to TransformerLM(
  (positional_encoding): PositionalEncoding()
  (encoder): TransformerEncoder(
    (layers): ModuleList(
      (0-11): 12 x TransformerEncoderLayer(
        (self_att): MultiheadAttention(
          (att): MultiheadAttention(
            (out_proj): NonDynamicallyQuantizableLinear(in_features=768, out_features=768, bias=True)
          )
        )
        (pos_ffn): PositionalwiseFeedForward(
          (ffn): Sequential(
            (0): Linear(in_features=768, out_features=3072, bias=True)
            (1): GELU(approximate='none')
            (2): Dropout(p=0.0, inplace=False)
            (3): Linear(in_features=3072, out_features=768, bias=True)
          )
        )
        (norm1): LayerNorm(
          (norm): LayerNorm((768,), eps=1e-06, elementwise_affine=True)
        )
        (norm2): LayerNorm(
          (norm): LayerNorm((768,), eps=1e-06, elementwise_affine=True)
        )
        (dropout1): Dropout(p=0.0, inplace=False)
        (dropout2): Dropout(p=0.0, inplace=False)
      )
    )
    (norm): LayerNorm(
      (norm): LayerNorm((768,), eps=1e-06, elementwise_affine=True)
    )
  )
  (custom_src_module): NormalizedEmbedding(
    (emb): Embedding(
      (Embedding): Embedding(5000, 768)
    )
  )
  (output_proj): ModuleList(
    (layers): ModuleList(
      (0): Linear(
        (w): Linear(in_features=768, out_features=768, bias=True)
      )
      (1): LayerNorm(
        (norm): LayerNorm((768,), eps=1e-06, elementwise_affine=True)
      )
      (2): Linear(
        (w): Linear(in_features=768, out_features=5000, bias=True)
      )
    )
  )
) loading from /scratch/flatala/speechbrain/transformer/results/conformer_small/7775/save/lm.ckpt, the transferred parameters did not have parameters for the key: encoder.layers.2.self_att.att.in_proj_bias
2025-03-17 14:45:55,445 - speechbrain.utils.checkpoints - WARNING - During parameter transfer to TransformerLM(
  (positional_encoding): PositionalEncoding()
  (encoder): TransformerEncoder(
    (layers): ModuleList(
      (0-11): 12 x TransformerEncoderLayer(
        (self_att): MultiheadAttention(
          (att): MultiheadAttention(
            (out_proj): NonDynamicallyQuantizableLinear(in_features=768, out_features=768, bias=True)
          )
        )
        (pos_ffn): PositionalwiseFeedForward(
          (ffn): Sequential(
            (0): Linear(in_features=768, out_features=3072, bias=True)
            (1): GELU(approximate='none')
            (2): Dropout(p=0.0, inplace=False)
            (3): Linear(in_features=3072, out_features=768, bias=True)
          )
        )
        (norm1): LayerNorm(
          (norm): LayerNorm((768,), eps=1e-06, elementwise_affine=True)
        )
        (norm2): LayerNorm(
          (norm): LayerNorm((768,), eps=1e-06, elementwise_affine=True)
        )
        (dropout1): Dropout(p=0.0, inplace=False)
        (dropout2): Dropout(p=0.0, inplace=False)
      )
    )
    (norm): LayerNorm(
      (norm): LayerNorm((768,), eps=1e-06, elementwise_affine=True)
    )
  )
  (custom_src_module): NormalizedEmbedding(
    (emb): Embedding(
      (Embedding): Embedding(5000, 768)
    )
  )
  (output_proj): ModuleList(
    (layers): ModuleList(
      (0): Linear(
        (w): Linear(in_features=768, out_features=768, bias=True)
      )
      (1): LayerNorm(
        (norm): LayerNorm((768,), eps=1e-06, elementwise_affine=True)
      )
      (2): Linear(
        (w): Linear(in_features=768, out_features=5000, bias=True)
      )
    )
  )
) loading from /scratch/flatala/speechbrain/transformer/results/conformer_small/7775/save/lm.ckpt, the transferred parameters did not have parameters for the key: encoder.layers.2.self_att.att.out_proj.weight
2025-03-17 14:45:55,445 - speechbrain.utils.checkpoints - WARNING - During parameter transfer to TransformerLM(
  (positional_encoding): PositionalEncoding()
  (encoder): TransformerEncoder(
    (layers): ModuleList(
      (0-11): 12 x TransformerEncoderLayer(
        (self_att): MultiheadAttention(
          (att): MultiheadAttention(
            (out_proj): NonDynamicallyQuantizableLinear(in_features=768, out_features=768, bias=True)
          )
        )
        (pos_ffn): PositionalwiseFeedForward(
          (ffn): Sequential(
            (0): Linear(in_features=768, out_features=3072, bias=True)
            (1): GELU(approximate='none')
            (2): Dropout(p=0.0, inplace=False)
            (3): Linear(in_features=3072, out_features=768, bias=True)
          )
        )
        (norm1): LayerNorm(
          (norm): LayerNorm((768,), eps=1e-06, elementwise_affine=True)
        )
        (norm2): LayerNorm(
          (norm): LayerNorm((768,), eps=1e-06, elementwise_affine=True)
        )
        (dropout1): Dropout(p=0.0, inplace=False)
        (dropout2): Dropout(p=0.0, inplace=False)
      )
    )
    (norm): LayerNorm(
      (norm): LayerNorm((768,), eps=1e-06, elementwise_affine=True)
    )
  )
  (custom_src_module): NormalizedEmbedding(
    (emb): Embedding(
      (Embedding): Embedding(5000, 768)
    )
  )
  (output_proj): ModuleList(
    (layers): ModuleList(
      (0): Linear(
        (w): Linear(in_features=768, out_features=768, bias=True)
      )
      (1): LayerNorm(
        (norm): LayerNorm((768,), eps=1e-06, elementwise_affine=True)
      )
      (2): Linear(
        (w): Linear(in_features=768, out_features=5000, bias=True)
      )
    )
  )
) loading from /scratch/flatala/speechbrain/transformer/results/conformer_small/7775/save/lm.ckpt, the transferred parameters did not have parameters for the key: encoder.layers.2.self_att.att.out_proj.bias
2025-03-17 14:45:55,446 - speechbrain.utils.checkpoints - WARNING - During parameter transfer to TransformerLM(
  (positional_encoding): PositionalEncoding()
  (encoder): TransformerEncoder(
    (layers): ModuleList(
      (0-11): 12 x TransformerEncoderLayer(
        (self_att): MultiheadAttention(
          (att): MultiheadAttention(
            (out_proj): NonDynamicallyQuantizableLinear(in_features=768, out_features=768, bias=True)
          )
        )
        (pos_ffn): PositionalwiseFeedForward(
          (ffn): Sequential(
            (0): Linear(in_features=768, out_features=3072, bias=True)
            (1): GELU(approximate='none')
            (2): Dropout(p=0.0, inplace=False)
            (3): Linear(in_features=3072, out_features=768, bias=True)
          )
        )
        (norm1): LayerNorm(
          (norm): LayerNorm((768,), eps=1e-06, elementwise_affine=True)
        )
        (norm2): LayerNorm(
          (norm): LayerNorm((768,), eps=1e-06, elementwise_affine=True)
        )
        (dropout1): Dropout(p=0.0, inplace=False)
        (dropout2): Dropout(p=0.0, inplace=False)
      )
    )
    (norm): LayerNorm(
      (norm): LayerNorm((768,), eps=1e-06, elementwise_affine=True)
    )
  )
  (custom_src_module): NormalizedEmbedding(
    (emb): Embedding(
      (Embedding): Embedding(5000, 768)
    )
  )
  (output_proj): ModuleList(
    (layers): ModuleList(
      (0): Linear(
        (w): Linear(in_features=768, out_features=768, bias=True)
      )
      (1): LayerNorm(
        (norm): LayerNorm((768,), eps=1e-06, elementwise_affine=True)
      )
      (2): Linear(
        (w): Linear(in_features=768, out_features=5000, bias=True)
      )
    )
  )
) loading from /scratch/flatala/speechbrain/transformer/results/conformer_small/7775/save/lm.ckpt, the transferred parameters did not have parameters for the key: encoder.layers.2.pos_ffn.ffn.0.weight
2025-03-17 14:45:55,446 - speechbrain.utils.checkpoints - WARNING - During parameter transfer to TransformerLM(
  (positional_encoding): PositionalEncoding()
  (encoder): TransformerEncoder(
    (layers): ModuleList(
      (0-11): 12 x TransformerEncoderLayer(
        (self_att): MultiheadAttention(
          (att): MultiheadAttention(
            (out_proj): NonDynamicallyQuantizableLinear(in_features=768, out_features=768, bias=True)
          )
        )
        (pos_ffn): PositionalwiseFeedForward(
          (ffn): Sequential(
            (0): Linear(in_features=768, out_features=3072, bias=True)
            (1): GELU(approximate='none')
            (2): Dropout(p=0.0, inplace=False)
            (3): Linear(in_features=3072, out_features=768, bias=True)
          )
        )
        (norm1): LayerNorm(
          (norm): LayerNorm((768,), eps=1e-06, elementwise_affine=True)
        )
        (norm2): LayerNorm(
          (norm): LayerNorm((768,), eps=1e-06, elementwise_affine=True)
        )
        (dropout1): Dropout(p=0.0, inplace=False)
        (dropout2): Dropout(p=0.0, inplace=False)
      )
    )
    (norm): LayerNorm(
      (norm): LayerNorm((768,), eps=1e-06, elementwise_affine=True)
    )
  )
  (custom_src_module): NormalizedEmbedding(
    (emb): Embedding(
      (Embedding): Embedding(5000, 768)
    )
  )
  (output_proj): ModuleList(
    (layers): ModuleList(
      (0): Linear(
        (w): Linear(in_features=768, out_features=768, bias=True)
      )
      (1): LayerNorm(
        (norm): LayerNorm((768,), eps=1e-06, elementwise_affine=True)
      )
      (2): Linear(
        (w): Linear(in_features=768, out_features=5000, bias=True)
      )
    )
  )
) loading from /scratch/flatala/speechbrain/transformer/results/conformer_small/7775/save/lm.ckpt, the transferred parameters did not have parameters for the key: encoder.layers.2.pos_ffn.ffn.0.bias
2025-03-17 14:45:55,447 - speechbrain.utils.checkpoints - WARNING - During parameter transfer to TransformerLM(
  (positional_encoding): PositionalEncoding()
  (encoder): TransformerEncoder(
    (layers): ModuleList(
      (0-11): 12 x TransformerEncoderLayer(
        (self_att): MultiheadAttention(
          (att): MultiheadAttention(
            (out_proj): NonDynamicallyQuantizableLinear(in_features=768, out_features=768, bias=True)
          )
        )
        (pos_ffn): PositionalwiseFeedForward(
          (ffn): Sequential(
            (0): Linear(in_features=768, out_features=3072, bias=True)
            (1): GELU(approximate='none')
            (2): Dropout(p=0.0, inplace=False)
            (3): Linear(in_features=3072, out_features=768, bias=True)
          )
        )
        (norm1): LayerNorm(
          (norm): LayerNorm((768,), eps=1e-06, elementwise_affine=True)
        )
        (norm2): LayerNorm(
          (norm): LayerNorm((768,), eps=1e-06, elementwise_affine=True)
        )
        (dropout1): Dropout(p=0.0, inplace=False)
        (dropout2): Dropout(p=0.0, inplace=False)
      )
    )
    (norm): LayerNorm(
      (norm): LayerNorm((768,), eps=1e-06, elementwise_affine=True)
    )
  )
  (custom_src_module): NormalizedEmbedding(
    (emb): Embedding(
      (Embedding): Embedding(5000, 768)
    )
  )
  (output_proj): ModuleList(
    (layers): ModuleList(
      (0): Linear(
        (w): Linear(in_features=768, out_features=768, bias=True)
      )
      (1): LayerNorm(
        (norm): LayerNorm((768,), eps=1e-06, elementwise_affine=True)
      )
      (2): Linear(
        (w): Linear(in_features=768, out_features=5000, bias=True)
      )
    )
  )
) loading from /scratch/flatala/speechbrain/transformer/results/conformer_small/7775/save/lm.ckpt, the transferred parameters did not have parameters for the key: encoder.layers.2.pos_ffn.ffn.3.weight
2025-03-17 14:45:55,447 - speechbrain.utils.checkpoints - WARNING - During parameter transfer to TransformerLM(
  (positional_encoding): PositionalEncoding()
  (encoder): TransformerEncoder(
    (layers): ModuleList(
      (0-11): 12 x TransformerEncoderLayer(
        (self_att): MultiheadAttention(
          (att): MultiheadAttention(
            (out_proj): NonDynamicallyQuantizableLinear(in_features=768, out_features=768, bias=True)
          )
        )
        (pos_ffn): PositionalwiseFeedForward(
          (ffn): Sequential(
            (0): Linear(in_features=768, out_features=3072, bias=True)
            (1): GELU(approximate='none')
            (2): Dropout(p=0.0, inplace=False)
            (3): Linear(in_features=3072, out_features=768, bias=True)
          )
        )
        (norm1): LayerNorm(
          (norm): LayerNorm((768,), eps=1e-06, elementwise_affine=True)
        )
        (norm2): LayerNorm(
          (norm): LayerNorm((768,), eps=1e-06, elementwise_affine=True)
        )
        (dropout1): Dropout(p=0.0, inplace=False)
        (dropout2): Dropout(p=0.0, inplace=False)
      )
    )
    (norm): LayerNorm(
      (norm): LayerNorm((768,), eps=1e-06, elementwise_affine=True)
    )
  )
  (custom_src_module): NormalizedEmbedding(
    (emb): Embedding(
      (Embedding): Embedding(5000, 768)
    )
  )
  (output_proj): ModuleList(
    (layers): ModuleList(
      (0): Linear(
        (w): Linear(in_features=768, out_features=768, bias=True)
      )
      (1): LayerNorm(
        (norm): LayerNorm((768,), eps=1e-06, elementwise_affine=True)
      )
      (2): Linear(
        (w): Linear(in_features=768, out_features=5000, bias=True)
      )
    )
  )
) loading from /scratch/flatala/speechbrain/transformer/results/conformer_small/7775/save/lm.ckpt, the transferred parameters did not have parameters for the key: encoder.layers.2.pos_ffn.ffn.3.bias
2025-03-17 14:45:55,448 - speechbrain.utils.checkpoints - WARNING - During parameter transfer to TransformerLM(
  (positional_encoding): PositionalEncoding()
  (encoder): TransformerEncoder(
    (layers): ModuleList(
      (0-11): 12 x TransformerEncoderLayer(
        (self_att): MultiheadAttention(
          (att): MultiheadAttention(
            (out_proj): NonDynamicallyQuantizableLinear(in_features=768, out_features=768, bias=True)
          )
        )
        (pos_ffn): PositionalwiseFeedForward(
          (ffn): Sequential(
            (0): Linear(in_features=768, out_features=3072, bias=True)
            (1): GELU(approximate='none')
            (2): Dropout(p=0.0, inplace=False)
            (3): Linear(in_features=3072, out_features=768, bias=True)
          )
        )
        (norm1): LayerNorm(
          (norm): LayerNorm((768,), eps=1e-06, elementwise_affine=True)
        )
        (norm2): LayerNorm(
          (norm): LayerNorm((768,), eps=1e-06, elementwise_affine=True)
        )
        (dropout1): Dropout(p=0.0, inplace=False)
        (dropout2): Dropout(p=0.0, inplace=False)
      )
    )
    (norm): LayerNorm(
      (norm): LayerNorm((768,), eps=1e-06, elementwise_affine=True)
    )
  )
  (custom_src_module): NormalizedEmbedding(
    (emb): Embedding(
      (Embedding): Embedding(5000, 768)
    )
  )
  (output_proj): ModuleList(
    (layers): ModuleList(
      (0): Linear(
        (w): Linear(in_features=768, out_features=768, bias=True)
      )
      (1): LayerNorm(
        (norm): LayerNorm((768,), eps=1e-06, elementwise_affine=True)
      )
      (2): Linear(
        (w): Linear(in_features=768, out_features=5000, bias=True)
      )
    )
  )
) loading from /scratch/flatala/speechbrain/transformer/results/conformer_small/7775/save/lm.ckpt, the transferred parameters did not have parameters for the key: encoder.layers.2.norm1.norm.weight
2025-03-17 14:45:55,448 - speechbrain.utils.checkpoints - WARNING - During parameter transfer to TransformerLM(
  (positional_encoding): PositionalEncoding()
  (encoder): TransformerEncoder(
    (layers): ModuleList(
      (0-11): 12 x TransformerEncoderLayer(
        (self_att): MultiheadAttention(
          (att): MultiheadAttention(
            (out_proj): NonDynamicallyQuantizableLinear(in_features=768, out_features=768, bias=True)
          )
        )
        (pos_ffn): PositionalwiseFeedForward(
          (ffn): Sequential(
            (0): Linear(in_features=768, out_features=3072, bias=True)
            (1): GELU(approximate='none')
            (2): Dropout(p=0.0, inplace=False)
            (3): Linear(in_features=3072, out_features=768, bias=True)
          )
        )
        (norm1): LayerNorm(
          (norm): LayerNorm((768,), eps=1e-06, elementwise_affine=True)
        )
        (norm2): LayerNorm(
          (norm): LayerNorm((768,), eps=1e-06, elementwise_affine=True)
        )
        (dropout1): Dropout(p=0.0, inplace=False)
        (dropout2): Dropout(p=0.0, inplace=False)
      )
    )
    (norm): LayerNorm(
      (norm): LayerNorm((768,), eps=1e-06, elementwise_affine=True)
    )
  )
  (custom_src_module): NormalizedEmbedding(
    (emb): Embedding(
      (Embedding): Embedding(5000, 768)
    )
  )
  (output_proj): ModuleList(
    (layers): ModuleList(
      (0): Linear(
        (w): Linear(in_features=768, out_features=768, bias=True)
      )
      (1): LayerNorm(
        (norm): LayerNorm((768,), eps=1e-06, elementwise_affine=True)
      )
      (2): Linear(
        (w): Linear(in_features=768, out_features=5000, bias=True)
      )
    )
  )
) loading from /scratch/flatala/speechbrain/transformer/results/conformer_small/7775/save/lm.ckpt, the transferred parameters did not have parameters for the key: encoder.layers.2.norm1.norm.bias
2025-03-17 14:45:55,448 - speechbrain.utils.checkpoints - WARNING - During parameter transfer to TransformerLM(
  (positional_encoding): PositionalEncoding()
  (encoder): TransformerEncoder(
    (layers): ModuleList(
      (0-11): 12 x TransformerEncoderLayer(
        (self_att): MultiheadAttention(
          (att): MultiheadAttention(
            (out_proj): NonDynamicallyQuantizableLinear(in_features=768, out_features=768, bias=True)
          )
        )
        (pos_ffn): PositionalwiseFeedForward(
          (ffn): Sequential(
            (0): Linear(in_features=768, out_features=3072, bias=True)
            (1): GELU(approximate='none')
            (2): Dropout(p=0.0, inplace=False)
            (3): Linear(in_features=3072, out_features=768, bias=True)
          )
        )
        (norm1): LayerNorm(
          (norm): LayerNorm((768,), eps=1e-06, elementwise_affine=True)
        )
        (norm2): LayerNorm(
          (norm): LayerNorm((768,), eps=1e-06, elementwise_affine=True)
        )
        (dropout1): Dropout(p=0.0, inplace=False)
        (dropout2): Dropout(p=0.0, inplace=False)
      )
    )
    (norm): LayerNorm(
      (norm): LayerNorm((768,), eps=1e-06, elementwise_affine=True)
    )
  )
  (custom_src_module): NormalizedEmbedding(
    (emb): Embedding(
      (Embedding): Embedding(5000, 768)
    )
  )
  (output_proj): ModuleList(
    (layers): ModuleList(
      (0): Linear(
        (w): Linear(in_features=768, out_features=768, bias=True)
      )
      (1): LayerNorm(
        (norm): LayerNorm((768,), eps=1e-06, elementwise_affine=True)
      )
      (2): Linear(
        (w): Linear(in_features=768, out_features=5000, bias=True)
      )
    )
  )
) loading from /scratch/flatala/speechbrain/transformer/results/conformer_small/7775/save/lm.ckpt, the transferred parameters did not have parameters for the key: encoder.layers.2.norm2.norm.weight
2025-03-17 14:45:55,449 - speechbrain.utils.checkpoints - WARNING - During parameter transfer to TransformerLM(
  (positional_encoding): PositionalEncoding()
  (encoder): TransformerEncoder(
    (layers): ModuleList(
      (0-11): 12 x TransformerEncoderLayer(
        (self_att): MultiheadAttention(
          (att): MultiheadAttention(
            (out_proj): NonDynamicallyQuantizableLinear(in_features=768, out_features=768, bias=True)
          )
        )
        (pos_ffn): PositionalwiseFeedForward(
          (ffn): Sequential(
            (0): Linear(in_features=768, out_features=3072, bias=True)
            (1): GELU(approximate='none')
            (2): Dropout(p=0.0, inplace=False)
            (3): Linear(in_features=3072, out_features=768, bias=True)
          )
        )
        (norm1): LayerNorm(
          (norm): LayerNorm((768,), eps=1e-06, elementwise_affine=True)
        )
        (norm2): LayerNorm(
          (norm): LayerNorm((768,), eps=1e-06, elementwise_affine=True)
        )
        (dropout1): Dropout(p=0.0, inplace=False)
        (dropout2): Dropout(p=0.0, inplace=False)
      )
    )
    (norm): LayerNorm(
      (norm): LayerNorm((768,), eps=1e-06, elementwise_affine=True)
    )
  )
  (custom_src_module): NormalizedEmbedding(
    (emb): Embedding(
      (Embedding): Embedding(5000, 768)
    )
  )
  (output_proj): ModuleList(
    (layers): ModuleList(
      (0): Linear(
        (w): Linear(in_features=768, out_features=768, bias=True)
      )
      (1): LayerNorm(
        (norm): LayerNorm((768,), eps=1e-06, elementwise_affine=True)
      )
      (2): Linear(
        (w): Linear(in_features=768, out_features=5000, bias=True)
      )
    )
  )
) loading from /scratch/flatala/speechbrain/transformer/results/conformer_small/7775/save/lm.ckpt, the transferred parameters did not have parameters for the key: encoder.layers.2.norm2.norm.bias
2025-03-17 14:45:55,449 - speechbrain.utils.checkpoints - WARNING - During parameter transfer to TransformerLM(
  (positional_encoding): PositionalEncoding()
  (encoder): TransformerEncoder(
    (layers): ModuleList(
      (0-11): 12 x TransformerEncoderLayer(
        (self_att): MultiheadAttention(
          (att): MultiheadAttention(
            (out_proj): NonDynamicallyQuantizableLinear(in_features=768, out_features=768, bias=True)
          )
        )
        (pos_ffn): PositionalwiseFeedForward(
          (ffn): Sequential(
            (0): Linear(in_features=768, out_features=3072, bias=True)
            (1): GELU(approximate='none')
            (2): Dropout(p=0.0, inplace=False)
            (3): Linear(in_features=3072, out_features=768, bias=True)
          )
        )
        (norm1): LayerNorm(
          (norm): LayerNorm((768,), eps=1e-06, elementwise_affine=True)
        )
        (norm2): LayerNorm(
          (norm): LayerNorm((768,), eps=1e-06, elementwise_affine=True)
        )
        (dropout1): Dropout(p=0.0, inplace=False)
        (dropout2): Dropout(p=0.0, inplace=False)
      )
    )
    (norm): LayerNorm(
      (norm): LayerNorm((768,), eps=1e-06, elementwise_affine=True)
    )
  )
  (custom_src_module): NormalizedEmbedding(
    (emb): Embedding(
      (Embedding): Embedding(5000, 768)
    )
  )
  (output_proj): ModuleList(
    (layers): ModuleList(
      (0): Linear(
        (w): Linear(in_features=768, out_features=768, bias=True)
      )
      (1): LayerNorm(
        (norm): LayerNorm((768,), eps=1e-06, elementwise_affine=True)
      )
      (2): Linear(
        (w): Linear(in_features=768, out_features=5000, bias=True)
      )
    )
  )
) loading from /scratch/flatala/speechbrain/transformer/results/conformer_small/7775/save/lm.ckpt, the transferred parameters did not have parameters for the key: encoder.layers.3.self_att.att.in_proj_weight
2025-03-17 14:45:55,450 - speechbrain.utils.checkpoints - WARNING - During parameter transfer to TransformerLM(
  (positional_encoding): PositionalEncoding()
  (encoder): TransformerEncoder(
    (layers): ModuleList(
      (0-11): 12 x TransformerEncoderLayer(
        (self_att): MultiheadAttention(
          (att): MultiheadAttention(
            (out_proj): NonDynamicallyQuantizableLinear(in_features=768, out_features=768, bias=True)
          )
        )
        (pos_ffn): PositionalwiseFeedForward(
          (ffn): Sequential(
            (0): Linear(in_features=768, out_features=3072, bias=True)
            (1): GELU(approximate='none')
            (2): Dropout(p=0.0, inplace=False)
            (3): Linear(in_features=3072, out_features=768, bias=True)
          )
        )
        (norm1): LayerNorm(
          (norm): LayerNorm((768,), eps=1e-06, elementwise_affine=True)
        )
        (norm2): LayerNorm(
          (norm): LayerNorm((768,), eps=1e-06, elementwise_affine=True)
        )
        (dropout1): Dropout(p=0.0, inplace=False)
        (dropout2): Dropout(p=0.0, inplace=False)
      )
    )
    (norm): LayerNorm(
      (norm): LayerNorm((768,), eps=1e-06, elementwise_affine=True)
    )
  )
  (custom_src_module): NormalizedEmbedding(
    (emb): Embedding(
      (Embedding): Embedding(5000, 768)
    )
  )
  (output_proj): ModuleList(
    (layers): ModuleList(
      (0): Linear(
        (w): Linear(in_features=768, out_features=768, bias=True)
      )
      (1): LayerNorm(
        (norm): LayerNorm((768,), eps=1e-06, elementwise_affine=True)
      )
      (2): Linear(
        (w): Linear(in_features=768, out_features=5000, bias=True)
      )
    )
  )
) loading from /scratch/flatala/speechbrain/transformer/results/conformer_small/7775/save/lm.ckpt, the transferred parameters did not have parameters for the key: encoder.layers.3.self_att.att.in_proj_bias
2025-03-17 14:45:55,450 - speechbrain.utils.checkpoints - WARNING - During parameter transfer to TransformerLM(
  (positional_encoding): PositionalEncoding()
  (encoder): TransformerEncoder(
    (layers): ModuleList(
      (0-11): 12 x TransformerEncoderLayer(
        (self_att): MultiheadAttention(
          (att): MultiheadAttention(
            (out_proj): NonDynamicallyQuantizableLinear(in_features=768, out_features=768, bias=True)
          )
        )
        (pos_ffn): PositionalwiseFeedForward(
          (ffn): Sequential(
            (0): Linear(in_features=768, out_features=3072, bias=True)
            (1): GELU(approximate='none')
            (2): Dropout(p=0.0, inplace=False)
            (3): Linear(in_features=3072, out_features=768, bias=True)
          )
        )
        (norm1): LayerNorm(
          (norm): LayerNorm((768,), eps=1e-06, elementwise_affine=True)
        )
        (norm2): LayerNorm(
          (norm): LayerNorm((768,), eps=1e-06, elementwise_affine=True)
        )
        (dropout1): Dropout(p=0.0, inplace=False)
        (dropout2): Dropout(p=0.0, inplace=False)
      )
    )
    (norm): LayerNorm(
      (norm): LayerNorm((768,), eps=1e-06, elementwise_affine=True)
    )
  )
  (custom_src_module): NormalizedEmbedding(
    (emb): Embedding(
      (Embedding): Embedding(5000, 768)
    )
  )
  (output_proj): ModuleList(
    (layers): ModuleList(
      (0): Linear(
        (w): Linear(in_features=768, out_features=768, bias=True)
      )
      (1): LayerNorm(
        (norm): LayerNorm((768,), eps=1e-06, elementwise_affine=True)
      )
      (2): Linear(
        (w): Linear(in_features=768, out_features=5000, bias=True)
      )
    )
  )
) loading from /scratch/flatala/speechbrain/transformer/results/conformer_small/7775/save/lm.ckpt, the transferred parameters did not have parameters for the key: encoder.layers.3.self_att.att.out_proj.weight
2025-03-17 14:45:55,451 - speechbrain.utils.checkpoints - WARNING - During parameter transfer to TransformerLM(
  (positional_encoding): PositionalEncoding()
  (encoder): TransformerEncoder(
    (layers): ModuleList(
      (0-11): 12 x TransformerEncoderLayer(
        (self_att): MultiheadAttention(
          (att): MultiheadAttention(
            (out_proj): NonDynamicallyQuantizableLinear(in_features=768, out_features=768, bias=True)
          )
        )
        (pos_ffn): PositionalwiseFeedForward(
          (ffn): Sequential(
            (0): Linear(in_features=768, out_features=3072, bias=True)
            (1): GELU(approximate='none')
            (2): Dropout(p=0.0, inplace=False)
            (3): Linear(in_features=3072, out_features=768, bias=True)
          )
        )
        (norm1): LayerNorm(
          (norm): LayerNorm((768,), eps=1e-06, elementwise_affine=True)
        )
        (norm2): LayerNorm(
          (norm): LayerNorm((768,), eps=1e-06, elementwise_affine=True)
        )
        (dropout1): Dropout(p=0.0, inplace=False)
        (dropout2): Dropout(p=0.0, inplace=False)
      )
    )
    (norm): LayerNorm(
      (norm): LayerNorm((768,), eps=1e-06, elementwise_affine=True)
    )
  )
  (custom_src_module): NormalizedEmbedding(
    (emb): Embedding(
      (Embedding): Embedding(5000, 768)
    )
  )
  (output_proj): ModuleList(
    (layers): ModuleList(
      (0): Linear(
        (w): Linear(in_features=768, out_features=768, bias=True)
      )
      (1): LayerNorm(
        (norm): LayerNorm((768,), eps=1e-06, elementwise_affine=True)
      )
      (2): Linear(
        (w): Linear(in_features=768, out_features=5000, bias=True)
      )
    )
  )
) loading from /scratch/flatala/speechbrain/transformer/results/conformer_small/7775/save/lm.ckpt, the transferred parameters did not have parameters for the key: encoder.layers.3.self_att.att.out_proj.bias
2025-03-17 14:45:55,451 - speechbrain.utils.checkpoints - WARNING - During parameter transfer to TransformerLM(
  (positional_encoding): PositionalEncoding()
  (encoder): TransformerEncoder(
    (layers): ModuleList(
      (0-11): 12 x TransformerEncoderLayer(
        (self_att): MultiheadAttention(
          (att): MultiheadAttention(
            (out_proj): NonDynamicallyQuantizableLinear(in_features=768, out_features=768, bias=True)
          )
        )
        (pos_ffn): PositionalwiseFeedForward(
          (ffn): Sequential(
            (0): Linear(in_features=768, out_features=3072, bias=True)
            (1): GELU(approximate='none')
            (2): Dropout(p=0.0, inplace=False)
            (3): Linear(in_features=3072, out_features=768, bias=True)
          )
        )
        (norm1): LayerNorm(
          (norm): LayerNorm((768,), eps=1e-06, elementwise_affine=True)
        )
        (norm2): LayerNorm(
          (norm): LayerNorm((768,), eps=1e-06, elementwise_affine=True)
        )
        (dropout1): Dropout(p=0.0, inplace=False)
        (dropout2): Dropout(p=0.0, inplace=False)
      )
    )
    (norm): LayerNorm(
      (norm): LayerNorm((768,), eps=1e-06, elementwise_affine=True)
    )
  )
  (custom_src_module): NormalizedEmbedding(
    (emb): Embedding(
      (Embedding): Embedding(5000, 768)
    )
  )
  (output_proj): ModuleList(
    (layers): ModuleList(
      (0): Linear(
        (w): Linear(in_features=768, out_features=768, bias=True)
      )
      (1): LayerNorm(
        (norm): LayerNorm((768,), eps=1e-06, elementwise_affine=True)
      )
      (2): Linear(
        (w): Linear(in_features=768, out_features=5000, bias=True)
      )
    )
  )
) loading from /scratch/flatala/speechbrain/transformer/results/conformer_small/7775/save/lm.ckpt, the transferred parameters did not have parameters for the key: encoder.layers.3.pos_ffn.ffn.0.weight
2025-03-17 14:45:55,452 - speechbrain.utils.checkpoints - WARNING - During parameter transfer to TransformerLM(
  (positional_encoding): PositionalEncoding()
  (encoder): TransformerEncoder(
    (layers): ModuleList(
      (0-11): 12 x TransformerEncoderLayer(
        (self_att): MultiheadAttention(
          (att): MultiheadAttention(
            (out_proj): NonDynamicallyQuantizableLinear(in_features=768, out_features=768, bias=True)
          )
        )
        (pos_ffn): PositionalwiseFeedForward(
          (ffn): Sequential(
            (0): Linear(in_features=768, out_features=3072, bias=True)
            (1): GELU(approximate='none')
            (2): Dropout(p=0.0, inplace=False)
            (3): Linear(in_features=3072, out_features=768, bias=True)
          )
        )
        (norm1): LayerNorm(
          (norm): LayerNorm((768,), eps=1e-06, elementwise_affine=True)
        )
        (norm2): LayerNorm(
          (norm): LayerNorm((768,), eps=1e-06, elementwise_affine=True)
        )
        (dropout1): Dropout(p=0.0, inplace=False)
        (dropout2): Dropout(p=0.0, inplace=False)
      )
    )
    (norm): LayerNorm(
      (norm): LayerNorm((768,), eps=1e-06, elementwise_affine=True)
    )
  )
  (custom_src_module): NormalizedEmbedding(
    (emb): Embedding(
      (Embedding): Embedding(5000, 768)
    )
  )
  (output_proj): ModuleList(
    (layers): ModuleList(
      (0): Linear(
        (w): Linear(in_features=768, out_features=768, bias=True)
      )
      (1): LayerNorm(
        (norm): LayerNorm((768,), eps=1e-06, elementwise_affine=True)
      )
      (2): Linear(
        (w): Linear(in_features=768, out_features=5000, bias=True)
      )
    )
  )
) loading from /scratch/flatala/speechbrain/transformer/results/conformer_small/7775/save/lm.ckpt, the transferred parameters did not have parameters for the key: encoder.layers.3.pos_ffn.ffn.0.bias
2025-03-17 14:45:55,452 - speechbrain.utils.checkpoints - WARNING - During parameter transfer to TransformerLM(
  (positional_encoding): PositionalEncoding()
  (encoder): TransformerEncoder(
    (layers): ModuleList(
      (0-11): 12 x TransformerEncoderLayer(
        (self_att): MultiheadAttention(
          (att): MultiheadAttention(
            (out_proj): NonDynamicallyQuantizableLinear(in_features=768, out_features=768, bias=True)
          )
        )
        (pos_ffn): PositionalwiseFeedForward(
          (ffn): Sequential(
            (0): Linear(in_features=768, out_features=3072, bias=True)
            (1): GELU(approximate='none')
            (2): Dropout(p=0.0, inplace=False)
            (3): Linear(in_features=3072, out_features=768, bias=True)
          )
        )
        (norm1): LayerNorm(
          (norm): LayerNorm((768,), eps=1e-06, elementwise_affine=True)
        )
        (norm2): LayerNorm(
          (norm): LayerNorm((768,), eps=1e-06, elementwise_affine=True)
        )
        (dropout1): Dropout(p=0.0, inplace=False)
        (dropout2): Dropout(p=0.0, inplace=False)
      )
    )
    (norm): LayerNorm(
      (norm): LayerNorm((768,), eps=1e-06, elementwise_affine=True)
    )
  )
  (custom_src_module): NormalizedEmbedding(
    (emb): Embedding(
      (Embedding): Embedding(5000, 768)
    )
  )
  (output_proj): ModuleList(
    (layers): ModuleList(
      (0): Linear(
        (w): Linear(in_features=768, out_features=768, bias=True)
      )
      (1): LayerNorm(
        (norm): LayerNorm((768,), eps=1e-06, elementwise_affine=True)
      )
      (2): Linear(
        (w): Linear(in_features=768, out_features=5000, bias=True)
      )
    )
  )
) loading from /scratch/flatala/speechbrain/transformer/results/conformer_small/7775/save/lm.ckpt, the transferred parameters did not have parameters for the key: encoder.layers.3.pos_ffn.ffn.3.weight
2025-03-17 14:45:55,453 - speechbrain.utils.checkpoints - WARNING - During parameter transfer to TransformerLM(
  (positional_encoding): PositionalEncoding()
  (encoder): TransformerEncoder(
    (layers): ModuleList(
      (0-11): 12 x TransformerEncoderLayer(
        (self_att): MultiheadAttention(
          (att): MultiheadAttention(
            (out_proj): NonDynamicallyQuantizableLinear(in_features=768, out_features=768, bias=True)
          )
        )
        (pos_ffn): PositionalwiseFeedForward(
          (ffn): Sequential(
            (0): Linear(in_features=768, out_features=3072, bias=True)
            (1): GELU(approximate='none')
            (2): Dropout(p=0.0, inplace=False)
            (3): Linear(in_features=3072, out_features=768, bias=True)
          )
        )
        (norm1): LayerNorm(
          (norm): LayerNorm((768,), eps=1e-06, elementwise_affine=True)
        )
        (norm2): LayerNorm(
          (norm): LayerNorm((768,), eps=1e-06, elementwise_affine=True)
        )
        (dropout1): Dropout(p=0.0, inplace=False)
        (dropout2): Dropout(p=0.0, inplace=False)
      )
    )
    (norm): LayerNorm(
      (norm): LayerNorm((768,), eps=1e-06, elementwise_affine=True)
    )
  )
  (custom_src_module): NormalizedEmbedding(
    (emb): Embedding(
      (Embedding): Embedding(5000, 768)
    )
  )
  (output_proj): ModuleList(
    (layers): ModuleList(
      (0): Linear(
        (w): Linear(in_features=768, out_features=768, bias=True)
      )
      (1): LayerNorm(
        (norm): LayerNorm((768,), eps=1e-06, elementwise_affine=True)
      )
      (2): Linear(
        (w): Linear(in_features=768, out_features=5000, bias=True)
      )
    )
  )
) loading from /scratch/flatala/speechbrain/transformer/results/conformer_small/7775/save/lm.ckpt, the transferred parameters did not have parameters for the key: encoder.layers.3.pos_ffn.ffn.3.bias
2025-03-17 14:45:55,453 - speechbrain.utils.checkpoints - WARNING - During parameter transfer to TransformerLM(
  (positional_encoding): PositionalEncoding()
  (encoder): TransformerEncoder(
    (layers): ModuleList(
      (0-11): 12 x TransformerEncoderLayer(
        (self_att): MultiheadAttention(
          (att): MultiheadAttention(
            (out_proj): NonDynamicallyQuantizableLinear(in_features=768, out_features=768, bias=True)
          )
        )
        (pos_ffn): PositionalwiseFeedForward(
          (ffn): Sequential(
            (0): Linear(in_features=768, out_features=3072, bias=True)
            (1): GELU(approximate='none')
            (2): Dropout(p=0.0, inplace=False)
            (3): Linear(in_features=3072, out_features=768, bias=True)
          )
        )
        (norm1): LayerNorm(
          (norm): LayerNorm((768,), eps=1e-06, elementwise_affine=True)
        )
        (norm2): LayerNorm(
          (norm): LayerNorm((768,), eps=1e-06, elementwise_affine=True)
        )
        (dropout1): Dropout(p=0.0, inplace=False)
        (dropout2): Dropout(p=0.0, inplace=False)
      )
    )
    (norm): LayerNorm(
      (norm): LayerNorm((768,), eps=1e-06, elementwise_affine=True)
    )
  )
  (custom_src_module): NormalizedEmbedding(
    (emb): Embedding(
      (Embedding): Embedding(5000, 768)
    )
  )
  (output_proj): ModuleList(
    (layers): ModuleList(
      (0): Linear(
        (w): Linear(in_features=768, out_features=768, bias=True)
      )
      (1): LayerNorm(
        (norm): LayerNorm((768,), eps=1e-06, elementwise_affine=True)
      )
      (2): Linear(
        (w): Linear(in_features=768, out_features=5000, bias=True)
      )
    )
  )
) loading from /scratch/flatala/speechbrain/transformer/results/conformer_small/7775/save/lm.ckpt, the transferred parameters did not have parameters for the key: encoder.layers.3.norm1.norm.weight
2025-03-17 14:45:55,454 - speechbrain.utils.checkpoints - WARNING - During parameter transfer to TransformerLM(
  (positional_encoding): PositionalEncoding()
  (encoder): TransformerEncoder(
    (layers): ModuleList(
      (0-11): 12 x TransformerEncoderLayer(
        (self_att): MultiheadAttention(
          (att): MultiheadAttention(
            (out_proj): NonDynamicallyQuantizableLinear(in_features=768, out_features=768, bias=True)
          )
        )
        (pos_ffn): PositionalwiseFeedForward(
          (ffn): Sequential(
            (0): Linear(in_features=768, out_features=3072, bias=True)
            (1): GELU(approximate='none')
            (2): Dropout(p=0.0, inplace=False)
            (3): Linear(in_features=3072, out_features=768, bias=True)
          )
        )
        (norm1): LayerNorm(
          (norm): LayerNorm((768,), eps=1e-06, elementwise_affine=True)
        )
        (norm2): LayerNorm(
          (norm): LayerNorm((768,), eps=1e-06, elementwise_affine=True)
        )
        (dropout1): Dropout(p=0.0, inplace=False)
        (dropout2): Dropout(p=0.0, inplace=False)
      )
    )
    (norm): LayerNorm(
      (norm): LayerNorm((768,), eps=1e-06, elementwise_affine=True)
    )
  )
  (custom_src_module): NormalizedEmbedding(
    (emb): Embedding(
      (Embedding): Embedding(5000, 768)
    )
  )
  (output_proj): ModuleList(
    (layers): ModuleList(
      (0): Linear(
        (w): Linear(in_features=768, out_features=768, bias=True)
      )
      (1): LayerNorm(
        (norm): LayerNorm((768,), eps=1e-06, elementwise_affine=True)
      )
      (2): Linear(
        (w): Linear(in_features=768, out_features=5000, bias=True)
      )
    )
  )
) loading from /scratch/flatala/speechbrain/transformer/results/conformer_small/7775/save/lm.ckpt, the transferred parameters did not have parameters for the key: encoder.layers.3.norm1.norm.bias
2025-03-17 14:45:55,454 - speechbrain.utils.checkpoints - WARNING - During parameter transfer to TransformerLM(
  (positional_encoding): PositionalEncoding()
  (encoder): TransformerEncoder(
    (layers): ModuleList(
      (0-11): 12 x TransformerEncoderLayer(
        (self_att): MultiheadAttention(
          (att): MultiheadAttention(
            (out_proj): NonDynamicallyQuantizableLinear(in_features=768, out_features=768, bias=True)
          )
        )
        (pos_ffn): PositionalwiseFeedForward(
          (ffn): Sequential(
            (0): Linear(in_features=768, out_features=3072, bias=True)
            (1): GELU(approximate='none')
            (2): Dropout(p=0.0, inplace=False)
            (3): Linear(in_features=3072, out_features=768, bias=True)
          )
        )
        (norm1): LayerNorm(
          (norm): LayerNorm((768,), eps=1e-06, elementwise_affine=True)
        )
        (norm2): LayerNorm(
          (norm): LayerNorm((768,), eps=1e-06, elementwise_affine=True)
        )
        (dropout1): Dropout(p=0.0, inplace=False)
        (dropout2): Dropout(p=0.0, inplace=False)
      )
    )
    (norm): LayerNorm(
      (norm): LayerNorm((768,), eps=1e-06, elementwise_affine=True)
    )
  )
  (custom_src_module): NormalizedEmbedding(
    (emb): Embedding(
      (Embedding): Embedding(5000, 768)
    )
  )
  (output_proj): ModuleList(
    (layers): ModuleList(
      (0): Linear(
        (w): Linear(in_features=768, out_features=768, bias=True)
      )
      (1): LayerNorm(
        (norm): LayerNorm((768,), eps=1e-06, elementwise_affine=True)
      )
      (2): Linear(
        (w): Linear(in_features=768, out_features=5000, bias=True)
      )
    )
  )
) loading from /scratch/flatala/speechbrain/transformer/results/conformer_small/7775/save/lm.ckpt, the transferred parameters did not have parameters for the key: encoder.layers.3.norm2.norm.weight
2025-03-17 14:45:55,455 - speechbrain.utils.checkpoints - WARNING - During parameter transfer to TransformerLM(
  (positional_encoding): PositionalEncoding()
  (encoder): TransformerEncoder(
    (layers): ModuleList(
      (0-11): 12 x TransformerEncoderLayer(
        (self_att): MultiheadAttention(
          (att): MultiheadAttention(
            (out_proj): NonDynamicallyQuantizableLinear(in_features=768, out_features=768, bias=True)
          )
        )
        (pos_ffn): PositionalwiseFeedForward(
          (ffn): Sequential(
            (0): Linear(in_features=768, out_features=3072, bias=True)
            (1): GELU(approximate='none')
            (2): Dropout(p=0.0, inplace=False)
            (3): Linear(in_features=3072, out_features=768, bias=True)
          )
        )
        (norm1): LayerNorm(
          (norm): LayerNorm((768,), eps=1e-06, elementwise_affine=True)
        )
        (norm2): LayerNorm(
          (norm): LayerNorm((768,), eps=1e-06, elementwise_affine=True)
        )
        (dropout1): Dropout(p=0.0, inplace=False)
        (dropout2): Dropout(p=0.0, inplace=False)
      )
    )
    (norm): LayerNorm(
      (norm): LayerNorm((768,), eps=1e-06, elementwise_affine=True)
    )
  )
  (custom_src_module): NormalizedEmbedding(
    (emb): Embedding(
      (Embedding): Embedding(5000, 768)
    )
  )
  (output_proj): ModuleList(
    (layers): ModuleList(
      (0): Linear(
        (w): Linear(in_features=768, out_features=768, bias=True)
      )
      (1): LayerNorm(
        (norm): LayerNorm((768,), eps=1e-06, elementwise_affine=True)
      )
      (2): Linear(
        (w): Linear(in_features=768, out_features=5000, bias=True)
      )
    )
  )
) loading from /scratch/flatala/speechbrain/transformer/results/conformer_small/7775/save/lm.ckpt, the transferred parameters did not have parameters for the key: encoder.layers.3.norm2.norm.bias
2025-03-17 14:45:55,455 - speechbrain.utils.checkpoints - WARNING - During parameter transfer to TransformerLM(
  (positional_encoding): PositionalEncoding()
  (encoder): TransformerEncoder(
    (layers): ModuleList(
      (0-11): 12 x TransformerEncoderLayer(
        (self_att): MultiheadAttention(
          (att): MultiheadAttention(
            (out_proj): NonDynamicallyQuantizableLinear(in_features=768, out_features=768, bias=True)
          )
        )
        (pos_ffn): PositionalwiseFeedForward(
          (ffn): Sequential(
            (0): Linear(in_features=768, out_features=3072, bias=True)
            (1): GELU(approximate='none')
            (2): Dropout(p=0.0, inplace=False)
            (3): Linear(in_features=3072, out_features=768, bias=True)
          )
        )
        (norm1): LayerNorm(
          (norm): LayerNorm((768,), eps=1e-06, elementwise_affine=True)
        )
        (norm2): LayerNorm(
          (norm): LayerNorm((768,), eps=1e-06, elementwise_affine=True)
        )
        (dropout1): Dropout(p=0.0, inplace=False)
        (dropout2): Dropout(p=0.0, inplace=False)
      )
    )
    (norm): LayerNorm(
      (norm): LayerNorm((768,), eps=1e-06, elementwise_affine=True)
    )
  )
  (custom_src_module): NormalizedEmbedding(
    (emb): Embedding(
      (Embedding): Embedding(5000, 768)
    )
  )
  (output_proj): ModuleList(
    (layers): ModuleList(
      (0): Linear(
        (w): Linear(in_features=768, out_features=768, bias=True)
      )
      (1): LayerNorm(
        (norm): LayerNorm((768,), eps=1e-06, elementwise_affine=True)
      )
      (2): Linear(
        (w): Linear(in_features=768, out_features=5000, bias=True)
      )
    )
  )
) loading from /scratch/flatala/speechbrain/transformer/results/conformer_small/7775/save/lm.ckpt, the transferred parameters did not have parameters for the key: encoder.layers.4.self_att.att.in_proj_weight
2025-03-17 14:45:55,456 - speechbrain.utils.checkpoints - WARNING - During parameter transfer to TransformerLM(
  (positional_encoding): PositionalEncoding()
  (encoder): TransformerEncoder(
    (layers): ModuleList(
      (0-11): 12 x TransformerEncoderLayer(
        (self_att): MultiheadAttention(
          (att): MultiheadAttention(
            (out_proj): NonDynamicallyQuantizableLinear(in_features=768, out_features=768, bias=True)
          )
        )
        (pos_ffn): PositionalwiseFeedForward(
          (ffn): Sequential(
            (0): Linear(in_features=768, out_features=3072, bias=True)
            (1): GELU(approximate='none')
            (2): Dropout(p=0.0, inplace=False)
            (3): Linear(in_features=3072, out_features=768, bias=True)
          )
        )
        (norm1): LayerNorm(
          (norm): LayerNorm((768,), eps=1e-06, elementwise_affine=True)
        )
        (norm2): LayerNorm(
          (norm): LayerNorm((768,), eps=1e-06, elementwise_affine=True)
        )
        (dropout1): Dropout(p=0.0, inplace=False)
        (dropout2): Dropout(p=0.0, inplace=False)
      )
    )
    (norm): LayerNorm(
      (norm): LayerNorm((768,), eps=1e-06, elementwise_affine=True)
    )
  )
  (custom_src_module): NormalizedEmbedding(
    (emb): Embedding(
      (Embedding): Embedding(5000, 768)
    )
  )
  (output_proj): ModuleList(
    (layers): ModuleList(
      (0): Linear(
        (w): Linear(in_features=768, out_features=768, bias=True)
      )
      (1): LayerNorm(
        (norm): LayerNorm((768,), eps=1e-06, elementwise_affine=True)
      )
      (2): Linear(
        (w): Linear(in_features=768, out_features=5000, bias=True)
      )
    )
  )
) loading from /scratch/flatala/speechbrain/transformer/results/conformer_small/7775/save/lm.ckpt, the transferred parameters did not have parameters for the key: encoder.layers.4.self_att.att.in_proj_bias
2025-03-17 14:45:55,456 - speechbrain.utils.checkpoints - WARNING - During parameter transfer to TransformerLM(
  (positional_encoding): PositionalEncoding()
  (encoder): TransformerEncoder(
    (layers): ModuleList(
      (0-11): 12 x TransformerEncoderLayer(
        (self_att): MultiheadAttention(
          (att): MultiheadAttention(
            (out_proj): NonDynamicallyQuantizableLinear(in_features=768, out_features=768, bias=True)
          )
        )
        (pos_ffn): PositionalwiseFeedForward(
          (ffn): Sequential(
            (0): Linear(in_features=768, out_features=3072, bias=True)
            (1): GELU(approximate='none')
            (2): Dropout(p=0.0, inplace=False)
            (3): Linear(in_features=3072, out_features=768, bias=True)
          )
        )
        (norm1): LayerNorm(
          (norm): LayerNorm((768,), eps=1e-06, elementwise_affine=True)
        )
        (norm2): LayerNorm(
          (norm): LayerNorm((768,), eps=1e-06, elementwise_affine=True)
        )
        (dropout1): Dropout(p=0.0, inplace=False)
        (dropout2): Dropout(p=0.0, inplace=False)
      )
    )
    (norm): LayerNorm(
      (norm): LayerNorm((768,), eps=1e-06, elementwise_affine=True)
    )
  )
  (custom_src_module): NormalizedEmbedding(
    (emb): Embedding(
      (Embedding): Embedding(5000, 768)
    )
  )
  (output_proj): ModuleList(
    (layers): ModuleList(
      (0): Linear(
        (w): Linear(in_features=768, out_features=768, bias=True)
      )
      (1): LayerNorm(
        (norm): LayerNorm((768,), eps=1e-06, elementwise_affine=True)
      )
      (2): Linear(
        (w): Linear(in_features=768, out_features=5000, bias=True)
      )
    )
  )
) loading from /scratch/flatala/speechbrain/transformer/results/conformer_small/7775/save/lm.ckpt, the transferred parameters did not have parameters for the key: encoder.layers.4.self_att.att.out_proj.weight
2025-03-17 14:45:55,457 - speechbrain.utils.checkpoints - WARNING - During parameter transfer to TransformerLM(
  (positional_encoding): PositionalEncoding()
  (encoder): TransformerEncoder(
    (layers): ModuleList(
      (0-11): 12 x TransformerEncoderLayer(
        (self_att): MultiheadAttention(
          (att): MultiheadAttention(
            (out_proj): NonDynamicallyQuantizableLinear(in_features=768, out_features=768, bias=True)
          )
        )
        (pos_ffn): PositionalwiseFeedForward(
          (ffn): Sequential(
            (0): Linear(in_features=768, out_features=3072, bias=True)
            (1): GELU(approximate='none')
            (2): Dropout(p=0.0, inplace=False)
            (3): Linear(in_features=3072, out_features=768, bias=True)
          )
        )
        (norm1): LayerNorm(
          (norm): LayerNorm((768,), eps=1e-06, elementwise_affine=True)
        )
        (norm2): LayerNorm(
          (norm): LayerNorm((768,), eps=1e-06, elementwise_affine=True)
        )
        (dropout1): Dropout(p=0.0, inplace=False)
        (dropout2): Dropout(p=0.0, inplace=False)
      )
    )
    (norm): LayerNorm(
      (norm): LayerNorm((768,), eps=1e-06, elementwise_affine=True)
    )
  )
  (custom_src_module): NormalizedEmbedding(
    (emb): Embedding(
      (Embedding): Embedding(5000, 768)
    )
  )
  (output_proj): ModuleList(
    (layers): ModuleList(
      (0): Linear(
        (w): Linear(in_features=768, out_features=768, bias=True)
      )
      (1): LayerNorm(
        (norm): LayerNorm((768,), eps=1e-06, elementwise_affine=True)
      )
      (2): Linear(
        (w): Linear(in_features=768, out_features=5000, bias=True)
      )
    )
  )
) loading from /scratch/flatala/speechbrain/transformer/results/conformer_small/7775/save/lm.ckpt, the transferred parameters did not have parameters for the key: encoder.layers.4.self_att.att.out_proj.bias
2025-03-17 14:45:55,457 - speechbrain.utils.checkpoints - WARNING - During parameter transfer to TransformerLM(
  (positional_encoding): PositionalEncoding()
  (encoder): TransformerEncoder(
    (layers): ModuleList(
      (0-11): 12 x TransformerEncoderLayer(
        (self_att): MultiheadAttention(
          (att): MultiheadAttention(
            (out_proj): NonDynamicallyQuantizableLinear(in_features=768, out_features=768, bias=True)
          )
        )
        (pos_ffn): PositionalwiseFeedForward(
          (ffn): Sequential(
            (0): Linear(in_features=768, out_features=3072, bias=True)
            (1): GELU(approximate='none')
            (2): Dropout(p=0.0, inplace=False)
            (3): Linear(in_features=3072, out_features=768, bias=True)
          )
        )
        (norm1): LayerNorm(
          (norm): LayerNorm((768,), eps=1e-06, elementwise_affine=True)
        )
        (norm2): LayerNorm(
          (norm): LayerNorm((768,), eps=1e-06, elementwise_affine=True)
        )
        (dropout1): Dropout(p=0.0, inplace=False)
        (dropout2): Dropout(p=0.0, inplace=False)
      )
    )
    (norm): LayerNorm(
      (norm): LayerNorm((768,), eps=1e-06, elementwise_affine=True)
    )
  )
  (custom_src_module): NormalizedEmbedding(
    (emb): Embedding(
      (Embedding): Embedding(5000, 768)
    )
  )
  (output_proj): ModuleList(
    (layers): ModuleList(
      (0): Linear(
        (w): Linear(in_features=768, out_features=768, bias=True)
      )
      (1): LayerNorm(
        (norm): LayerNorm((768,), eps=1e-06, elementwise_affine=True)
      )
      (2): Linear(
        (w): Linear(in_features=768, out_features=5000, bias=True)
      )
    )
  )
) loading from /scratch/flatala/speechbrain/transformer/results/conformer_small/7775/save/lm.ckpt, the transferred parameters did not have parameters for the key: encoder.layers.4.pos_ffn.ffn.0.weight
2025-03-17 14:45:55,458 - speechbrain.utils.checkpoints - WARNING - During parameter transfer to TransformerLM(
  (positional_encoding): PositionalEncoding()
  (encoder): TransformerEncoder(
    (layers): ModuleList(
      (0-11): 12 x TransformerEncoderLayer(
        (self_att): MultiheadAttention(
          (att): MultiheadAttention(
            (out_proj): NonDynamicallyQuantizableLinear(in_features=768, out_features=768, bias=True)
          )
        )
        (pos_ffn): PositionalwiseFeedForward(
          (ffn): Sequential(
            (0): Linear(in_features=768, out_features=3072, bias=True)
            (1): GELU(approximate='none')
            (2): Dropout(p=0.0, inplace=False)
            (3): Linear(in_features=3072, out_features=768, bias=True)
          )
        )
        (norm1): LayerNorm(
          (norm): LayerNorm((768,), eps=1e-06, elementwise_affine=True)
        )
        (norm2): LayerNorm(
          (norm): LayerNorm((768,), eps=1e-06, elementwise_affine=True)
        )
        (dropout1): Dropout(p=0.0, inplace=False)
        (dropout2): Dropout(p=0.0, inplace=False)
      )
    )
    (norm): LayerNorm(
      (norm): LayerNorm((768,), eps=1e-06, elementwise_affine=True)
    )
  )
  (custom_src_module): NormalizedEmbedding(
    (emb): Embedding(
      (Embedding): Embedding(5000, 768)
    )
  )
  (output_proj): ModuleList(
    (layers): ModuleList(
      (0): Linear(
        (w): Linear(in_features=768, out_features=768, bias=True)
      )
      (1): LayerNorm(
        (norm): LayerNorm((768,), eps=1e-06, elementwise_affine=True)
      )
      (2): Linear(
        (w): Linear(in_features=768, out_features=5000, bias=True)
      )
    )
  )
) loading from /scratch/flatala/speechbrain/transformer/results/conformer_small/7775/save/lm.ckpt, the transferred parameters did not have parameters for the key: encoder.layers.4.pos_ffn.ffn.0.bias
2025-03-17 14:45:55,458 - speechbrain.utils.checkpoints - WARNING - During parameter transfer to TransformerLM(
  (positional_encoding): PositionalEncoding()
  (encoder): TransformerEncoder(
    (layers): ModuleList(
      (0-11): 12 x TransformerEncoderLayer(
        (self_att): MultiheadAttention(
          (att): MultiheadAttention(
            (out_proj): NonDynamicallyQuantizableLinear(in_features=768, out_features=768, bias=True)
          )
        )
        (pos_ffn): PositionalwiseFeedForward(
          (ffn): Sequential(
            (0): Linear(in_features=768, out_features=3072, bias=True)
            (1): GELU(approximate='none')
            (2): Dropout(p=0.0, inplace=False)
            (3): Linear(in_features=3072, out_features=768, bias=True)
          )
        )
        (norm1): LayerNorm(
          (norm): LayerNorm((768,), eps=1e-06, elementwise_affine=True)
        )
        (norm2): LayerNorm(
          (norm): LayerNorm((768,), eps=1e-06, elementwise_affine=True)
        )
        (dropout1): Dropout(p=0.0, inplace=False)
        (dropout2): Dropout(p=0.0, inplace=False)
      )
    )
    (norm): LayerNorm(
      (norm): LayerNorm((768,), eps=1e-06, elementwise_affine=True)
    )
  )
  (custom_src_module): NormalizedEmbedding(
    (emb): Embedding(
      (Embedding): Embedding(5000, 768)
    )
  )
  (output_proj): ModuleList(
    (layers): ModuleList(
      (0): Linear(
        (w): Linear(in_features=768, out_features=768, bias=True)
      )
      (1): LayerNorm(
        (norm): LayerNorm((768,), eps=1e-06, elementwise_affine=True)
      )
      (2): Linear(
        (w): Linear(in_features=768, out_features=5000, bias=True)
      )
    )
  )
) loading from /scratch/flatala/speechbrain/transformer/results/conformer_small/7775/save/lm.ckpt, the transferred parameters did not have parameters for the key: encoder.layers.4.pos_ffn.ffn.3.weight
2025-03-17 14:45:55,459 - speechbrain.utils.checkpoints - WARNING - During parameter transfer to TransformerLM(
  (positional_encoding): PositionalEncoding()
  (encoder): TransformerEncoder(
    (layers): ModuleList(
      (0-11): 12 x TransformerEncoderLayer(
        (self_att): MultiheadAttention(
          (att): MultiheadAttention(
            (out_proj): NonDynamicallyQuantizableLinear(in_features=768, out_features=768, bias=True)
          )
        )
        (pos_ffn): PositionalwiseFeedForward(
          (ffn): Sequential(
            (0): Linear(in_features=768, out_features=3072, bias=True)
            (1): GELU(approximate='none')
            (2): Dropout(p=0.0, inplace=False)
            (3): Linear(in_features=3072, out_features=768, bias=True)
          )
        )
        (norm1): LayerNorm(
          (norm): LayerNorm((768,), eps=1e-06, elementwise_affine=True)
        )
        (norm2): LayerNorm(
          (norm): LayerNorm((768,), eps=1e-06, elementwise_affine=True)
        )
        (dropout1): Dropout(p=0.0, inplace=False)
        (dropout2): Dropout(p=0.0, inplace=False)
      )
    )
    (norm): LayerNorm(
      (norm): LayerNorm((768,), eps=1e-06, elementwise_affine=True)
    )
  )
  (custom_src_module): NormalizedEmbedding(
    (emb): Embedding(
      (Embedding): Embedding(5000, 768)
    )
  )
  (output_proj): ModuleList(
    (layers): ModuleList(
      (0): Linear(
        (w): Linear(in_features=768, out_features=768, bias=True)
      )
      (1): LayerNorm(
        (norm): LayerNorm((768,), eps=1e-06, elementwise_affine=True)
      )
      (2): Linear(
        (w): Linear(in_features=768, out_features=5000, bias=True)
      )
    )
  )
) loading from /scratch/flatala/speechbrain/transformer/results/conformer_small/7775/save/lm.ckpt, the transferred parameters did not have parameters for the key: encoder.layers.4.pos_ffn.ffn.3.bias
2025-03-17 14:45:55,459 - speechbrain.utils.checkpoints - WARNING - During parameter transfer to TransformerLM(
  (positional_encoding): PositionalEncoding()
  (encoder): TransformerEncoder(
    (layers): ModuleList(
      (0-11): 12 x TransformerEncoderLayer(
        (self_att): MultiheadAttention(
          (att): MultiheadAttention(
            (out_proj): NonDynamicallyQuantizableLinear(in_features=768, out_features=768, bias=True)
          )
        )
        (pos_ffn): PositionalwiseFeedForward(
          (ffn): Sequential(
            (0): Linear(in_features=768, out_features=3072, bias=True)
            (1): GELU(approximate='none')
            (2): Dropout(p=0.0, inplace=False)
            (3): Linear(in_features=3072, out_features=768, bias=True)
          )
        )
        (norm1): LayerNorm(
          (norm): LayerNorm((768,), eps=1e-06, elementwise_affine=True)
        )
        (norm2): LayerNorm(
          (norm): LayerNorm((768,), eps=1e-06, elementwise_affine=True)
        )
        (dropout1): Dropout(p=0.0, inplace=False)
        (dropout2): Dropout(p=0.0, inplace=False)
      )
    )
    (norm): LayerNorm(
      (norm): LayerNorm((768,), eps=1e-06, elementwise_affine=True)
    )
  )
  (custom_src_module): NormalizedEmbedding(
    (emb): Embedding(
      (Embedding): Embedding(5000, 768)
    )
  )
  (output_proj): ModuleList(
    (layers): ModuleList(
      (0): Linear(
        (w): Linear(in_features=768, out_features=768, bias=True)
      )
      (1): LayerNorm(
        (norm): LayerNorm((768,), eps=1e-06, elementwise_affine=True)
      )
      (2): Linear(
        (w): Linear(in_features=768, out_features=5000, bias=True)
      )
    )
  )
) loading from /scratch/flatala/speechbrain/transformer/results/conformer_small/7775/save/lm.ckpt, the transferred parameters did not have parameters for the key: encoder.layers.4.norm1.norm.weight
2025-03-17 14:45:55,460 - speechbrain.utils.checkpoints - WARNING - During parameter transfer to TransformerLM(
  (positional_encoding): PositionalEncoding()
  (encoder): TransformerEncoder(
    (layers): ModuleList(
      (0-11): 12 x TransformerEncoderLayer(
        (self_att): MultiheadAttention(
          (att): MultiheadAttention(
            (out_proj): NonDynamicallyQuantizableLinear(in_features=768, out_features=768, bias=True)
          )
        )
        (pos_ffn): PositionalwiseFeedForward(
          (ffn): Sequential(
            (0): Linear(in_features=768, out_features=3072, bias=True)
            (1): GELU(approximate='none')
            (2): Dropout(p=0.0, inplace=False)
            (3): Linear(in_features=3072, out_features=768, bias=True)
          )
        )
        (norm1): LayerNorm(
          (norm): LayerNorm((768,), eps=1e-06, elementwise_affine=True)
        )
        (norm2): LayerNorm(
          (norm): LayerNorm((768,), eps=1e-06, elementwise_affine=True)
        )
        (dropout1): Dropout(p=0.0, inplace=False)
        (dropout2): Dropout(p=0.0, inplace=False)
      )
    )
    (norm): LayerNorm(
      (norm): LayerNorm((768,), eps=1e-06, elementwise_affine=True)
    )
  )
  (custom_src_module): NormalizedEmbedding(
    (emb): Embedding(
      (Embedding): Embedding(5000, 768)
    )
  )
  (output_proj): ModuleList(
    (layers): ModuleList(
      (0): Linear(
        (w): Linear(in_features=768, out_features=768, bias=True)
      )
      (1): LayerNorm(
        (norm): LayerNorm((768,), eps=1e-06, elementwise_affine=True)
      )
      (2): Linear(
        (w): Linear(in_features=768, out_features=5000, bias=True)
      )
    )
  )
) loading from /scratch/flatala/speechbrain/transformer/results/conformer_small/7775/save/lm.ckpt, the transferred parameters did not have parameters for the key: encoder.layers.4.norm1.norm.bias
2025-03-17 14:45:55,460 - speechbrain.utils.checkpoints - WARNING - During parameter transfer to TransformerLM(
  (positional_encoding): PositionalEncoding()
  (encoder): TransformerEncoder(
    (layers): ModuleList(
      (0-11): 12 x TransformerEncoderLayer(
        (self_att): MultiheadAttention(
          (att): MultiheadAttention(
            (out_proj): NonDynamicallyQuantizableLinear(in_features=768, out_features=768, bias=True)
          )
        )
        (pos_ffn): PositionalwiseFeedForward(
          (ffn): Sequential(
            (0): Linear(in_features=768, out_features=3072, bias=True)
            (1): GELU(approximate='none')
            (2): Dropout(p=0.0, inplace=False)
            (3): Linear(in_features=3072, out_features=768, bias=True)
          )
        )
        (norm1): LayerNorm(
          (norm): LayerNorm((768,), eps=1e-06, elementwise_affine=True)
        )
        (norm2): LayerNorm(
          (norm): LayerNorm((768,), eps=1e-06, elementwise_affine=True)
        )
        (dropout1): Dropout(p=0.0, inplace=False)
        (dropout2): Dropout(p=0.0, inplace=False)
      )
    )
    (norm): LayerNorm(
      (norm): LayerNorm((768,), eps=1e-06, elementwise_affine=True)
    )
  )
  (custom_src_module): NormalizedEmbedding(
    (emb): Embedding(
      (Embedding): Embedding(5000, 768)
    )
  )
  (output_proj): ModuleList(
    (layers): ModuleList(
      (0): Linear(
        (w): Linear(in_features=768, out_features=768, bias=True)
      )
      (1): LayerNorm(
        (norm): LayerNorm((768,), eps=1e-06, elementwise_affine=True)
      )
      (2): Linear(
        (w): Linear(in_features=768, out_features=5000, bias=True)
      )
    )
  )
) loading from /scratch/flatala/speechbrain/transformer/results/conformer_small/7775/save/lm.ckpt, the transferred parameters did not have parameters for the key: encoder.layers.4.norm2.norm.weight
2025-03-17 14:45:55,461 - speechbrain.utils.checkpoints - WARNING - During parameter transfer to TransformerLM(
  (positional_encoding): PositionalEncoding()
  (encoder): TransformerEncoder(
    (layers): ModuleList(
      (0-11): 12 x TransformerEncoderLayer(
        (self_att): MultiheadAttention(
          (att): MultiheadAttention(
            (out_proj): NonDynamicallyQuantizableLinear(in_features=768, out_features=768, bias=True)
          )
        )
        (pos_ffn): PositionalwiseFeedForward(
          (ffn): Sequential(
            (0): Linear(in_features=768, out_features=3072, bias=True)
            (1): GELU(approximate='none')
            (2): Dropout(p=0.0, inplace=False)
            (3): Linear(in_features=3072, out_features=768, bias=True)
          )
        )
        (norm1): LayerNorm(
          (norm): LayerNorm((768,), eps=1e-06, elementwise_affine=True)
        )
        (norm2): LayerNorm(
          (norm): LayerNorm((768,), eps=1e-06, elementwise_affine=True)
        )
        (dropout1): Dropout(p=0.0, inplace=False)
        (dropout2): Dropout(p=0.0, inplace=False)
      )
    )
    (norm): LayerNorm(
      (norm): LayerNorm((768,), eps=1e-06, elementwise_affine=True)
    )
  )
  (custom_src_module): NormalizedEmbedding(
    (emb): Embedding(
      (Embedding): Embedding(5000, 768)
    )
  )
  (output_proj): ModuleList(
    (layers): ModuleList(
      (0): Linear(
        (w): Linear(in_features=768, out_features=768, bias=True)
      )
      (1): LayerNorm(
        (norm): LayerNorm((768,), eps=1e-06, elementwise_affine=True)
      )
      (2): Linear(
        (w): Linear(in_features=768, out_features=5000, bias=True)
      )
    )
  )
) loading from /scratch/flatala/speechbrain/transformer/results/conformer_small/7775/save/lm.ckpt, the transferred parameters did not have parameters for the key: encoder.layers.4.norm2.norm.bias
2025-03-17 14:45:55,461 - speechbrain.utils.checkpoints - WARNING - During parameter transfer to TransformerLM(
  (positional_encoding): PositionalEncoding()
  (encoder): TransformerEncoder(
    (layers): ModuleList(
      (0-11): 12 x TransformerEncoderLayer(
        (self_att): MultiheadAttention(
          (att): MultiheadAttention(
            (out_proj): NonDynamicallyQuantizableLinear(in_features=768, out_features=768, bias=True)
          )
        )
        (pos_ffn): PositionalwiseFeedForward(
          (ffn): Sequential(
            (0): Linear(in_features=768, out_features=3072, bias=True)
            (1): GELU(approximate='none')
            (2): Dropout(p=0.0, inplace=False)
            (3): Linear(in_features=3072, out_features=768, bias=True)
          )
        )
        (norm1): LayerNorm(
          (norm): LayerNorm((768,), eps=1e-06, elementwise_affine=True)
        )
        (norm2): LayerNorm(
          (norm): LayerNorm((768,), eps=1e-06, elementwise_affine=True)
        )
        (dropout1): Dropout(p=0.0, inplace=False)
        (dropout2): Dropout(p=0.0, inplace=False)
      )
    )
    (norm): LayerNorm(
      (norm): LayerNorm((768,), eps=1e-06, elementwise_affine=True)
    )
  )
  (custom_src_module): NormalizedEmbedding(
    (emb): Embedding(
      (Embedding): Embedding(5000, 768)
    )
  )
  (output_proj): ModuleList(
    (layers): ModuleList(
      (0): Linear(
        (w): Linear(in_features=768, out_features=768, bias=True)
      )
      (1): LayerNorm(
        (norm): LayerNorm((768,), eps=1e-06, elementwise_affine=True)
      )
      (2): Linear(
        (w): Linear(in_features=768, out_features=5000, bias=True)
      )
    )
  )
) loading from /scratch/flatala/speechbrain/transformer/results/conformer_small/7775/save/lm.ckpt, the transferred parameters did not have parameters for the key: encoder.layers.5.self_att.att.in_proj_weight
2025-03-17 14:45:55,462 - speechbrain.utils.checkpoints - WARNING - During parameter transfer to TransformerLM(
  (positional_encoding): PositionalEncoding()
  (encoder): TransformerEncoder(
    (layers): ModuleList(
      (0-11): 12 x TransformerEncoderLayer(
        (self_att): MultiheadAttention(
          (att): MultiheadAttention(
            (out_proj): NonDynamicallyQuantizableLinear(in_features=768, out_features=768, bias=True)
          )
        )
        (pos_ffn): PositionalwiseFeedForward(
          (ffn): Sequential(
            (0): Linear(in_features=768, out_features=3072, bias=True)
            (1): GELU(approximate='none')
            (2): Dropout(p=0.0, inplace=False)
            (3): Linear(in_features=3072, out_features=768, bias=True)
          )
        )
        (norm1): LayerNorm(
          (norm): LayerNorm((768,), eps=1e-06, elementwise_affine=True)
        )
        (norm2): LayerNorm(
          (norm): LayerNorm((768,), eps=1e-06, elementwise_affine=True)
        )
        (dropout1): Dropout(p=0.0, inplace=False)
        (dropout2): Dropout(p=0.0, inplace=False)
      )
    )
    (norm): LayerNorm(
      (norm): LayerNorm((768,), eps=1e-06, elementwise_affine=True)
    )
  )
  (custom_src_module): NormalizedEmbedding(
    (emb): Embedding(
      (Embedding): Embedding(5000, 768)
    )
  )
  (output_proj): ModuleList(
    (layers): ModuleList(
      (0): Linear(
        (w): Linear(in_features=768, out_features=768, bias=True)
      )
      (1): LayerNorm(
        (norm): LayerNorm((768,), eps=1e-06, elementwise_affine=True)
      )
      (2): Linear(
        (w): Linear(in_features=768, out_features=5000, bias=True)
      )
    )
  )
) loading from /scratch/flatala/speechbrain/transformer/results/conformer_small/7775/save/lm.ckpt, the transferred parameters did not have parameters for the key: encoder.layers.5.self_att.att.in_proj_bias
2025-03-17 14:45:55,462 - speechbrain.utils.checkpoints - WARNING - During parameter transfer to TransformerLM(
  (positional_encoding): PositionalEncoding()
  (encoder): TransformerEncoder(
    (layers): ModuleList(
      (0-11): 12 x TransformerEncoderLayer(
        (self_att): MultiheadAttention(
          (att): MultiheadAttention(
            (out_proj): NonDynamicallyQuantizableLinear(in_features=768, out_features=768, bias=True)
          )
        )
        (pos_ffn): PositionalwiseFeedForward(
          (ffn): Sequential(
            (0): Linear(in_features=768, out_features=3072, bias=True)
            (1): GELU(approximate='none')
            (2): Dropout(p=0.0, inplace=False)
            (3): Linear(in_features=3072, out_features=768, bias=True)
          )
        )
        (norm1): LayerNorm(
          (norm): LayerNorm((768,), eps=1e-06, elementwise_affine=True)
        )
        (norm2): LayerNorm(
          (norm): LayerNorm((768,), eps=1e-06, elementwise_affine=True)
        )
        (dropout1): Dropout(p=0.0, inplace=False)
        (dropout2): Dropout(p=0.0, inplace=False)
      )
    )
    (norm): LayerNorm(
      (norm): LayerNorm((768,), eps=1e-06, elementwise_affine=True)
    )
  )
  (custom_src_module): NormalizedEmbedding(
    (emb): Embedding(
      (Embedding): Embedding(5000, 768)
    )
  )
  (output_proj): ModuleList(
    (layers): ModuleList(
      (0): Linear(
        (w): Linear(in_features=768, out_features=768, bias=True)
      )
      (1): LayerNorm(
        (norm): LayerNorm((768,), eps=1e-06, elementwise_affine=True)
      )
      (2): Linear(
        (w): Linear(in_features=768, out_features=5000, bias=True)
      )
    )
  )
) loading from /scratch/flatala/speechbrain/transformer/results/conformer_small/7775/save/lm.ckpt, the transferred parameters did not have parameters for the key: encoder.layers.5.self_att.att.out_proj.weight
2025-03-17 14:45:55,463 - speechbrain.utils.checkpoints - WARNING - During parameter transfer to TransformerLM(
  (positional_encoding): PositionalEncoding()
  (encoder): TransformerEncoder(
    (layers): ModuleList(
      (0-11): 12 x TransformerEncoderLayer(
        (self_att): MultiheadAttention(
          (att): MultiheadAttention(
            (out_proj): NonDynamicallyQuantizableLinear(in_features=768, out_features=768, bias=True)
          )
        )
        (pos_ffn): PositionalwiseFeedForward(
          (ffn): Sequential(
            (0): Linear(in_features=768, out_features=3072, bias=True)
            (1): GELU(approximate='none')
            (2): Dropout(p=0.0, inplace=False)
            (3): Linear(in_features=3072, out_features=768, bias=True)
          )
        )
        (norm1): LayerNorm(
          (norm): LayerNorm((768,), eps=1e-06, elementwise_affine=True)
        )
        (norm2): LayerNorm(
          (norm): LayerNorm((768,), eps=1e-06, elementwise_affine=True)
        )
        (dropout1): Dropout(p=0.0, inplace=False)
        (dropout2): Dropout(p=0.0, inplace=False)
      )
    )
    (norm): LayerNorm(
      (norm): LayerNorm((768,), eps=1e-06, elementwise_affine=True)
    )
  )
  (custom_src_module): NormalizedEmbedding(
    (emb): Embedding(
      (Embedding): Embedding(5000, 768)
    )
  )
  (output_proj): ModuleList(
    (layers): ModuleList(
      (0): Linear(
        (w): Linear(in_features=768, out_features=768, bias=True)
      )
      (1): LayerNorm(
        (norm): LayerNorm((768,), eps=1e-06, elementwise_affine=True)
      )
      (2): Linear(
        (w): Linear(in_features=768, out_features=5000, bias=True)
      )
    )
  )
) loading from /scratch/flatala/speechbrain/transformer/results/conformer_small/7775/save/lm.ckpt, the transferred parameters did not have parameters for the key: encoder.layers.5.self_att.att.out_proj.bias
2025-03-17 14:45:55,463 - speechbrain.utils.checkpoints - WARNING - During parameter transfer to TransformerLM(
  (positional_encoding): PositionalEncoding()
  (encoder): TransformerEncoder(
    (layers): ModuleList(
      (0-11): 12 x TransformerEncoderLayer(
        (self_att): MultiheadAttention(
          (att): MultiheadAttention(
            (out_proj): NonDynamicallyQuantizableLinear(in_features=768, out_features=768, bias=True)
          )
        )
        (pos_ffn): PositionalwiseFeedForward(
          (ffn): Sequential(
            (0): Linear(in_features=768, out_features=3072, bias=True)
            (1): GELU(approximate='none')
            (2): Dropout(p=0.0, inplace=False)
            (3): Linear(in_features=3072, out_features=768, bias=True)
          )
        )
        (norm1): LayerNorm(
          (norm): LayerNorm((768,), eps=1e-06, elementwise_affine=True)
        )
        (norm2): LayerNorm(
          (norm): LayerNorm((768,), eps=1e-06, elementwise_affine=True)
        )
        (dropout1): Dropout(p=0.0, inplace=False)
        (dropout2): Dropout(p=0.0, inplace=False)
      )
    )
    (norm): LayerNorm(
      (norm): LayerNorm((768,), eps=1e-06, elementwise_affine=True)
    )
  )
  (custom_src_module): NormalizedEmbedding(
    (emb): Embedding(
      (Embedding): Embedding(5000, 768)
    )
  )
  (output_proj): ModuleList(
    (layers): ModuleList(
      (0): Linear(
        (w): Linear(in_features=768, out_features=768, bias=True)
      )
      (1): LayerNorm(
        (norm): LayerNorm((768,), eps=1e-06, elementwise_affine=True)
      )
      (2): Linear(
        (w): Linear(in_features=768, out_features=5000, bias=True)
      )
    )
  )
) loading from /scratch/flatala/speechbrain/transformer/results/conformer_small/7775/save/lm.ckpt, the transferred parameters did not have parameters for the key: encoder.layers.5.pos_ffn.ffn.0.weight
2025-03-17 14:45:55,464 - speechbrain.utils.checkpoints - WARNING - During parameter transfer to TransformerLM(
  (positional_encoding): PositionalEncoding()
  (encoder): TransformerEncoder(
    (layers): ModuleList(
      (0-11): 12 x TransformerEncoderLayer(
        (self_att): MultiheadAttention(
          (att): MultiheadAttention(
            (out_proj): NonDynamicallyQuantizableLinear(in_features=768, out_features=768, bias=True)
          )
        )
        (pos_ffn): PositionalwiseFeedForward(
          (ffn): Sequential(
            (0): Linear(in_features=768, out_features=3072, bias=True)
            (1): GELU(approximate='none')
            (2): Dropout(p=0.0, inplace=False)
            (3): Linear(in_features=3072, out_features=768, bias=True)
          )
        )
        (norm1): LayerNorm(
          (norm): LayerNorm((768,), eps=1e-06, elementwise_affine=True)
        )
        (norm2): LayerNorm(
          (norm): LayerNorm((768,), eps=1e-06, elementwise_affine=True)
        )
        (dropout1): Dropout(p=0.0, inplace=False)
        (dropout2): Dropout(p=0.0, inplace=False)
      )
    )
    (norm): LayerNorm(
      (norm): LayerNorm((768,), eps=1e-06, elementwise_affine=True)
    )
  )
  (custom_src_module): NormalizedEmbedding(
    (emb): Embedding(
      (Embedding): Embedding(5000, 768)
    )
  )
  (output_proj): ModuleList(
    (layers): ModuleList(
      (0): Linear(
        (w): Linear(in_features=768, out_features=768, bias=True)
      )
      (1): LayerNorm(
        (norm): LayerNorm((768,), eps=1e-06, elementwise_affine=True)
      )
      (2): Linear(
        (w): Linear(in_features=768, out_features=5000, bias=True)
      )
    )
  )
) loading from /scratch/flatala/speechbrain/transformer/results/conformer_small/7775/save/lm.ckpt, the transferred parameters did not have parameters for the key: encoder.layers.5.pos_ffn.ffn.0.bias
2025-03-17 14:45:55,464 - speechbrain.utils.checkpoints - WARNING - During parameter transfer to TransformerLM(
  (positional_encoding): PositionalEncoding()
  (encoder): TransformerEncoder(
    (layers): ModuleList(
      (0-11): 12 x TransformerEncoderLayer(
        (self_att): MultiheadAttention(
          (att): MultiheadAttention(
            (out_proj): NonDynamicallyQuantizableLinear(in_features=768, out_features=768, bias=True)
          )
        )
        (pos_ffn): PositionalwiseFeedForward(
          (ffn): Sequential(
            (0): Linear(in_features=768, out_features=3072, bias=True)
            (1): GELU(approximate='none')
            (2): Dropout(p=0.0, inplace=False)
            (3): Linear(in_features=3072, out_features=768, bias=True)
          )
        )
        (norm1): LayerNorm(
          (norm): LayerNorm((768,), eps=1e-06, elementwise_affine=True)
        )
        (norm2): LayerNorm(
          (norm): LayerNorm((768,), eps=1e-06, elementwise_affine=True)
        )
        (dropout1): Dropout(p=0.0, inplace=False)
        (dropout2): Dropout(p=0.0, inplace=False)
      )
    )
    (norm): LayerNorm(
      (norm): LayerNorm((768,), eps=1e-06, elementwise_affine=True)
    )
  )
  (custom_src_module): NormalizedEmbedding(
    (emb): Embedding(
      (Embedding): Embedding(5000, 768)
    )
  )
  (output_proj): ModuleList(
    (layers): ModuleList(
      (0): Linear(
        (w): Linear(in_features=768, out_features=768, bias=True)
      )
      (1): LayerNorm(
        (norm): LayerNorm((768,), eps=1e-06, elementwise_affine=True)
      )
      (2): Linear(
        (w): Linear(in_features=768, out_features=5000, bias=True)
      )
    )
  )
) loading from /scratch/flatala/speechbrain/transformer/results/conformer_small/7775/save/lm.ckpt, the transferred parameters did not have parameters for the key: encoder.layers.5.pos_ffn.ffn.3.weight
2025-03-17 14:45:55,465 - speechbrain.utils.checkpoints - WARNING - During parameter transfer to TransformerLM(
  (positional_encoding): PositionalEncoding()
  (encoder): TransformerEncoder(
    (layers): ModuleList(
      (0-11): 12 x TransformerEncoderLayer(
        (self_att): MultiheadAttention(
          (att): MultiheadAttention(
            (out_proj): NonDynamicallyQuantizableLinear(in_features=768, out_features=768, bias=True)
          )
        )
        (pos_ffn): PositionalwiseFeedForward(
          (ffn): Sequential(
            (0): Linear(in_features=768, out_features=3072, bias=True)
            (1): GELU(approximate='none')
            (2): Dropout(p=0.0, inplace=False)
            (3): Linear(in_features=3072, out_features=768, bias=True)
          )
        )
        (norm1): LayerNorm(
          (norm): LayerNorm((768,), eps=1e-06, elementwise_affine=True)
        )
        (norm2): LayerNorm(
          (norm): LayerNorm((768,), eps=1e-06, elementwise_affine=True)
        )
        (dropout1): Dropout(p=0.0, inplace=False)
        (dropout2): Dropout(p=0.0, inplace=False)
      )
    )
    (norm): LayerNorm(
      (norm): LayerNorm((768,), eps=1e-06, elementwise_affine=True)
    )
  )
  (custom_src_module): NormalizedEmbedding(
    (emb): Embedding(
      (Embedding): Embedding(5000, 768)
    )
  )
  (output_proj): ModuleList(
    (layers): ModuleList(
      (0): Linear(
        (w): Linear(in_features=768, out_features=768, bias=True)
      )
      (1): LayerNorm(
        (norm): LayerNorm((768,), eps=1e-06, elementwise_affine=True)
      )
      (2): Linear(
        (w): Linear(in_features=768, out_features=5000, bias=True)
      )
    )
  )
) loading from /scratch/flatala/speechbrain/transformer/results/conformer_small/7775/save/lm.ckpt, the transferred parameters did not have parameters for the key: encoder.layers.5.pos_ffn.ffn.3.bias
2025-03-17 14:45:55,465 - speechbrain.utils.checkpoints - WARNING - During parameter transfer to TransformerLM(
  (positional_encoding): PositionalEncoding()
  (encoder): TransformerEncoder(
    (layers): ModuleList(
      (0-11): 12 x TransformerEncoderLayer(
        (self_att): MultiheadAttention(
          (att): MultiheadAttention(
            (out_proj): NonDynamicallyQuantizableLinear(in_features=768, out_features=768, bias=True)
          )
        )
        (pos_ffn): PositionalwiseFeedForward(
          (ffn): Sequential(
            (0): Linear(in_features=768, out_features=3072, bias=True)
            (1): GELU(approximate='none')
            (2): Dropout(p=0.0, inplace=False)
            (3): Linear(in_features=3072, out_features=768, bias=True)
          )
        )
        (norm1): LayerNorm(
          (norm): LayerNorm((768,), eps=1e-06, elementwise_affine=True)
        )
        (norm2): LayerNorm(
          (norm): LayerNorm((768,), eps=1e-06, elementwise_affine=True)
        )
        (dropout1): Dropout(p=0.0, inplace=False)
        (dropout2): Dropout(p=0.0, inplace=False)
      )
    )
    (norm): LayerNorm(
      (norm): LayerNorm((768,), eps=1e-06, elementwise_affine=True)
    )
  )
  (custom_src_module): NormalizedEmbedding(
    (emb): Embedding(
      (Embedding): Embedding(5000, 768)
    )
  )
  (output_proj): ModuleList(
    (layers): ModuleList(
      (0): Linear(
        (w): Linear(in_features=768, out_features=768, bias=True)
      )
      (1): LayerNorm(
        (norm): LayerNorm((768,), eps=1e-06, elementwise_affine=True)
      )
      (2): Linear(
        (w): Linear(in_features=768, out_features=5000, bias=True)
      )
    )
  )
) loading from /scratch/flatala/speechbrain/transformer/results/conformer_small/7775/save/lm.ckpt, the transferred parameters did not have parameters for the key: encoder.layers.5.norm1.norm.weight
2025-03-17 14:45:55,466 - speechbrain.utils.checkpoints - WARNING - During parameter transfer to TransformerLM(
  (positional_encoding): PositionalEncoding()
  (encoder): TransformerEncoder(
    (layers): ModuleList(
      (0-11): 12 x TransformerEncoderLayer(
        (self_att): MultiheadAttention(
          (att): MultiheadAttention(
            (out_proj): NonDynamicallyQuantizableLinear(in_features=768, out_features=768, bias=True)
          )
        )
        (pos_ffn): PositionalwiseFeedForward(
          (ffn): Sequential(
            (0): Linear(in_features=768, out_features=3072, bias=True)
            (1): GELU(approximate='none')
            (2): Dropout(p=0.0, inplace=False)
            (3): Linear(in_features=3072, out_features=768, bias=True)
          )
        )
        (norm1): LayerNorm(
          (norm): LayerNorm((768,), eps=1e-06, elementwise_affine=True)
        )
        (norm2): LayerNorm(
          (norm): LayerNorm((768,), eps=1e-06, elementwise_affine=True)
        )
        (dropout1): Dropout(p=0.0, inplace=False)
        (dropout2): Dropout(p=0.0, inplace=False)
      )
    )
    (norm): LayerNorm(
      (norm): LayerNorm((768,), eps=1e-06, elementwise_affine=True)
    )
  )
  (custom_src_module): NormalizedEmbedding(
    (emb): Embedding(
      (Embedding): Embedding(5000, 768)
    )
  )
  (output_proj): ModuleList(
    (layers): ModuleList(
      (0): Linear(
        (w): Linear(in_features=768, out_features=768, bias=True)
      )
      (1): LayerNorm(
        (norm): LayerNorm((768,), eps=1e-06, elementwise_affine=True)
      )
      (2): Linear(
        (w): Linear(in_features=768, out_features=5000, bias=True)
      )
    )
  )
) loading from /scratch/flatala/speechbrain/transformer/results/conformer_small/7775/save/lm.ckpt, the transferred parameters did not have parameters for the key: encoder.layers.5.norm1.norm.bias
2025-03-17 14:45:55,466 - speechbrain.utils.checkpoints - WARNING - During parameter transfer to TransformerLM(
  (positional_encoding): PositionalEncoding()
  (encoder): TransformerEncoder(
    (layers): ModuleList(
      (0-11): 12 x TransformerEncoderLayer(
        (self_att): MultiheadAttention(
          (att): MultiheadAttention(
            (out_proj): NonDynamicallyQuantizableLinear(in_features=768, out_features=768, bias=True)
          )
        )
        (pos_ffn): PositionalwiseFeedForward(
          (ffn): Sequential(
            (0): Linear(in_features=768, out_features=3072, bias=True)
            (1): GELU(approximate='none')
            (2): Dropout(p=0.0, inplace=False)
            (3): Linear(in_features=3072, out_features=768, bias=True)
          )
        )
        (norm1): LayerNorm(
          (norm): LayerNorm((768,), eps=1e-06, elementwise_affine=True)
        )
        (norm2): LayerNorm(
          (norm): LayerNorm((768,), eps=1e-06, elementwise_affine=True)
        )
        (dropout1): Dropout(p=0.0, inplace=False)
        (dropout2): Dropout(p=0.0, inplace=False)
      )
    )
    (norm): LayerNorm(
      (norm): LayerNorm((768,), eps=1e-06, elementwise_affine=True)
    )
  )
  (custom_src_module): NormalizedEmbedding(
    (emb): Embedding(
      (Embedding): Embedding(5000, 768)
    )
  )
  (output_proj): ModuleList(
    (layers): ModuleList(
      (0): Linear(
        (w): Linear(in_features=768, out_features=768, bias=True)
      )
      (1): LayerNorm(
        (norm): LayerNorm((768,), eps=1e-06, elementwise_affine=True)
      )
      (2): Linear(
        (w): Linear(in_features=768, out_features=5000, bias=True)
      )
    )
  )
) loading from /scratch/flatala/speechbrain/transformer/results/conformer_small/7775/save/lm.ckpt, the transferred parameters did not have parameters for the key: encoder.layers.5.norm2.norm.weight
2025-03-17 14:45:55,467 - speechbrain.utils.checkpoints - WARNING - During parameter transfer to TransformerLM(
  (positional_encoding): PositionalEncoding()
  (encoder): TransformerEncoder(
    (layers): ModuleList(
      (0-11): 12 x TransformerEncoderLayer(
        (self_att): MultiheadAttention(
          (att): MultiheadAttention(
            (out_proj): NonDynamicallyQuantizableLinear(in_features=768, out_features=768, bias=True)
          )
        )
        (pos_ffn): PositionalwiseFeedForward(
          (ffn): Sequential(
            (0): Linear(in_features=768, out_features=3072, bias=True)
            (1): GELU(approximate='none')
            (2): Dropout(p=0.0, inplace=False)
            (3): Linear(in_features=3072, out_features=768, bias=True)
          )
        )
        (norm1): LayerNorm(
          (norm): LayerNorm((768,), eps=1e-06, elementwise_affine=True)
        )
        (norm2): LayerNorm(
          (norm): LayerNorm((768,), eps=1e-06, elementwise_affine=True)
        )
        (dropout1): Dropout(p=0.0, inplace=False)
        (dropout2): Dropout(p=0.0, inplace=False)
      )
    )
    (norm): LayerNorm(
      (norm): LayerNorm((768,), eps=1e-06, elementwise_affine=True)
    )
  )
  (custom_src_module): NormalizedEmbedding(
    (emb): Embedding(
      (Embedding): Embedding(5000, 768)
    )
  )
  (output_proj): ModuleList(
    (layers): ModuleList(
      (0): Linear(
        (w): Linear(in_features=768, out_features=768, bias=True)
      )
      (1): LayerNorm(
        (norm): LayerNorm((768,), eps=1e-06, elementwise_affine=True)
      )
      (2): Linear(
        (w): Linear(in_features=768, out_features=5000, bias=True)
      )
    )
  )
) loading from /scratch/flatala/speechbrain/transformer/results/conformer_small/7775/save/lm.ckpt, the transferred parameters did not have parameters for the key: encoder.layers.5.norm2.norm.bias
2025-03-17 14:45:55,467 - speechbrain.utils.checkpoints - WARNING - During parameter transfer to TransformerLM(
  (positional_encoding): PositionalEncoding()
  (encoder): TransformerEncoder(
    (layers): ModuleList(
      (0-11): 12 x TransformerEncoderLayer(
        (self_att): MultiheadAttention(
          (att): MultiheadAttention(
            (out_proj): NonDynamicallyQuantizableLinear(in_features=768, out_features=768, bias=True)
          )
        )
        (pos_ffn): PositionalwiseFeedForward(
          (ffn): Sequential(
            (0): Linear(in_features=768, out_features=3072, bias=True)
            (1): GELU(approximate='none')
            (2): Dropout(p=0.0, inplace=False)
            (3): Linear(in_features=3072, out_features=768, bias=True)
          )
        )
        (norm1): LayerNorm(
          (norm): LayerNorm((768,), eps=1e-06, elementwise_affine=True)
        )
        (norm2): LayerNorm(
          (norm): LayerNorm((768,), eps=1e-06, elementwise_affine=True)
        )
        (dropout1): Dropout(p=0.0, inplace=False)
        (dropout2): Dropout(p=0.0, inplace=False)
      )
    )
    (norm): LayerNorm(
      (norm): LayerNorm((768,), eps=1e-06, elementwise_affine=True)
    )
  )
  (custom_src_module): NormalizedEmbedding(
    (emb): Embedding(
      (Embedding): Embedding(5000, 768)
    )
  )
  (output_proj): ModuleList(
    (layers): ModuleList(
      (0): Linear(
        (w): Linear(in_features=768, out_features=768, bias=True)
      )
      (1): LayerNorm(
        (norm): LayerNorm((768,), eps=1e-06, elementwise_affine=True)
      )
      (2): Linear(
        (w): Linear(in_features=768, out_features=5000, bias=True)
      )
    )
  )
) loading from /scratch/flatala/speechbrain/transformer/results/conformer_small/7775/save/lm.ckpt, the transferred parameters did not have parameters for the key: encoder.layers.6.self_att.att.in_proj_weight
2025-03-17 14:45:55,468 - speechbrain.utils.checkpoints - WARNING - During parameter transfer to TransformerLM(
  (positional_encoding): PositionalEncoding()
  (encoder): TransformerEncoder(
    (layers): ModuleList(
      (0-11): 12 x TransformerEncoderLayer(
        (self_att): MultiheadAttention(
          (att): MultiheadAttention(
            (out_proj): NonDynamicallyQuantizableLinear(in_features=768, out_features=768, bias=True)
          )
        )
        (pos_ffn): PositionalwiseFeedForward(
          (ffn): Sequential(
            (0): Linear(in_features=768, out_features=3072, bias=True)
            (1): GELU(approximate='none')
            (2): Dropout(p=0.0, inplace=False)
            (3): Linear(in_features=3072, out_features=768, bias=True)
          )
        )
        (norm1): LayerNorm(
          (norm): LayerNorm((768,), eps=1e-06, elementwise_affine=True)
        )
        (norm2): LayerNorm(
          (norm): LayerNorm((768,), eps=1e-06, elementwise_affine=True)
        )
        (dropout1): Dropout(p=0.0, inplace=False)
        (dropout2): Dropout(p=0.0, inplace=False)
      )
    )
    (norm): LayerNorm(
      (norm): LayerNorm((768,), eps=1e-06, elementwise_affine=True)
    )
  )
  (custom_src_module): NormalizedEmbedding(
    (emb): Embedding(
      (Embedding): Embedding(5000, 768)
    )
  )
  (output_proj): ModuleList(
    (layers): ModuleList(
      (0): Linear(
        (w): Linear(in_features=768, out_features=768, bias=True)
      )
      (1): LayerNorm(
        (norm): LayerNorm((768,), eps=1e-06, elementwise_affine=True)
      )
      (2): Linear(
        (w): Linear(in_features=768, out_features=5000, bias=True)
      )
    )
  )
) loading from /scratch/flatala/speechbrain/transformer/results/conformer_small/7775/save/lm.ckpt, the transferred parameters did not have parameters for the key: encoder.layers.6.self_att.att.in_proj_bias
2025-03-17 14:45:55,468 - speechbrain.utils.checkpoints - WARNING - During parameter transfer to TransformerLM(
  (positional_encoding): PositionalEncoding()
  (encoder): TransformerEncoder(
    (layers): ModuleList(
      (0-11): 12 x TransformerEncoderLayer(
        (self_att): MultiheadAttention(
          (att): MultiheadAttention(
            (out_proj): NonDynamicallyQuantizableLinear(in_features=768, out_features=768, bias=True)
          )
        )
        (pos_ffn): PositionalwiseFeedForward(
          (ffn): Sequential(
            (0): Linear(in_features=768, out_features=3072, bias=True)
            (1): GELU(approximate='none')
            (2): Dropout(p=0.0, inplace=False)
            (3): Linear(in_features=3072, out_features=768, bias=True)
          )
        )
        (norm1): LayerNorm(
          (norm): LayerNorm((768,), eps=1e-06, elementwise_affine=True)
        )
        (norm2): LayerNorm(
          (norm): LayerNorm((768,), eps=1e-06, elementwise_affine=True)
        )
        (dropout1): Dropout(p=0.0, inplace=False)
        (dropout2): Dropout(p=0.0, inplace=False)
      )
    )
    (norm): LayerNorm(
      (norm): LayerNorm((768,), eps=1e-06, elementwise_affine=True)
    )
  )
  (custom_src_module): NormalizedEmbedding(
    (emb): Embedding(
      (Embedding): Embedding(5000, 768)
    )
  )
  (output_proj): ModuleList(
    (layers): ModuleList(
      (0): Linear(
        (w): Linear(in_features=768, out_features=768, bias=True)
      )
      (1): LayerNorm(
        (norm): LayerNorm((768,), eps=1e-06, elementwise_affine=True)
      )
      (2): Linear(
        (w): Linear(in_features=768, out_features=5000, bias=True)
      )
    )
  )
) loading from /scratch/flatala/speechbrain/transformer/results/conformer_small/7775/save/lm.ckpt, the transferred parameters did not have parameters for the key: encoder.layers.6.self_att.att.out_proj.weight
2025-03-17 14:45:55,468 - speechbrain.utils.checkpoints - WARNING - During parameter transfer to TransformerLM(
  (positional_encoding): PositionalEncoding()
  (encoder): TransformerEncoder(
    (layers): ModuleList(
      (0-11): 12 x TransformerEncoderLayer(
        (self_att): MultiheadAttention(
          (att): MultiheadAttention(
            (out_proj): NonDynamicallyQuantizableLinear(in_features=768, out_features=768, bias=True)
          )
        )
        (pos_ffn): PositionalwiseFeedForward(
          (ffn): Sequential(
            (0): Linear(in_features=768, out_features=3072, bias=True)
            (1): GELU(approximate='none')
            (2): Dropout(p=0.0, inplace=False)
            (3): Linear(in_features=3072, out_features=768, bias=True)
          )
        )
        (norm1): LayerNorm(
          (norm): LayerNorm((768,), eps=1e-06, elementwise_affine=True)
        )
        (norm2): LayerNorm(
          (norm): LayerNorm((768,), eps=1e-06, elementwise_affine=True)
        )
        (dropout1): Dropout(p=0.0, inplace=False)
        (dropout2): Dropout(p=0.0, inplace=False)
      )
    )
    (norm): LayerNorm(
      (norm): LayerNorm((768,), eps=1e-06, elementwise_affine=True)
    )
  )
  (custom_src_module): NormalizedEmbedding(
    (emb): Embedding(
      (Embedding): Embedding(5000, 768)
    )
  )
  (output_proj): ModuleList(
    (layers): ModuleList(
      (0): Linear(
        (w): Linear(in_features=768, out_features=768, bias=True)
      )
      (1): LayerNorm(
        (norm): LayerNorm((768,), eps=1e-06, elementwise_affine=True)
      )
      (2): Linear(
        (w): Linear(in_features=768, out_features=5000, bias=True)
      )
    )
  )
) loading from /scratch/flatala/speechbrain/transformer/results/conformer_small/7775/save/lm.ckpt, the transferred parameters did not have parameters for the key: encoder.layers.6.self_att.att.out_proj.bias
2025-03-17 14:45:55,469 - speechbrain.utils.checkpoints - WARNING - During parameter transfer to TransformerLM(
  (positional_encoding): PositionalEncoding()
  (encoder): TransformerEncoder(
    (layers): ModuleList(
      (0-11): 12 x TransformerEncoderLayer(
        (self_att): MultiheadAttention(
          (att): MultiheadAttention(
            (out_proj): NonDynamicallyQuantizableLinear(in_features=768, out_features=768, bias=True)
          )
        )
        (pos_ffn): PositionalwiseFeedForward(
          (ffn): Sequential(
            (0): Linear(in_features=768, out_features=3072, bias=True)
            (1): GELU(approximate='none')
            (2): Dropout(p=0.0, inplace=False)
            (3): Linear(in_features=3072, out_features=768, bias=True)
          )
        )
        (norm1): LayerNorm(
          (norm): LayerNorm((768,), eps=1e-06, elementwise_affine=True)
        )
        (norm2): LayerNorm(
          (norm): LayerNorm((768,), eps=1e-06, elementwise_affine=True)
        )
        (dropout1): Dropout(p=0.0, inplace=False)
        (dropout2): Dropout(p=0.0, inplace=False)
      )
    )
    (norm): LayerNorm(
      (norm): LayerNorm((768,), eps=1e-06, elementwise_affine=True)
    )
  )
  (custom_src_module): NormalizedEmbedding(
    (emb): Embedding(
      (Embedding): Embedding(5000, 768)
    )
  )
  (output_proj): ModuleList(
    (layers): ModuleList(
      (0): Linear(
        (w): Linear(in_features=768, out_features=768, bias=True)
      )
      (1): LayerNorm(
        (norm): LayerNorm((768,), eps=1e-06, elementwise_affine=True)
      )
      (2): Linear(
        (w): Linear(in_features=768, out_features=5000, bias=True)
      )
    )
  )
) loading from /scratch/flatala/speechbrain/transformer/results/conformer_small/7775/save/lm.ckpt, the transferred parameters did not have parameters for the key: encoder.layers.6.pos_ffn.ffn.0.weight
2025-03-17 14:45:55,469 - speechbrain.utils.checkpoints - WARNING - During parameter transfer to TransformerLM(
  (positional_encoding): PositionalEncoding()
  (encoder): TransformerEncoder(
    (layers): ModuleList(
      (0-11): 12 x TransformerEncoderLayer(
        (self_att): MultiheadAttention(
          (att): MultiheadAttention(
            (out_proj): NonDynamicallyQuantizableLinear(in_features=768, out_features=768, bias=True)
          )
        )
        (pos_ffn): PositionalwiseFeedForward(
          (ffn): Sequential(
            (0): Linear(in_features=768, out_features=3072, bias=True)
            (1): GELU(approximate='none')
            (2): Dropout(p=0.0, inplace=False)
            (3): Linear(in_features=3072, out_features=768, bias=True)
          )
        )
        (norm1): LayerNorm(
          (norm): LayerNorm((768,), eps=1e-06, elementwise_affine=True)
        )
        (norm2): LayerNorm(
          (norm): LayerNorm((768,), eps=1e-06, elementwise_affine=True)
        )
        (dropout1): Dropout(p=0.0, inplace=False)
        (dropout2): Dropout(p=0.0, inplace=False)
      )
    )
    (norm): LayerNorm(
      (norm): LayerNorm((768,), eps=1e-06, elementwise_affine=True)
    )
  )
  (custom_src_module): NormalizedEmbedding(
    (emb): Embedding(
      (Embedding): Embedding(5000, 768)
    )
  )
  (output_proj): ModuleList(
    (layers): ModuleList(
      (0): Linear(
        (w): Linear(in_features=768, out_features=768, bias=True)
      )
      (1): LayerNorm(
        (norm): LayerNorm((768,), eps=1e-06, elementwise_affine=True)
      )
      (2): Linear(
        (w): Linear(in_features=768, out_features=5000, bias=True)
      )
    )
  )
) loading from /scratch/flatala/speechbrain/transformer/results/conformer_small/7775/save/lm.ckpt, the transferred parameters did not have parameters for the key: encoder.layers.6.pos_ffn.ffn.0.bias
2025-03-17 14:45:55,470 - speechbrain.utils.checkpoints - WARNING - During parameter transfer to TransformerLM(
…
        (norm2): LayerNorm(
          (norm): LayerNorm((768,), eps=1e-06, elementwise_affine=True)
        )
        (dropout1): Dropout(p=0.0, inplace=False)
        (dropout2): Dropout(p=0.0, inplace=False)
      )
    )
    (norm): LayerNorm(
      (norm): LayerNorm((768,), eps=1e-06, elementwise_affine=True)
    )
  )
  (custom_src_module): NormalizedEmbedding(
    (emb): Embedding(
      (Embedding): Embedding(5000, 768)
    )
  )
  (output_proj): ModuleList(
    (layers): ModuleList(
      (0): Linear(
        (w): Linear(in_features=768, out_features=768, bias=True)
      )
      (1): LayerNorm(
        (norm): LayerNorm((768,), eps=1e-06, elementwise_affine=True)
      )
      (2): Linear(
        (w): Linear(in_features=768, out_features=5000, bias=True)
      )
    )
  )
) loading from /scratch/flatala/speechbrain/transformer/results/conformer_small/7775/save/lm.ckpt, the transferred parameters did not have parameters for the key: encoder.layers.11.norm1.norm.bias
2025-03-17 14:45:55,500 - speechbrain.utils.checkpoints - WARNING - During parameter transfer to TransformerLM(
  (positional_encoding): PositionalEncoding()
  (encoder): TransformerEncoder(
    (layers): ModuleList(
      (0-11): 12 x TransformerEncoderLayer(
        (self_att): MultiheadAttention(
          (att): MultiheadAttention(
            (out_proj): NonDynamicallyQuantizableLinear(in_features=768, out_features=768, bias=True)
          )
        )
        (pos_ffn): PositionalwiseFeedForward(
          (ffn): Sequential(
            (0): Linear(in_features=768, out_features=3072, bias=True)
            (1): GELU(approximate='none')
            (2): Dropout(p=0.0, inplace=False)
            (3): Linear(in_features=3072, out_features=768, bias=True)
          )
        )
        (norm1): LayerNorm(
          (norm): LayerNorm((768,), eps=1e-06, elementwise_affine=True)
        )
        (norm2): LayerNorm(
          (norm): LayerNorm((768,), eps=1e-06, elementwise_affine=True)
        )
        (dropout1): Dropout(p=0.0, inplace=False)
        (dropout2): Dropout(p=0.0, inplace=False)
      )
    )
    (norm): LayerNorm(
      (norm): LayerNorm((768,), eps=1e-06, elementwise_affine=True)
    )
  )
  (custom_src_module): NormalizedEmbedding(
    (emb): Embedding(
      (Embedding): Embedding(5000, 768)
    )
  )
  (output_proj): ModuleList(
    (layers): ModuleList(
      (0): Linear(
        (w): Linear(in_features=768, out_features=768, bias=True)
      )
      (1): LayerNorm(
        (norm): LayerNorm((768,), eps=1e-06, elementwise_affine=True)
      )
      (2): Linear(
        (w): Linear(in_features=768, out_features=5000, bias=True)
      )
    )
  )
) loading from /scratch/flatala/speechbrain/transformer/results/conformer_small/7775/save/lm.ckpt, the transferred parameters did not have parameters for the key: encoder.layers.11.norm2.norm.weight
2025-03-17 14:45:55,500 - speechbrain.utils.checkpoints - WARNING - During parameter transfer to TransformerLM(
  (positional_encoding): PositionalEncoding()
  (encoder): TransformerEncoder(
    (layers): ModuleList(
      (0-11): 12 x TransformerEncoderLayer(
        (self_att): MultiheadAttention(
          (att): MultiheadAttention(
            (out_proj): NonDynamicallyQuantizableLinear(in_features=768, out_features=768, bias=True)
          )
        )
        (pos_ffn): PositionalwiseFeedForward(
          (ffn): Sequential(
            (0): Linear(in_features=768, out_features=3072, bias=True)
            (1): GELU(approximate='none')
            (2): Dropout(p=0.0, inplace=False)
            (3): Linear(in_features=3072, out_features=768, bias=True)
          )
        )
        (norm1): LayerNorm(
          (norm): LayerNorm((768,), eps=1e-06, elementwise_affine=True)
        )
        (norm2): LayerNorm(
          (norm): LayerNorm((768,), eps=1e-06, elementwise_affine=True)
        )
        (dropout1): Dropout(p=0.0, inplace=False)
        (dropout2): Dropout(p=0.0, inplace=False)
      )
    )
    (norm): LayerNorm(
      (norm): LayerNorm((768,), eps=1e-06, elementwise_affine=True)
    )
  )
  (custom_src_module): NormalizedEmbedding(
    (emb): Embedding(
      (Embedding): Embedding(5000, 768)
    )
  )
  (output_proj): ModuleList(
    (layers): ModuleList(
      (0): Linear(
        (w): Linear(in_features=768, out_features=768, bias=True)
      )
      (1): LayerNorm(
        (norm): LayerNorm((768,), eps=1e-06, elementwise_affine=True)
      )
      (2): Linear(
        (w): Linear(in_features=768, out_features=5000, bias=True)
      )
    )
  )
) loading from /scratch/flatala/speechbrain/transformer/results/conformer_small/7775/save/lm.ckpt, the transferred parameters did not have parameters for the key: encoder.layers.11.norm2.norm.bias
2025-03-17 14:45:55,501 - speechbrain.utils.checkpoints - WARNING - During parameter transfer to TransformerLM(
  (positional_encoding): PositionalEncoding()
  (encoder): TransformerEncoder(
    (layers): ModuleList(
      (0-11): 12 x TransformerEncoderLayer(
        (self_att): MultiheadAttention(
          (att): MultiheadAttention(
            (out_proj): NonDynamicallyQuantizableLinear(in_features=768, out_features=768, bias=True)
          )
        )
        (pos_ffn): PositionalwiseFeedForward(
          (ffn): Sequential(
            (0): Linear(in_features=768, out_features=3072, bias=True)
            (1): GELU(approximate='none')
            (2): Dropout(p=0.0, inplace=False)
            (3): Linear(in_features=3072, out_features=768, bias=True)
          )
        )
        (norm1): LayerNorm(
          (norm): LayerNorm((768,), eps=1e-06, elementwise_affine=True)
        )
        (norm2): LayerNorm(
          (norm): LayerNorm((768,), eps=1e-06, elementwise_affine=True)
        )
        (dropout1): Dropout(p=0.0, inplace=False)
        (dropout2): Dropout(p=0.0, inplace=False)
      )
    )
    (norm): LayerNorm(
      (norm): LayerNorm((768,), eps=1e-06, elementwise_affine=True)
    )
  )
  (custom_src_module): NormalizedEmbedding(
    (emb): Embedding(
      (Embedding): Embedding(5000, 768)
    )
  )
  (output_proj): ModuleList(
    (layers): ModuleList(
      (0): Linear(
        (w): Linear(in_features=768, out_features=768, bias=True)
      )
      (1): LayerNorm(
        (norm): LayerNorm((768,), eps=1e-06, elementwise_affine=True)
      )
      (2): Linear(
        (w): Linear(in_features=768, out_features=5000, bias=True)
      )
    )
  )
) loading from /scratch/flatala/speechbrain/transformer/results/conformer_small/7775/save/lm.ckpt, the transferred parameters did not have parameters for the key: encoder.norm.norm.weight
2025-03-17 14:45:55,501 - speechbrain.utils.checkpoints - WARNING - During parameter transfer to TransformerLM(
  (positional_encoding): PositionalEncoding()
  (encoder): TransformerEncoder(
    (layers): ModuleList(
      (0-11): 12 x TransformerEncoderLayer(
        (self_att): MultiheadAttention(
          (att): MultiheadAttention(
            (out_proj): NonDynamicallyQuantizableLinear(in_features=768, out_features=768, bias=True)
          )
        )
        (pos_ffn): PositionalwiseFeedForward(
          (ffn): Sequential(
            (0): Linear(in_features=768, out_features=3072, bias=True)
            (1): GELU(approximate='none')
            (2): Dropout(p=0.0, inplace=False)
            (3): Linear(in_features=3072, out_features=768, bias=True)
          )
        )
        (norm1): LayerNorm(
          (norm): LayerNorm((768,), eps=1e-06, elementwise_affine=True)
        )
        (norm2): LayerNorm(
          (norm): LayerNorm((768,), eps=1e-06, elementwise_affine=True)
        )
        (dropout1): Dropout(p=0.0, inplace=False)
        (dropout2): Dropout(p=0.0, inplace=False)
      )
    )
    (norm): LayerNorm(
      (norm): LayerNorm((768,), eps=1e-06, elementwise_affine=True)
    )
  )
  (custom_src_module): NormalizedEmbedding(
    (emb): Embedding(
      (Embedding): Embedding(5000, 768)
    )
  )
  (output_proj): ModuleList(
    (layers): ModuleList(
      (0): Linear(
        (w): Linear(in_features=768, out_features=768, bias=True)
      )
      (1): LayerNorm(
        (norm): LayerNorm((768,), eps=1e-06, elementwise_affine=True)
      )
      (2): Linear(
        (w): Linear(in_features=768, out_features=5000, bias=True)
      )
    )
  )
) loading from /scratch/flatala/speechbrain/transformer/results/conformer_small/7775/save/lm.ckpt, the transferred parameters did not have parameters for the key: encoder.norm.norm.bias
2025-03-17 14:45:55,502 - speechbrain.utils.checkpoints - WARNING - During parameter transfer to TransformerLM(
  (positional_encoding): PositionalEncoding()
  (encoder): TransformerEncoder(
    (layers): ModuleList(
      (0-11): 12 x TransformerEncoderLayer(
        (self_att): MultiheadAttention(
          (att): MultiheadAttention(
            (out_proj): NonDynamicallyQuantizableLinear(in_features=768, out_features=768, bias=True)
          )
        )
        (pos_ffn): PositionalwiseFeedForward(
          (ffn): Sequential(
            (0): Linear(in_features=768, out_features=3072, bias=True)
            (1): GELU(approximate='none')
            (2): Dropout(p=0.0, inplace=False)
            (3): Linear(in_features=3072, out_features=768, bias=True)
          )
        )
        (norm1): LayerNorm(
          (norm): LayerNorm((768,), eps=1e-06, elementwise_affine=True)
        )
        (norm2): LayerNorm(
          (norm): LayerNorm((768,), eps=1e-06, elementwise_affine=True)
        )
        (dropout1): Dropout(p=0.0, inplace=False)
        (dropout2): Dropout(p=0.0, inplace=False)
      )
    )
    (norm): LayerNorm(
      (norm): LayerNorm((768,), eps=1e-06, elementwise_affine=True)
    )
  )
  (custom_src_module): NormalizedEmbedding(
    (emb): Embedding(
      (Embedding): Embedding(5000, 768)
    )
  )
  (output_proj): ModuleList(
    (layers): ModuleList(
      (0): Linear(
        (w): Linear(in_features=768, out_features=768, bias=True)
      )
      (1): LayerNorm(
        (norm): LayerNorm((768,), eps=1e-06, elementwise_affine=True)
      )
      (2): Linear(
        (w): Linear(in_features=768, out_features=5000, bias=True)
      )
    )
  )
) loading from /scratch/flatala/speechbrain/transformer/results/conformer_small/7775/save/lm.ckpt, the transferred parameters did not have parameters for the key: custom_src_module.emb.Embedding.weight
2025-03-17 14:45:55,502 - speechbrain.utils.checkpoints - WARNING - During parameter transfer to TransformerLM(
  (positional_encoding): PositionalEncoding()
  (encoder): TransformerEncoder(
    (layers): ModuleList(
      (0-11): 12 x TransformerEncoderLayer(
        (self_att): MultiheadAttention(
          (att): MultiheadAttention(
            (out_proj): NonDynamicallyQuantizableLinear(in_features=768, out_features=768, bias=True)
          )
        )
        (pos_ffn): PositionalwiseFeedForward(
          (ffn): Sequential(
            (0): Linear(in_features=768, out_features=3072, bias=True)
            (1): GELU(approximate='none')
            (2): Dropout(p=0.0, inplace=False)
            (3): Linear(in_features=3072, out_features=768, bias=True)
          )
        )
        (norm1): LayerNorm(
          (norm): LayerNorm((768,), eps=1e-06, elementwise_affine=True)
        )
        (norm2): LayerNorm(
          (norm): LayerNorm((768,), eps=1e-06, elementwise_affine=True)
        )
        (dropout1): Dropout(p=0.0, inplace=False)
        (dropout2): Dropout(p=0.0, inplace=False)
      )
    )
    (norm): LayerNorm(
      (norm): LayerNorm((768,), eps=1e-06, elementwise_affine=True)
    )
  )
  (custom_src_module): NormalizedEmbedding(
    (emb): Embedding(
      (Embedding): Embedding(5000, 768)
    )
  )
  (output_proj): ModuleList(
    (layers): ModuleList(
      (0): Linear(
        (w): Linear(in_features=768, out_features=768, bias=True)
      )
      (1): LayerNorm(
        (norm): LayerNorm((768,), eps=1e-06, elementwise_affine=True)
      )
      (2): Linear(
        (w): Linear(in_features=768, out_features=5000, bias=True)
      )
    )
  )
) loading from /scratch/flatala/speechbrain/transformer/results/conformer_small/7775/save/lm.ckpt, the transferred parameters did not have parameters for the key: output_proj.layers.0.w.weight
2025-03-17 14:45:55,503 - speechbrain.utils.checkpoints - WARNING - During parameter transfer to TransformerLM(
  (positional_encoding): PositionalEncoding()
  (encoder): TransformerEncoder(
    (layers): ModuleList(
      (0-11): 12 x TransformerEncoderLayer(
        (self_att): MultiheadAttention(
          (att): MultiheadAttention(
            (out_proj): NonDynamicallyQuantizableLinear(in_features=768, out_features=768, bias=True)
          )
        )
        (pos_ffn): PositionalwiseFeedForward(
          (ffn): Sequential(
            (0): Linear(in_features=768, out_features=3072, bias=True)
            (1): GELU(approximate='none')
            (2): Dropout(p=0.0, inplace=False)
            (3): Linear(in_features=3072, out_features=768, bias=True)
          )
        )
        (norm1): LayerNorm(
          (norm): LayerNorm((768,), eps=1e-06, elementwise_affine=True)
        )
        (norm2): LayerNorm(
          (norm): LayerNorm((768,), eps=1e-06, elementwise_affine=True)
        )
        (dropout1): Dropout(p=0.0, inplace=False)
        (dropout2): Dropout(p=0.0, inplace=False)
      )
    )
    (norm): LayerNorm(
      (norm): LayerNorm((768,), eps=1e-06, elementwise_affine=True)
    )
  )
  (custom_src_module): NormalizedEmbedding(
    (emb): Embedding(
      (Embedding): Embedding(5000, 768)
    )
  )
  (output_proj): ModuleList(
    (layers): ModuleList(
      (0): Linear(
        (w): Linear(in_features=768, out_features=768, bias=True)
      )
      (1): LayerNorm(
        (norm): LayerNorm((768,), eps=1e-06, elementwise_affine=True)
      )
      (2): Linear(
        (w): Linear(in_features=768, out_features=5000, bias=True)
      )
    )
  )
) loading from /scratch/flatala/speechbrain/transformer/results/conformer_small/7775/save/lm.ckpt, the transferred parameters did not have parameters for the key: output_proj.layers.0.w.bias
2025-03-17 14:45:55,504 - speechbrain.utils.checkpoints - WARNING - During parameter transfer to TransformerLM(
  (positional_encoding): PositionalEncoding()
  (encoder): TransformerEncoder(
    (layers): ModuleList(
      (0-11): 12 x TransformerEncoderLayer(
        (self_att): MultiheadAttention(
          (att): MultiheadAttention(
            (out_proj): NonDynamicallyQuantizableLinear(in_features=768, out_features=768, bias=True)
          )
        )
        (pos_ffn): PositionalwiseFeedForward(
          (ffn): Sequential(
            (0): Linear(in_features=768, out_features=3072, bias=True)
            (1): GELU(approximate='none')
            (2): Dropout(p=0.0, inplace=False)
            (3): Linear(in_features=3072, out_features=768, bias=True)
          )
        )
        (norm1): LayerNorm(
          (norm): LayerNorm((768,), eps=1e-06, elementwise_affine=True)
        )
        (norm2): LayerNorm(
          (norm): LayerNorm((768,), eps=1e-06, elementwise_affine=True)
        )
        (dropout1): Dropout(p=0.0, inplace=False)
        (dropout2): Dropout(p=0.0, inplace=False)
      )
    )
    (norm): LayerNorm(
      (norm): LayerNorm((768,), eps=1e-06, elementwise_affine=True)
    )
  )
  (custom_src_module): NormalizedEmbedding(
    (emb): Embedding(
      (Embedding): Embedding(5000, 768)
    )
  )
  (output_proj): ModuleList(
    (layers): ModuleList(
      (0): Linear(
        (w): Linear(in_features=768, out_features=768, bias=True)
      )
      (1): LayerNorm(
        (norm): LayerNorm((768,), eps=1e-06, elementwise_affine=True)
      )
      (2): Linear(
        (w): Linear(in_features=768, out_features=5000, bias=True)
      )
    )
  )
) loading from /scratch/flatala/speechbrain/transformer/results/conformer_small/7775/save/lm.ckpt, the transferred parameters did not have parameters for the key: output_proj.layers.1.norm.weight
2025-03-17 14:45:55,504 - speechbrain.utils.checkpoints - WARNING - During parameter transfer to TransformerLM(
  (positional_encoding): PositionalEncoding()
  (encoder): TransformerEncoder(
    (layers): ModuleList(
      (0-11): 12 x TransformerEncoderLayer(
        (self_att): MultiheadAttention(
          (att): MultiheadAttention(
            (out_proj): NonDynamicallyQuantizableLinear(in_features=768, out_features=768, bias=True)
          )
        )
        (pos_ffn): PositionalwiseFeedForward(
          (ffn): Sequential(
            (0): Linear(in_features=768, out_features=3072, bias=True)
            (1): GELU(approximate='none')
            (2): Dropout(p=0.0, inplace=False)
            (3): Linear(in_features=3072, out_features=768, bias=True)
          )
        )
        (norm1): LayerNorm(
          (norm): LayerNorm((768,), eps=1e-06, elementwise_affine=True)
        )
        (norm2): LayerNorm(
          (norm): LayerNorm((768,), eps=1e-06, elementwise_affine=True)
        )
        (dropout1): Dropout(p=0.0, inplace=False)
        (dropout2): Dropout(p=0.0, inplace=False)
      )
    )
    (norm): LayerNorm(
      (norm): LayerNorm((768,), eps=1e-06, elementwise_affine=True)
    )
  )
  (custom_src_module): NormalizedEmbedding(
    (emb): Embedding(
      (Embedding): Embedding(5000, 768)
    )
  )
  (output_proj): ModuleList(
    (layers): ModuleList(
      (0): Linear(
        (w): Linear(in_features=768, out_features=768, bias=True)
      )
      (1): LayerNorm(
        (norm): LayerNorm((768,), eps=1e-06, elementwise_affine=True)
      )
      (2): Linear(
        (w): Linear(in_features=768, out_features=5000, bias=True)
      )
    )
  )
) loading from /scratch/flatala/speechbrain/transformer/results/conformer_small/7775/save/lm.ckpt, the transferred parameters did not have parameters for the key: output_proj.layers.1.norm.bias
2025-03-17 14:45:55,505 - speechbrain.utils.checkpoints - WARNING - During parameter transfer to TransformerLM(
  (positional_encoding): PositionalEncoding()
  (encoder): TransformerEncoder(
    (layers): ModuleList(
      (0-11): 12 x TransformerEncoderLayer(
        (self_att): MultiheadAttention(
          (att): MultiheadAttention(
            (out_proj): NonDynamicallyQuantizableLinear(in_features=768, out_features=768, bias=True)
          )
        )
        (pos_ffn): PositionalwiseFeedForward(
          (ffn): Sequential(
            (0): Linear(in_features=768, out_features=3072, bias=True)
            (1): GELU(approximate='none')
            (2): Dropout(p=0.0, inplace=False)
            (3): Linear(in_features=3072, out_features=768, bias=True)
          )
        )
        (norm1): LayerNorm(
          (norm): LayerNorm((768,), eps=1e-06, elementwise_affine=True)
        )
        (norm2): LayerNorm(
          (norm): LayerNorm((768,), eps=1e-06, elementwise_affine=True)
        )
        (dropout1): Dropout(p=0.0, inplace=False)
        (dropout2): Dropout(p=0.0, inplace=False)
      )
    )
    (norm): LayerNorm(
      (norm): LayerNorm((768,), eps=1e-06, elementwise_affine=True)
    )
  )
  (custom_src_module): NormalizedEmbedding(
    (emb): Embedding(
      (Embedding): Embedding(5000, 768)
    )
  )
  (output_proj): ModuleList(
    (layers): ModuleList(
      (0): Linear(
        (w): Linear(in_features=768, out_features=768, bias=True)
      )
      (1): LayerNorm(
        (norm): LayerNorm((768,), eps=1e-06, elementwise_affine=True)
      )
      (2): Linear(
        (w): Linear(in_features=768, out_features=5000, bias=True)
      )
    )
  )
) loading from /scratch/flatala/speechbrain/transformer/results/conformer_small/7775/save/lm.ckpt, the transferred parameters did not have parameters for the key: output_proj.layers.2.w.weight
2025-03-17 14:45:55,505 - speechbrain.utils.checkpoints - WARNING - During parameter transfer to TransformerLM(
  (positional_encoding): PositionalEncoding()
  (encoder): TransformerEncoder(
    (layers): ModuleList(
      (0-11): 12 x TransformerEncoderLayer(
        (self_att): MultiheadAttention(
          (att): MultiheadAttention(
            (out_proj): NonDynamicallyQuantizableLinear(in_features=768, out_features=768, bias=True)
          )
        )
        (pos_ffn): PositionalwiseFeedForward(
          (ffn): Sequential(
            (0): Linear(in_features=768, out_features=3072, bias=True)
            (1): GELU(approximate='none')
            (2): Dropout(p=0.0, inplace=False)
            (3): Linear(in_features=3072, out_features=768, bias=True)
          )
        )
        (norm1): LayerNorm(
          (norm): LayerNorm((768,), eps=1e-06, elementwise_affine=True)
        )
        (norm2): LayerNorm(
          (norm): LayerNorm((768,), eps=1e-06, elementwise_affine=True)
        )
        (dropout1): Dropout(p=0.0, inplace=False)
        (dropout2): Dropout(p=0.0, inplace=False)
      )
    )
    (norm): LayerNorm(
      (norm): LayerNorm((768,), eps=1e-06, elementwise_affine=True)
    )
  )
  (custom_src_module): NormalizedEmbedding(
    (emb): Embedding(
      (Embedding): Embedding(5000, 768)
    )
  )
  (output_proj): ModuleList(
    (layers): ModuleList(
      (0): Linear(
        (w): Linear(in_features=768, out_features=768, bias=True)
      )
      (1): LayerNorm(
        (norm): LayerNorm((768,), eps=1e-06, elementwise_affine=True)
      )
      (2): Linear(
        (w): Linear(in_features=768, out_features=5000, bias=True)
      )
    )
  )
) loading from /scratch/flatala/speechbrain/transformer/results/conformer_small/7775/save/lm.ckpt, the transferred parameters did not have parameters for the key: output_proj.layers.2.w.bias
2025-03-17 14:45:55,506 - speechbrain.utils.checkpoints - WARNING - During parameter transfer to TransformerLM(
  (positional_encoding): PositionalEncoding()
  (encoder): TransformerEncoder(
    (layers): ModuleList(
      (0-11): 12 x TransformerEncoderLayer(
        (self_att): MultiheadAttention(
          (att): MultiheadAttention(
            (out_proj): NonDynamicallyQuantizableLinear(in_features=768, out_features=768, bias=True)
          )
        )
        (pos_ffn): PositionalwiseFeedForward(
          (ffn): Sequential(
            (0): Linear(in_features=768, out_features=3072, bias=True)
            (1): GELU(approximate='none')
            (2): Dropout(p=0.0, inplace=False)
            (3): Linear(in_features=3072, out_features=768, bias=True)
          )
        )
        (norm1): LayerNorm(
          (norm): LayerNorm((768,), eps=1e-06, elementwise_affine=True)
        )
        (norm2): LayerNorm(
          (norm): LayerNorm((768,), eps=1e-06, elementwise_affine=True)
        )
        (dropout1): Dropout(p=0.0, inplace=False)
        (dropout2): Dropout(p=0.0, inplace=False)
      )
    )
    (norm): LayerNorm(
      (norm): LayerNorm((768,), eps=1e-06, elementwise_affine=True)
    )
  )
  (custom_src_module): NormalizedEmbedding(
    (emb): Embedding(
      (Embedding): Embedding(5000, 768)
    )
  )
  (output_proj): ModuleList(
    (layers): ModuleList(
      (0): Linear(
        (w): Linear(in_features=768, out_features=768, bias=True)
      )
      (1): LayerNorm(
        (norm): LayerNorm((768,), eps=1e-06, elementwise_affine=True)
      )
      (2): Linear(
        (w): Linear(in_features=768, out_features=5000, bias=True)
      )
    )
  )
) loading from /scratch/flatala/speechbrain/transformer/results/conformer_small/7775/save/lm.ckpt, the object could not use the parameters loaded with the key: embedding.Embedding.weight
2025-03-17 14:45:55,506 - speechbrain.utils.checkpoints - WARNING - During parameter transfer to TransformerLM(
  (positional_encoding): PositionalEncoding()
  (encoder): TransformerEncoder(
    (layers): ModuleList(
      (0-11): 12 x TransformerEncoderLayer(
        (self_att): MultiheadAttention(
          (att): MultiheadAttention(
            (out_proj): NonDynamicallyQuantizableLinear(in_features=768, out_features=768, bias=True)
          )
        )
        (pos_ffn): PositionalwiseFeedForward(
          (ffn): Sequential(
            (0): Linear(in_features=768, out_features=3072, bias=True)
            (1): GELU(approximate='none')
            (2): Dropout(p=0.0, inplace=False)
            (3): Linear(in_features=3072, out_features=768, bias=True)
          )
        )
        (norm1): LayerNorm(
          (norm): LayerNorm((768,), eps=1e-06, elementwise_affine=True)
        )
        (norm2): LayerNorm(
          (norm): LayerNorm((768,), eps=1e-06, elementwise_affine=True)
        )
        (dropout1): Dropout(p=0.0, inplace=False)
        (dropout2): Dropout(p=0.0, inplace=False)
      )
    )
    (norm): LayerNorm(
      (norm): LayerNorm((768,), eps=1e-06, elementwise_affine=True)
    )
  )
  (custom_src_module): NormalizedEmbedding(
    (emb): Embedding(
      (Embedding): Embedding(5000, 768)
    )
  )
  (output_proj): ModuleList(
    (layers): ModuleList(
      (0): Linear(
        (w): Linear(in_features=768, out_features=768, bias=True)
      )
      (1): LayerNorm(
        (norm): LayerNorm((768,), eps=1e-06, elementwise_affine=True)
      )
      (2): Linear(
        (w): Linear(in_features=768, out_features=5000, bias=True)
      )
    )
  )
) loading from /scratch/flatala/speechbrain/transformer/results/conformer_small/7775/save/lm.ckpt, the object could not use the parameters loaded with the key: rnn.rnn.weight_ih_l0
2025-03-17 14:45:55,507 - speechbrain.utils.checkpoints - WARNING - During parameter transfer to TransformerLM(
  (positional_encoding): PositionalEncoding()
  (encoder): TransformerEncoder(
    (layers): ModuleList(
      (0-11): 12 x TransformerEncoderLayer(
        (self_att): MultiheadAttention(
          (att): MultiheadAttention(
            (out_proj): NonDynamicallyQuantizableLinear(in_features=768, out_features=768, bias=True)
          )
        )
        (pos_ffn): PositionalwiseFeedForward(
          (ffn): Sequential(
            (0): Linear(in_features=768, out_features=3072, bias=True)
            (1): GELU(approximate='none')
            (2): Dropout(p=0.0, inplace=False)
            (3): Linear(in_features=3072, out_features=768, bias=True)
          )
        )
        (norm1): LayerNorm(
          (norm): LayerNorm((768,), eps=1e-06, elementwise_affine=True)
        )
        (norm2): LayerNorm(
          (norm): LayerNorm((768,), eps=1e-06, elementwise_affine=True)
        )
        (dropout1): Dropout(p=0.0, inplace=False)
        (dropout2): Dropout(p=0.0, inplace=False)
      )
    )
    (norm): LayerNorm(
      (norm): LayerNorm((768,), eps=1e-06, elementwise_affine=True)
    )
  )
  (custom_src_module): NormalizedEmbedding(
    (emb): Embedding(
      (Embedding): Embedding(5000, 768)
    )
  )
  (output_proj): ModuleList(
    (layers): ModuleList(
      (0): Linear(
        (w): Linear(in_features=768, out_features=768, bias=True)
      )
      (1): LayerNorm(
        (norm): LayerNorm((768,), eps=1e-06, elementwise_affine=True)
      )
      (2): Linear(
        (w): Linear(in_features=768, out_features=5000, bias=True)
      )
    )
  )
) loading from /scratch/flatala/speechbrain/transformer/results/conformer_small/7775/save/lm.ckpt, the object could not use the parameters loaded with the key: rnn.rnn.weight_hh_l0
2025-03-17 14:45:55,507 - speechbrain.utils.checkpoints - WARNING - During parameter transfer to TransformerLM(
  (positional_encoding): PositionalEncoding()
  (encoder): TransformerEncoder(
    (layers): ModuleList(
      (0-11): 12 x TransformerEncoderLayer(
        (self_att): MultiheadAttention(
          (att): MultiheadAttention(
            (out_proj): NonDynamicallyQuantizableLinear(in_features=768, out_features=768, bias=True)
          )
        )
        (pos_ffn): PositionalwiseFeedForward(
          (ffn): Sequential(
            (0): Linear(in_features=768, out_features=3072, bias=True)
            (1): GELU(approximate='none')
            (2): Dropout(p=0.0, inplace=False)
            (3): Linear(in_features=3072, out_features=768, bias=True)
          )
        )
        (norm1): LayerNorm(
          (norm): LayerNorm((768,), eps=1e-06, elementwise_affine=True)
        )
        (norm2): LayerNorm(
          (norm): LayerNorm((768,), eps=1e-06, elementwise_affine=True)
        )
        (dropout1): Dropout(p=0.0, inplace=False)
        (dropout2): Dropout(p=0.0, inplace=False)
      )
    )
    (norm): LayerNorm(
      (norm): LayerNorm((768,), eps=1e-06, elementwise_affine=True)
    )
  )
  (custom_src_module): NormalizedEmbedding(
    (emb): Embedding(
      (Embedding): Embedding(5000, 768)
    )
  )
  (output_proj): ModuleList(
    (layers): ModuleList(
      (0): Linear(
        (w): Linear(in_features=768, out_features=768, bias=True)
      )
      (1): LayerNorm(
        (norm): LayerNorm((768,), eps=1e-06, elementwise_affine=True)
      )
      (2): Linear(
        (w): Linear(in_features=768, out_features=5000, bias=True)
      )
    )
  )
) loading from /scratch/flatala/speechbrain/transformer/results/conformer_small/7775/save/lm.ckpt, the object could not use the parameters loaded with the key: rnn.rnn.bias_ih_l0
2025-03-17 14:45:55,508 - speechbrain.utils.checkpoints - WARNING - During parameter transfer to TransformerLM(
  (positional_encoding): PositionalEncoding()
  (encoder): TransformerEncoder(
    (layers): ModuleList(
      (0-11): 12 x TransformerEncoderLayer(
        (self_att): MultiheadAttention(
          (att): MultiheadAttention(
            (out_proj): NonDynamicallyQuantizableLinear(in_features=768, out_features=768, bias=True)
          )
        )
        (pos_ffn): PositionalwiseFeedForward(
          (ffn): Sequential(
            (0): Linear(in_features=768, out_features=3072, bias=True)
            (1): GELU(approximate='none')
            (2): Dropout(p=0.0, inplace=False)
            (3): Linear(in_features=3072, out_features=768, bias=True)
          )
        )
        (norm1): LayerNorm(
          (norm): LayerNorm((768,), eps=1e-06, elementwise_affine=True)
        )
        (norm2): LayerNorm(
          (norm): LayerNorm((768,), eps=1e-06, elementwise_affine=True)
        )
        (dropout1): Dropout(p=0.0, inplace=False)
        (dropout2): Dropout(p=0.0, inplace=False)
      )
    )
    (norm): LayerNorm(
      (norm): LayerNorm((768,), eps=1e-06, elementwise_affine=True)
    )
  )
  (custom_src_module): NormalizedEmbedding(
    (emb): Embedding(
      (Embedding): Embedding(5000, 768)
    )
  )
  (output_proj): ModuleList(
    (layers): ModuleList(
      (0): Linear(
        (w): Linear(in_features=768, out_features=768, bias=True)
      )
      (1): LayerNorm(
        (norm): LayerNorm((768,), eps=1e-06, elementwise_affine=True)
      )
      (2): Linear(
        (w): Linear(in_features=768, out_features=5000, bias=True)
      )
    )
  )
) loading from /scratch/flatala/speechbrain/transformer/results/conformer_small/7775/save/lm.ckpt, the object could not use the parameters loaded with the key: rnn.rnn.bias_hh_l0
2025-03-17 14:45:55,508 - speechbrain.utils.checkpoints - WARNING - During parameter transfer to TransformerLM(
  (positional_encoding): PositionalEncoding()
  (encoder): TransformerEncoder(
    (layers): ModuleList(
      (0-11): 12 x TransformerEncoderLayer(
        (self_att): MultiheadAttention(
          (att): MultiheadAttention(
            (out_proj): NonDynamicallyQuantizableLinear(in_features=768, out_features=768, bias=True)
          )
        )
        (pos_ffn): PositionalwiseFeedForward(
          (ffn): Sequential(
            (0): Linear(in_features=768, out_features=3072, bias=True)
            (1): GELU(approximate='none')
            (2): Dropout(p=0.0, inplace=False)
            (3): Linear(in_features=3072, out_features=768, bias=True)
          )
        )
        (norm1): LayerNorm(
          (norm): LayerNorm((768,), eps=1e-06, elementwise_affine=True)
        )
        (norm2): LayerNorm(
          (norm): LayerNorm((768,), eps=1e-06, elementwise_affine=True)
        )
        (dropout1): Dropout(p=0.0, inplace=False)
        (dropout2): Dropout(p=0.0, inplace=False)
      )
    )
    (norm): LayerNorm(
      (norm): LayerNorm((768,), eps=1e-06, elementwise_affine=True)
    )
  )
  (custom_src_module): NormalizedEmbedding(
    (emb): Embedding(
      (Embedding): Embedding(5000, 768)
    )
  )
  (output_proj): ModuleList(
    (layers): ModuleList(
      (0): Linear(
        (w): Linear(in_features=768, out_features=768, bias=True)
      )
      (1): LayerNorm(
        (norm): LayerNorm((768,), eps=1e-06, elementwise_affine=True)
      )
      (2): Linear(
        (w): Linear(in_features=768, out_features=5000, bias=True)
      )
    )
  )
) loading from /scratch/flatala/speechbrain/transformer/results/conformer_small/7775/save/lm.ckpt, the object could not use the parameters loaded with the key: rnn.rnn.weight_ih_l1
2025-03-17 14:45:55,509 - speechbrain.utils.checkpoints - WARNING - During parameter transfer to TransformerLM(
  (positional_encoding): PositionalEncoding()
  (encoder): TransformerEncoder(
    (layers): ModuleList(
      (0-11): 12 x TransformerEncoderLayer(
        (self_att): MultiheadAttention(
          (att): MultiheadAttention(
            (out_proj): NonDynamicallyQuantizableLinear(in_features=768, out_features=768, bias=True)
          )
        )
        (pos_ffn): PositionalwiseFeedForward(
          (ffn): Sequential(
            (0): Linear(in_features=768, out_features=3072, bias=True)
            (1): GELU(approximate='none')
            (2): Dropout(p=0.0, inplace=False)
            (3): Linear(in_features=3072, out_features=768, bias=True)
          )
        )
        (norm1): LayerNorm(
          (norm): LayerNorm((768,), eps=1e-06, elementwise_affine=True)
        )
        (norm2): LayerNorm(
          (norm): LayerNorm((768,), eps=1e-06, elementwise_affine=True)
        )
        (dropout1): Dropout(p=0.0, inplace=False)
        (dropout2): Dropout(p=0.0, inplace=False)
      )
    )
    (norm): LayerNorm(
      (norm): LayerNorm((768,), eps=1e-06, elementwise_affine=True)
    )
  )
  (custom_src_module): NormalizedEmbedding(
    (emb): Embedding(
      (Embedding): Embedding(5000, 768)
    )
  )
  (output_proj): ModuleList(
    (layers): ModuleList(
      (0): Linear(
        (w): Linear(in_features=768, out_features=768, bias=True)
      )
      (1): LayerNorm(
        (norm): LayerNorm((768,), eps=1e-06, elementwise_affine=True)
      )
      (2): Linear(
        (w): Linear(in_features=768, out_features=5000, bias=True)
      )
    )
  )
) loading from /scratch/flatala/speechbrain/transformer/results/conformer_small/7775/save/lm.ckpt, the object could not use the parameters loaded with the key: rnn.rnn.weight_hh_l1
2025-03-17 14:45:55,509 - speechbrain.utils.checkpoints - WARNING - During parameter transfer to TransformerLM(
  (positional_encoding): PositionalEncoding()
  (encoder): TransformerEncoder(
    (layers): ModuleList(
      (0-11): 12 x TransformerEncoderLayer(
        (self_att): MultiheadAttention(
          (att): MultiheadAttention(
            (out_proj): NonDynamicallyQuantizableLinear(in_features=768, out_features=768, bias=True)
          )
        )
        (pos_ffn): PositionalwiseFeedForward(
          (ffn): Sequential(
            (0): Linear(in_features=768, out_features=3072, bias=True)
            (1): GELU(approximate='none')
            (2): Dropout(p=0.0, inplace=False)
            (3): Linear(in_features=3072, out_features=768, bias=True)
          )
        )
        (norm1): LayerNorm(
          (norm): LayerNorm((768,), eps=1e-06, elementwise_affine=True)
        )
        (norm2): LayerNorm(
          (norm): LayerNorm((768,), eps=1e-06, elementwise_affine=True)
        )
        (dropout1): Dropout(p=0.0, inplace=False)
        (dropout2): Dropout(p=0.0, inplace=False)
      )
    )
    (norm): LayerNorm(
      (norm): LayerNorm((768,), eps=1e-06, elementwise_affine=True)
    )
  )
  (custom_src_module): NormalizedEmbedding(
    (emb): Embedding(
      (Embedding): Embedding(5000, 768)
    )
  )
  (output_proj): ModuleList(
    (layers): ModuleList(
      (0): Linear(
        (w): Linear(in_features=768, out_features=768, bias=True)
      )
      (1): LayerNorm(
        (norm): LayerNorm((768,), eps=1e-06, elementwise_affine=True)
      )
      (2): Linear(
        (w): Linear(in_features=768, out_features=5000, bias=True)
      )
    )
  )
) loading from /scratch/flatala/speechbrain/transformer/results/conformer_small/7775/save/lm.ckpt, the object could not use the parameters loaded with the key: rnn.rnn.bias_ih_l1
2025-03-17 14:45:55,510 - speechbrain.utils.checkpoints - WARNING - During parameter transfer to TransformerLM(
  (positional_encoding): PositionalEncoding()
  (encoder): TransformerEncoder(
    (layers): ModuleList(
      (0-11): 12 x TransformerEncoderLayer(
        (self_att): MultiheadAttention(
          (att): MultiheadAttention(
            (out_proj): NonDynamicallyQuantizableLinear(in_features=768, out_features=768, bias=True)
          )
        )
        (pos_ffn): PositionalwiseFeedForward(
          (ffn): Sequential(
            (0): Linear(in_features=768, out_features=3072, bias=True)
            (1): GELU(approximate='none')
            (2): Dropout(p=0.0, inplace=False)
            (3): Linear(in_features=3072, out_features=768, bias=True)
          )
        )
        (norm1): LayerNorm(
          (norm): LayerNorm((768,), eps=1e-06, elementwise_affine=True)
        )
        (norm2): LayerNorm(
          (norm): LayerNorm((768,), eps=1e-06, elementwise_affine=True)
        )
        (dropout1): Dropout(p=0.0, inplace=False)
        (dropout2): Dropout(p=0.0, inplace=False)
      )
    )
    (norm): LayerNorm(
      (norm): LayerNorm((768,), eps=1e-06, elementwise_affine=True)
    )
  )
  (custom_src_module): NormalizedEmbedding(
    (emb): Embedding(
      (Embedding): Embedding(5000, 768)
    )
  )
  (output_proj): ModuleList(
    (layers): ModuleList(
      (0): Linear(
        (w): Linear(in_features=768, out_features=768, bias=True)
      )
      (1): LayerNorm(
        (norm): LayerNorm((768,), eps=1e-06, elementwise_affine=True)
      )
      (2): Linear(
        (w): Linear(in_features=768, out_features=5000, bias=True)
      )
    )
  )
) loading from /scratch/flatala/speechbrain/transformer/results/conformer_small/7775/save/lm.ckpt, the object could not use the parameters loaded with the key: rnn.rnn.bias_hh_l1
2025-03-17 14:45:55,510 - speechbrain.utils.checkpoints - WARNING - During parameter transfer to TransformerLM(
  (positional_encoding): PositionalEncoding()
  (encoder): TransformerEncoder(
    (layers): ModuleList(
      (0-11): 12 x TransformerEncoderLayer(
        (self_att): MultiheadAttention(
          (att): MultiheadAttention(
            (out_proj): NonDynamicallyQuantizableLinear(in_features=768, out_features=768, bias=True)
          )
        )
        (pos_ffn): PositionalwiseFeedForward(
          (ffn): Sequential(
            (0): Linear(in_features=768, out_features=3072, bias=True)
            (1): GELU(approximate='none')
            (2): Dropout(p=0.0, inplace=False)
            (3): Linear(in_features=3072, out_features=768, bias=True)
          )
        )
        (norm1): LayerNorm(
          (norm): LayerNorm((768,), eps=1e-06, elementwise_affine=True)
        )
        (norm2): LayerNorm(
          (norm): LayerNorm((768,), eps=1e-06, elementwise_affine=True)
        )
        (dropout1): Dropout(p=0.0, inplace=False)
        (dropout2): Dropout(p=0.0, inplace=False)
      )
    )
    (norm): LayerNorm(
      (norm): LayerNorm((768,), eps=1e-06, elementwise_affine=True)
    )
  )
  (custom_src_module): NormalizedEmbedding(
    (emb): Embedding(
      (Embedding): Embedding(5000, 768)
    )
  )
  (output_proj): ModuleList(
    (layers): ModuleList(
      (0): Linear(
        (w): Linear(in_features=768, out_features=768, bias=True)
      )
      (1): LayerNorm(
        (norm): LayerNorm((768,), eps=1e-06, elementwise_affine=True)
      )
      (2): Linear(
        (w): Linear(in_features=768, out_features=5000, bias=True)
      )
    )
  )
) loading from /scratch/flatala/speechbrain/transformer/results/conformer_small/7775/save/lm.ckpt, the object could not use the parameters loaded with the key: dnn.linear.w.weight
2025-03-17 14:45:55,511 - speechbrain.utils.checkpoints - WARNING - During parameter transfer to TransformerLM(
  (positional_encoding): PositionalEncoding()
  (encoder): TransformerEncoder(
    (layers): ModuleList(
      (0-11): 12 x TransformerEncoderLayer(
        (self_att): MultiheadAttention(
          (att): MultiheadAttention(
            (out_proj): NonDynamicallyQuantizableLinear(in_features=768, out_features=768, bias=True)
          )
        )
        (pos_ffn): PositionalwiseFeedForward(
          (ffn): Sequential(
            (0): Linear(in_features=768, out_features=3072, bias=True)
            (1): GELU(approximate='none')
            (2): Dropout(p=0.0, inplace=False)
            (3): Linear(in_features=3072, out_features=768, bias=True)
          )
        )
        (norm1): LayerNorm(
          (norm): LayerNorm((768,), eps=1e-06, elementwise_affine=True)
        )
        (norm2): LayerNorm(
          (norm): LayerNorm((768,), eps=1e-06, elementwise_affine=True)
        )
        (dropout1): Dropout(p=0.0, inplace=False)
        (dropout2): Dropout(p=0.0, inplace=False)
      )
    )
    (norm): LayerNorm(
      (norm): LayerNorm((768,), eps=1e-06, elementwise_affine=True)
    )
  )
  (custom_src_module): NormalizedEmbedding(
    (emb): Embedding(
      (Embedding): Embedding(5000, 768)
    )
  )
  (output_proj): ModuleList(
    (layers): ModuleList(
      (0): Linear(
        (w): Linear(in_features=768, out_features=768, bias=True)
      )
      (1): LayerNorm(
        (norm): LayerNorm((768,), eps=1e-06, elementwise_affine=True)
      )
      (2): Linear(
        (w): Linear(in_features=768, out_features=5000, bias=True)
      )
    )
  )
) loading from /scratch/flatala/speechbrain/transformer/results/conformer_small/7775/save/lm.ckpt, the object could not use the parameters loaded with the key: dnn.linear.w.bias
2025-03-17 14:45:55,511 - speechbrain.utils.checkpoints - WARNING - During parameter transfer to TransformerLM(
  (positional_encoding): PositionalEncoding()
  (encoder): TransformerEncoder(
    (layers): ModuleList(
      (0-11): 12 x TransformerEncoderLayer(
        (self_att): MultiheadAttention(
          (att): MultiheadAttention(
            (out_proj): NonDynamicallyQuantizableLinear(in_features=768, out_features=768, bias=True)
          )
        )
        (pos_ffn): PositionalwiseFeedForward(
          (ffn): Sequential(
            (0): Linear(in_features=768, out_features=3072, bias=True)
            (1): GELU(approximate='none')
            (2): Dropout(p=0.0, inplace=False)
            (3): Linear(in_features=3072, out_features=768, bias=True)
          )
        )
        (norm1): LayerNorm(
          (norm): LayerNorm((768,), eps=1e-06, elementwise_affine=True)
        )
        (norm2): LayerNorm(
          (norm): LayerNorm((768,), eps=1e-06, elementwise_affine=True)
        )
        (dropout1): Dropout(p=0.0, inplace=False)
        (dropout2): Dropout(p=0.0, inplace=False)
      )
    )
    (norm): LayerNorm(
      (norm): LayerNorm((768,), eps=1e-06, elementwise_affine=True)
    )
  )
  (custom_src_module): NormalizedEmbedding(
    (emb): Embedding(
      (Embedding): Embedding(5000, 768)
    )
  )
  (output_proj): ModuleList(
    (layers): ModuleList(
      (0): Linear(
        (w): Linear(in_features=768, out_features=768, bias=True)
      )
      (1): LayerNorm(
        (norm): LayerNorm((768,), eps=1e-06, elementwise_affine=True)
      )
      (2): Linear(
        (w): Linear(in_features=768, out_features=5000, bias=True)
      )
    )
  )
) loading from /scratch/flatala/speechbrain/transformer/results/conformer_small/7775/save/lm.ckpt, the object could not use the parameters loaded with the key: dnn.norm.norm.weight
2025-03-17 14:45:55,512 - speechbrain.utils.checkpoints - WARNING - During parameter transfer to TransformerLM(
  (positional_encoding): PositionalEncoding()
  (encoder): TransformerEncoder(
    (layers): ModuleList(
      (0-11): 12 x TransformerEncoderLayer(
        (self_att): MultiheadAttention(
          (att): MultiheadAttention(
            (out_proj): NonDynamicallyQuantizableLinear(in_features=768, out_features=768, bias=True)
          )
        )
        (pos_ffn): PositionalwiseFeedForward(
          (ffn): Sequential(
            (0): Linear(in_features=768, out_features=3072, bias=True)
            (1): GELU(approximate='none')
            (2): Dropout(p=0.0, inplace=False)
            (3): Linear(in_features=3072, out_features=768, bias=True)
          )
        )
        (norm1): LayerNorm(
          (norm): LayerNorm((768,), eps=1e-06, elementwise_affine=True)
        )
        (norm2): LayerNorm(
          (norm): LayerNorm((768,), eps=1e-06, elementwise_affine=True)
        )
        (dropout1): Dropout(p=0.0, inplace=False)
        (dropout2): Dropout(p=0.0, inplace=False)
      )
    )
    (norm): LayerNorm(
      (norm): LayerNorm((768,), eps=1e-06, elementwise_affine=True)
    )
  )
  (custom_src_module): NormalizedEmbedding(
    (emb): Embedding(
      (Embedding): Embedding(5000, 768)
    )
  )
  (output_proj): ModuleList(
    (layers): ModuleList(
      (0): Linear(
        (w): Linear(in_features=768, out_features=768, bias=True)
      )
      (1): LayerNorm(
        (norm): LayerNorm((768,), eps=1e-06, elementwise_affine=True)
      )
      (2): Linear(
        (w): Linear(in_features=768, out_features=5000, bias=True)
      )
    )
  )
) loading from /scratch/flatala/speechbrain/transformer/results/conformer_small/7775/save/lm.ckpt, the object could not use the parameters loaded with the key: dnn.norm.norm.bias
2025-03-17 14:45:55,512 - speechbrain.utils.checkpoints - WARNING - During parameter transfer to TransformerLM(
  (positional_encoding): PositionalEncoding()
  (encoder): TransformerEncoder(
    (layers): ModuleList(
      (0-11): 12 x TransformerEncoderLayer(
        (self_att): MultiheadAttention(
          (att): MultiheadAttention(
            (out_proj): NonDynamicallyQuantizableLinear(in_features=768, out_features=768, bias=True)
          )
        )
        (pos_ffn): PositionalwiseFeedForward(
          (ffn): Sequential(
            (0): Linear(in_features=768, out_features=3072, bias=True)
            (1): GELU(approximate='none')
            (2): Dropout(p=0.0, inplace=False)
            (3): Linear(in_features=3072, out_features=768, bias=True)
          )
        )
        (norm1): LayerNorm(
          (norm): LayerNorm((768,), eps=1e-06, elementwise_affine=True)
        )
        (norm2): LayerNorm(
          (norm): LayerNorm((768,), eps=1e-06, elementwise_affine=True)
        )
        (dropout1): Dropout(p=0.0, inplace=False)
        (dropout2): Dropout(p=0.0, inplace=False)
      )
    )
    (norm): LayerNorm(
      (norm): LayerNorm((768,), eps=1e-06, elementwise_affine=True)
    )
  )
  (custom_src_module): NormalizedEmbedding(
    (emb): Embedding(
      (Embedding): Embedding(5000, 768)
    )
  )
  (output_proj): ModuleList(
    (layers): ModuleList(
      (0): Linear(
        (w): Linear(in_features=768, out_features=768, bias=True)
      )
      (1): LayerNorm(
        (norm): LayerNorm((768,), eps=1e-06, elementwise_affine=True)
      )
      (2): Linear(
        (w): Linear(in_features=768, out_features=5000, bias=True)
      )
    )
  )
) loading from /scratch/flatala/speechbrain/transformer/results/conformer_small/7775/save/lm.ckpt, the object could not use the parameters loaded with the key: out.w.weight
2025-03-17 14:45:55,512 - speechbrain.utils.checkpoints - WARNING - During parameter transfer to TransformerLM(
  (positional_encoding): PositionalEncoding()
  (encoder): TransformerEncoder(
    (layers): ModuleList(
      (0-11): 12 x TransformerEncoderLayer(
        (self_att): MultiheadAttention(
          (att): MultiheadAttention(
            (out_proj): NonDynamicallyQuantizableLinear(in_features=768, out_features=768, bias=True)
          )
        )
        (pos_ffn): PositionalwiseFeedForward(
          (ffn): Sequential(
            (0): Linear(in_features=768, out_features=3072, bias=True)
            (1): GELU(approximate='none')
            (2): Dropout(p=0.0, inplace=False)
            (3): Linear(in_features=3072, out_features=768, bias=True)
          )
        )
        (norm1): LayerNorm(
          (norm): LayerNorm((768,), eps=1e-06, elementwise_affine=True)
        )
        (norm2): LayerNorm(
          (norm): LayerNorm((768,), eps=1e-06, elementwise_affine=True)
        )
        (dropout1): Dropout(p=0.0, inplace=False)
        (dropout2): Dropout(p=0.0, inplace=False)
      )
    )
    (norm): LayerNorm(
      (norm): LayerNorm((768,), eps=1e-06, elementwise_affine=True)
    )
  )
  (custom_src_module): NormalizedEmbedding(
    (emb): Embedding(
      (Embedding): Embedding(5000, 768)
    )
  )
  (output_proj): ModuleList(
    (layers): ModuleList(
      (0): Linear(
        (w): Linear(in_features=768, out_features=768, bias=True)
      )
      (1): LayerNorm(
        (norm): LayerNorm((768,), eps=1e-06, elementwise_affine=True)
      )
      (2): Linear(
        (w): Linear(in_features=768, out_features=5000, bias=True)
      )
    )
  )
) loading from /scratch/flatala/speechbrain/transformer/results/conformer_small/7775/save/lm.ckpt, the object could not use the parameters loaded with the key: out.w.bias
2025-03-17 14:45:55,643 - speechbrain.core - INFO - Info: precision arg from hparam file is used
2025-03-17 14:45:55,643 - speechbrain.core - INFO - Info: max_grad_norm arg from hparam file is used
…
